cifar_net.pth (torch, 251411 bytes, 10 tensors)

conv1.weight f4 [6, 3, 5, 5]
000000 93 89 eb bc f8 f5 1b 3d 2c 44 4c bb 2a 06 c4 bc
       -0.028752124 0.03807637 -0.0031168563 -0.02392872
000010 8e b3 49 bd 5e 17 2f 3c f0 16 02 be 3b 07 d9 bc
       -0.049243502 0.0106867235 -0.12704062 -0.026492706
000020 8d 7c da 3d ae 4c 2e be b3 04 d0 bc f2 d8 5b be
       0.106682874 -0.17021438 -0.025392866 -0.21469477
000030 8a 73 35 3d f7 75 1b 3d 02 f0 58 be 0c 84 1a be
       0.04429964 0.037954297 -0.21185306 -0.15089434
000040 25 83 df 3c 79 b3 e7 3e 8b 87 83 bc dc e7 0a bf
       0.027284214 0.45254114 -0.016055843 -0.5426004
000050 40 21 42 be d8 55 ac 3d 69 99 0c 3f d0 60 e1 3c
       -0.18957996 0.08414811 0.54921585 0.027511984
000060 29 39 20 bf 1a 8b aa bd 52 f9 1a 3e f1 48 11 3d
       -0.6258722 -0.08327313 0.1513417 0.035469953
000070 57 c7 86 bd 02 37 0d 3e 9c 96 8f 3c c5 22 19 3e
       -0.0658099 0.13790515 0.01752787 0.1495467
000080 5a ef d6 3d 35 e5 39 3e f3 97 01 bd c3 41 70 3e
       0.104948714 0.18153842 -0.03163905 0.23462586
000090 c7 9c 17 bd 59 2a ac 3d 4e ae 79 3d ed 58 b5 bd
       -0.03701475 0.08406515 0.060957246 -0.08854852
0000a0 8c b1 10 3d 49 c1 42 bd a4 e2 09 3f 17 b0 1b 3e
       0.035325572 -0.047547612 0.5386145 0.15203892
0000b0 35 81 bd be 22 78 9f bc 4c 70 e5 3d 9d 2e 32 3f
       -0.3701264 -0.019466463 0.112030596 0.69602376
0000c0 33 c3 cd 3d cc 24 c4 be ca 78 eb bd 4f 30 3a bd
       0.10046997 -0.38309324 -0.11497648 -0.045456227
0000d0 d2 c8 c8 bd a4 fc 8f bd c7 36 81 bd 0c 87 98 3b
       -0.098039284 -0.07030609 -0.06309276 0.0046547707
0000e0 1c 56 f1 bd 6f a8 a8 bd 10 58 83 3d 53 6e 1c be
       -0.11784002 -0.08235251 0.06413281 -0.1527646
0000f0 1c 45 91 3d 0e e8 c0 bc b6 e0 d0 bc e6 db 08 3e
       0.0709326 -0.023548152 -0.025497776 0.13365135
000100 a7 8e 33 be 33 f4 2f be 3f 05 fb bb a7 b2 e2 3e
       -0.17534886 -0.17182998 -0.0076605375 0.44276926
000110 2d 28 73 bd ae b7 03 bf 6e 8f 4e be 76 0d 0d 3d
       -0.059364486 -0.5145215 -0.20171902 0.034436665
000120 92 35 11 3f 94 ba 07 3e 33 ba 07 bf f6 06 39 bd
       0.56722367 0.13254768 -0.5301849 -0.045172654
000130 26 65 1e 3d 84 a9 c4 3d 80 fa fb 3d f5 3a dd bd
       0.03867068 0.09602645 0.123036385 -0.10802261
000140 c7 00 23 be d5 02 e2 bd f3 0b a1 bd e0 f6 90 bd
       -0.15918265 -0.110356964 -0.07863607 -0.07078338
000150 52 a6 eb bd b6 22 08 be 03 21 4c be 8e dd ed be
       -0.115063325 -0.13294491 -0.19934468 -0.46458095
000160 10 10 95 be 05 34 b8 be 0e 73 11 be 60 09 4a be
       -0.29113817 -0.35977188 -0.14204046 -0.19730139
000170 95 7e 08 be a9 3f c4 bc 44 29 17 be c8 c8 c0 3e
       -0.13329537 -0.023956137 -0.14761835 0.37653184
000180 17 ec 8f 3e c0 14 ba 3e 17 03 92 3e e3 27 2e 3e
       0.2810981 0.36343956 0.28517982 0.17007403
000190 69 7d 0c be 98 bd dd 3d ca ca 13 3e 96 1e 98 3d
       -0.13719715 0.10827178 0.14432827 0.07427709
0001a0 5b f4 4b bb 9a 0a 1a be a8 a7 2c 3c 3a 7e 63 3d
       -0.003112099 -0.15043107 0.010538019 0.0555403
0001b0 0d f5 d7 bd b5 b5 15 3c 26 a5 e0 bd 73 a3 4f be
       -0.105447866 0.009137561 -0.109689996 -0.20277195
0001c0 0a cf 78 be b7 5f d2 be f1 00 47 be b9 5a 97 3d
       -0.24297729 -0.4108865 -0.19433953 0.07390351
0001d0 4c af 22 be be 1e 80 bc 37 cf 5e be 49 0e 11 3c
       -0.15887183 -0.015639659 -0.21758734 0.0088535035
0001e0 78 d5 20 3e 84 28 3a 3e eb d3 aa 3e 06 76 91 3e
       0.15706432 0.18179518 0.33364806 0.28410357
0001f0 db 02 bb 3d b9 e0 72 bc 8c c4 8d bc 44 7f 91 3d
       0.09131404 -0.014824086 -0.017305635 0.07104352
000200 a8 6e 97 3d 27 67 a4 3d 89 27 13 3b 27 2f 74 3d
       0.07394153 0.08027487 0.0022453985 0.05961528
000210 e7 d9 06 bd c4 83 7b bd 2e 48 2c 3d c9 4f e2 3d
       -0.03292265 -0.06140496 0.042061023 0.11050374
000220 ec 8b 49 be 1b 88 54 be 43 30 41 be 13 0b 50 be
       -0.19682282 -0.20755045 -0.18866067 -0.20316724
000230 88 b6 aa bd fe eb 1c 3d 3b 51 22 bd b7 3a cd bd
       -0.08335596 0.038310997 -0.03962825 -0.100209646
000240 e0 3c 98 bd 3b 29 fa 3d e1 c3 35 3e 70 7b 82 3e
       -0.07433486 0.12214895 0.17750503 0.254848
000250 f5 ee 56 3e 34 6b 54 3e 64 8a 13 3e c0 7d 1e 3e
       0.20989592 0.2074402 0.1440826 0.15477657
000260 0e d7 9f 3d fe bc 11 bd 4e 0a 94 3d fe 3e 48 bd
       0.0780469 -0.035580628 0.07228528 -0.0488882
000270 9a 34 f9 bd a1 8c cd bc 11 a3 f6 3c f5 00 19 3e
       -0.12168236 -0.025091471 0.030107053 0.14941771
000280 8f dc 05 be 85 11 a5 be 57 6d 8c 3d 3d b7 1e 3e
       -0.13072418 -0.3223993 0.068567924 0.15499587
000290 d8 31 53 3e 79 f3 8f 3d b8 46 83 be cc b1 4d 3d
       0.20624483 0.070288606 -0.25639892 0.05021839
0002a0 c7 87 4e 3e 74 8f 95 3d 37 b6 8d 3d cf 88 1d be
       0.20168982 0.07302752 0.0691952 -0.1538422
0002b0 72 b9 db bd 2c 82 ce 3d f3 57 0f bd d4 74 2d 3d
       -0.1072873 0.10083422 -0.034995984 0.042347744
0002c0 5a 27 bf bd 61 83 81 bd b9 4a 24 bd 93 a7 d4 bc
       -0.093336776 -0.06323887 -0.040110324 -0.025958812
0002d0 81 67 63 be 8c 13 79 be c7 40 ce 3b 1d 64 80 3d
       -0.22207452 -0.24323863 0.006294343 0.06269095
0002e0 de d6 18 3e 0f bb 93 be 48 ea e4 be 40 bb 80 3b
       0.14925715 -0.28853652 -0.44709992 0.003928572
0002f0 28 0b 98 3e 8c d5 3f 3e 56 b8 44 be 90 27 cf be
       0.29696012 0.18733805 -0.19210944 -0.4045987
000300 ef 47 2b be a8 14 77 3e 66 1b 47 3e 35 b6 08 3e
       -0.16726659 0.24128973 0.19444045 0.13350756
000310 51 7f 2d be 0b 59 72 ba a5 b0 54 bd ab ec c3 3c
       -0.16943099 -0.0009244836 -0.051926274 0.023916563
000320 36 f1 51 bd 80 e1 38 bd ea 7e 06 be 70 98 41 3d
       -0.051255427 -0.04513693 -0.13134351 0.047264516
000330 30 94 be 3c 09 28 ca bd fa 7b 18 be 08 96 12 bd
       0.02326402 -0.09870917 -0.14891043 -0.035787612
000340 e1 cf ea 3d aa ff b8 3e 54 b2 9e be 33 09 bd be
       0.11465431 0.36132556 -0.3099543 -0.3692108
000350 1a 19 92 bd 6e 95 d0 3e e6 09 62 3e bc 10 f8 bd
       -0.07133694 0.40739006 0.22074088 -0.12112567
000360 98 48 b8 be 2d 30 bf 3a 70 79 d9 3e cd 96 7e 3e
       -0.35992885 0.0014586501 0.42475462 0.24862213
000370 4b 03 03 3e 7a 08 8c 3c 14 d8 dc 3d 99 01 ba 3d
       0.12794225 0.017093886 0.10783401 0.09082336
000380 30 cb 14 3e 49 9d d6 3e f8 34 b1 3e f7 75 08 3f
       0.14530635 0.41916874 0.34610724 0.53305
000390 9d c2 01 3f cf b2 99 3e 91 b2 92 3e 89 c0 24 3e
       0.5068758 0.30019233 0.2865186 0.16089071
0003a0 43 ea 57 3e 5a 5a 54 3e 8f 03 35 3e 99 37 4a 3e
       0.21085458 0.20737591 0.17677139 0.19747771
0003b0 8e 27 a4 3c 05 46 d1 3d cf 58 47 bd e4 17 30 3c
       0.020038392 0.10218433 -0.04866868 0.0107478835
0003c0 43 44 cf bc e7 f7 21 bd 2b 3a 0e 3d 29 30 fe bc
       -0.025301104 -0.03954306 0.034723442 -0.031028824
0003d0 14 d0 57 be 81 1a 90 bd 25 b8 d4 be 9f 82 b6 be
       -0.2107547 -0.07036305 -0.4154674 -0.3564653
0003e0 eb 04 ad be 7d 71 cb be 10 98 9a be 3e 8c 3b bd
       -0.33792815 -0.39735022 -0.3019414 -0.045788042
0003f0 0b 8a bc bd ac 19 70 be ec f6 bc be d5 31 9a be
       -0.09206017 -0.23447293 -0.36907136 -0.30116144

conv1.bias f4 [6]
000000 97 00 27 bd 88 64 00 bf 9e 1a 12 be 98 a6 c5 be
       -0.040772047 -0.501534 -0.14267966 -0.38603663
000010 9c 25 bd be 56 c8 8e 3e
       -0.36942756 0.2788722

conv2.weight f4 [16, 6, 5, 5]
000000 df c3 b3 be 03 dc 57 bd ec 1d 04 bd 9e 25 b7 bd
       -0.35110375 -0.052700054 -0.0322551 -0.08942722
000010 0d 2e 0f 3e 16 c9 b0 be 58 ca 86 3e e2 55 26 3d
       0.1398241 -0.34528416 0.2632625 0.040609248
000020 3b de ba 3a d3 24 33 3e c2 62 8e be d6 da 51 3e
       0.0014256904 0.17494516 -0.2780972 0.20493636
000030 0e 0d de 3d 31 46 67 bd 09 b7 6a 3e 27 b6 83 be
       0.10842334 -0.056463424 0.22921385 -0.2572491
000040 29 67 1a 3e f7 59 ac 3d 02 53 4a be 0c e8 98 3d
       0.15078415 0.08415597 -0.19758227 0.074661344
000050 35 63 6d be 33 86 8c bc e8 ab 95 bd 4d 37 01 be
       -0.23182376 -0.017153835 -0.07308179 -0.12618752
000060 6b f0 bb bd dc 21 24 3e 48 55 00 3e 3b 54 a3 3d
       -0.091767155 0.16028541 0.12532532 0.0797505
000070 a1 8f 8d 3d 59 78 9c 3d fe dd d2 3c 98 78 bc 3c
       0.06912161 0.07640142 0.02574062 0.023006722
000080 d6 b2 de bc 23 f0 16 be 1a 90 69 3b 2a 51 2b b9
       -0.027184885 -0.14740042 0.003563887 -0.00016338067
000090 48 09 a5 3d 38 37 0a 3d 5c 5b 91 bb 29 9f 87 3d
       0.08058411 0.033744067 -0.0044359397 0.06622154
0000a0 11 7d d4 bd 90 33 1a bb 55 6b 4e bd ab f1 fa 3c
       -0.10375417 -0.0023529269 -0.05039533 0.030632814
0000b0 fc 6a b2 bc 6e c4 e2 3c 29 ea 77 3d 30 40 95 bd
       -0.02177953 0.027681556 0.060526047 -0.072876334
0000c0 7d a7 2d 3d 68 7c a8 3d 6b 5e 7f 3e e2 37 61 3e
       0.042396057 0.082268536 0.24938361 0.21993974
0000d0 40 0e 85 bd 9a b5 20 3e e2 36 04 3e dc 5c 8b 3e
       -0.064968586 0.15694275 0.12911561 0.27219284
0000e0 66 a7 a7 bd ec 73 74 be 84 6d 92 3e ee cd 0e be
       -0.081862256 -0.23872346 0.2859918 -0.13945743
0000f0 53 aa 75 3e 23 7d ba bd b2 0b b8 be 98 73 a5 3e
       0.23990755 -0.09105899 -0.35946423 0.32314754
000100 91 59 43 bd 40 98 17 3e b6 b0 0c be 7d 71 b0 be
       -0.04769284 0.14804173 -0.13739285 -0.34461585
000110 5d 8b 8d 3e 1c 29 9c bd 67 53 11 3d f0 28 6e be
       0.27645388 -0.076250285 0.03547993 -0.23257804
000120 63 66 b2 be 14 ef cd ba 15 1f f4 bd 93 f7 0b 3e
       -0.3484374 -0.001571151 -0.11919991 0.13668661
000130 a1 10 35 3e c5 60 4f 3e 92 1d 1d 3e d0 e0 dc 3c
       0.17682125 0.20251758 0.15343311 0.026962668
000140 54 c9 af 3b 7b 7c 91 3d f6 50 2a 3c 55 0f 10 bc
       0.0053645764 0.07103821 0.010395279 -0.008792718
000150 b8 97 c5 3c 02 ff 23 be e2 05 24 3d 0a ac 20 3d
       0.024120197 -0.16015247 0.040044673 0.03922657
000160 ce 9b fc 3b 02 8f 06 bd dd 23 85 bd 92 38 1a 3d
       0.007709003 -0.032851227 -0.06500981 0.037651606
000170 77 84 a9 bd 25 e6 c6 3c 13 73 79 bb d8 ee 34 be
       -0.08277219 0.024279663 -0.0038062974 -0.17669237
000180 7d 49 eb bd 89 81 25 bd 32 06 ef bc e3 7e 7c bc
       -0.11488626 -0.040406737 -0.029177759 -0.0154111115
000190 0b 21 4d bc cd 29 26 bb 97 ae 8b 3c bf a5 8a 3c
       -0.012520085 -0.0025354505 0.017051024 0.016924737
0001a0 39 c3 99 3d 4e bf 5f 3e 0a 29 a7 3d d2 76 2d 3d
       0.07507939 0.2185032 0.081621245 0.042349644
0001b0 a3 9c 33 bd f5 de 4a bc f5 19 80 bd 3c b8 57 bc
       -0.043850552 -0.012382259 -0.06254951 -0.0131664835
0001c0 99 57 d2 bd 45 97 f5 bd d4 6a d3 bd 96 b4 12 be
       -0.10270614 -0.11991743 -0.1032311 -0.143267
0001d0 29 f4 02 be f4 7b e1 bd ba c4 4d bd 90 06 e9 bd
       -0.12788452 -0.1100997 -0.05023644 -0.11378205
0001e0 b5 53 b4 bd 19 92 c0 bd 76 52 18 bd 10 2a 41 bb
       -0.08805028 -0.09402866 -0.037188016 -0.0029474534
0001f0 77 77 aa 3d 29 85 fe bd 92 34 91 bd 56 a5 31 3c
       0.08323567 -0.12427742 -0.07090105 0.010842642
000200 00 6b 74 3d a8 9c dc bc a3 ad 28 bc 37 fe 98 3c
       0.059672356 -0.026930168 -0.0102953045 0.018675907
000210 ad cb 66 bc ad 00 03 3d 73 f6 35 3c 4f 92 57 bd
       -0.014086646 0.031983066 0.011106121 -0.052629765
000220 ce de fb 3b 3d e2 3c 3d 80 7b 9e 3d 73 3e 88 3d
       0.0076864725 0.046114195 0.077383995 0.06652536
000230 93 52 5c bd 5a 84 3c 3d b4 e7 1b 3d 0d 07 89 bd
       -0.053789686 0.046024658 0.038062766 -0.06690798
000240 ff 0e 99 bd 79 a1 a8 bd df 3c bb bd 24 b8 91 bd
       -0.074735634 -0.082339235 -0.091424696 -0.071152
000250 3e b0 38 bd bb 60 02 be 15 fa 16 3e 0b ba e1 3a
       -0.045089953 -0.12732212 0.14743836 0.0017221583
000260 cc 86 4e 3e 41 08 86 3d 1b f4 e4 3d ab 76 04 3e
       0.20168608 0.06544543 0.11179372 0.12935893
000270 ef cb 78 3c 47 1a 1c 3e 45 6e 5f bd f4 c0 0b 3e
       0.01518534 0.15244399 -0.05454852 0.13647825
000280 42 4b 45 3e 9e c9 8d bd 00 66 9b 3e 39 f8 14 be
       0.1926699 -0.06923221 0.30351257 -0.14547814
000290 68 64 43 3d 8e 12 d9 3d 1c 49 ca 3d cd df 09 3e
       0.047703177 0.10599242 0.09877226 0.1346428
0002a0 e6 54 47 bd e2 2d 79 3b 82 00 fd bd 05 1e 4c bd
       -0.04866495 0.0038021733 -0.123536125 -0.049833316
0002b0 e3 eb 4e 3d 1e de 0d be e9 90 a6 bd dc 31 03 3e
       0.050517928 -0.13854262 -0.08133108 0.12811989
0002c0 7f 41 8b bc 91 67 84 bc f2 57 ea bc 7d 66 94 bc
       -0.016999004 -0.016162666 -0.028606389 -0.018115276
0002d0 92 f2 51 3d 44 f5 ab bd 00 d3 bf bd b4 ea d5 bb
       0.051256724 -0.0839639 -0.09366417 -0.006528223
0002e0 47 4a 35 bd 97 fa f4 bc 0f fd bf bd 8c 58 6b 3d
       -0.04426029 -0.029904647 -0.09374439 0.05745749
0002f0 55 f4 b3 3c 39 14 02 be 79 b8 32 3d ce 54 de 3d
       0.021967093 -0.12703027 0.043632958 0.10856019
000300 7a 6a d6 3c f3 55 1d 3d 3d b5 86 bb 60 d6 5f bd
       0.026173819 0.038412046 -0.0041109608 -0.054647803
000310 5c 05 03 3d 99 cb 69 3d bb 56 97 bd 05 b3 cb 3c
       0.031987533 0.05707893 -0.073895894 0.024865637
000320 3a 93 d5 bc 09 74 9b bd b5 ed 9c 39 b6 9f 84 bd
       -0.02607118 -0.07590491 0.00029931744 -0.06475775
000330 fa e9 61 3c d6 d8 2c 3b 11 17 93 3c 2c 58 0f 3d
       0.0137886945 0.0026374361 0.017955335 0.034996197
000340 4e 7b da bd 0b 0b cd bd 7e b6 5c 3d f1 df bf bd
       -0.1066805 -0.10011872 0.053884976 -0.09368885
000350 50 fd ec bd 6b b9 9f bd b9 60 ed bd aa 88 a9 bd
       -0.11571753 -0.077990375 -0.11590714 -0.0827802
000360 81 7d 5d bd ea d9 8c 3d df 6c 19 bd 9e 28 8f bc
       -0.054074768 0.06877501 -0.037457343 -0.017475422
000370 24 60 8e bd 58 65 21 be 8d d3 ea 3c 89 e5 bb bc
       -0.06951931 -0.15761316 0.028665328 -0.0229366
000380 6e 6d 36 be b2 4f 32 3b 61 20 4d bd 9c cc a7 bd
       -0.17815182 0.0027208147 -0.050079707 -0.08193323
000390 6c 85 21 be c5 91 e2 bd 31 6e 18 bd 0c 73 67 be
       -0.15773553 -0.110629596 -0.03721446 -0.2260248
0003a0 17 2d 18 be ae 3d 69 be 79 c8 7f be 86 9e d1 bd
       -0.1486095 -0.22777435 -0.24978818 -0.10235314
0003b0 45 19 0e 3d 13 45 28 bd 24 15 18 be 92 9f 10 be
       0.034692068 -0.0410815 -0.14851815 -0.14123371
0003c0 05 bd e4 bd be c4 1b bd 65 55 a5 bd ae 21 e8 bd
       -0.11168865 -0.038029425 -0.08072928 -0.11334549
0003d0 ad bc 6d bd 26 33 d7 bd 50 6f b5 bd 3f ca c4 bd
       -0.058041263 -0.10507803 -0.08859122 -0.09608888
0003e0 65 5d 44 be 28 cc 39 be c9 90 1e 3e d4 b9 0a 3e
       -0.19176252 -0.18144286 0.15484919 0.1354745
0003f0 f8 bf 54 3d 16 f7 75 3d a3 3d 58 3b fd db db 3c
       0.05194089 0.060050093 0.0032995723 0.026838297

conv2.bias f4 [16]
000000 47 fd a3 be 98 a7 c1 3d 68 00 f3 3b e2 ce 45 be
       -0.32029173 0.09455794 0.00741582 -0.19317201
000010 97 ba 8e be 93 0e 48 3e 1a e3 1a bf 5b cb 85 be
       -0.27876732 0.1953681 -0.6050278 -0.2613171
000020 87 20 48 3f ce 7c c3 3d e7 12 ad 3e 25 c6 81 3f
       0.7817463 0.09545289 0.33803484 1.0138594
000030 52 86 ae bc 7d f7 e3 bd 8f 6d 83 bd d4 e9 11 3f
       -0.021304283 -0.11131189 -0.06417381 0.5699742

fc1.weight f4 [120, 400]
000000 19 c3 0f 3d a3 b7 09 3d 56 83 28 3c 33 1c ca bc
       0.03509817 0.033622395 0.010285219 -0.02467165
000010 06 c8 50 bc 85 f8 bd bc 8e 82 36 39 c6 1b 08 bc
       -0.012743002 -0.023189792 0.00017405508 -0.008307403
000020 1f 19 b1 bc e0 1e d4 3c b5 b9 3a bd db 73 34 bc
       -0.021618424 0.025893629 -0.04558726 -0.01101395
000030 04 b2 75 bb c4 9a 33 3d 7a 3e 2c 3d 2b 32 25 3d
       -0.0037490139 0.043848768 0.04205177 0.040331047
000040 30 25 15 bd 3b 86 09 bc c9 8b 83 bc 97 92 06 bc
       -0.036412418 -0.008393819 -0.016057866 -0.008213661
000050 e1 a9 52 bc 34 35 6b 3b fa 2d 07 bd b6 53 35 3c
       -0.012857885 0.0035889866 -0.03300283 0.0110673215
000060 7d 6c 82 bc d9 98 2b bd 1e 87 23 bd 93 b6 48 3c
       -0.015920872 -0.041893814 -0.03992378 0.01225056
000070 ca 2c 15 3d aa 7e 92 bc fb 8b d4 bc 2e ec 3c bd
       0.036419667 -0.017882664 -0.025945654 -0.046123676
000080 e5 1b 92 bc ad a9 1a 3b 3f 4c 42 bd 59 67 27 bd
       -0.017835567 0.002359967 -0.047435995 -0.040870044
000090 36 c8 a3 3b e6 8f 3d bd 96 29 ca 3b 81 c2 fd 3c
       0.0049982322 -0.04627981 0.006169508 0.030976536
0000a0 76 7a 1d 3d d6 b8 ac bb b6 f5 26 bd b7 91 61 3b
       0.038446866 -0.0052710576 -0.040761672 0.0034419128
0000b0 bb 6d ba ba 75 02 4b bc e9 d2 ba 3c 6f 5e 26 bd
       -0.0014223376 -0.0123907225 0.022805648 -0.040617403
0000c0 93 78 38 bc d1 bc d5 3c 03 30 db 3c 5b 29 8a ba
       -0.011259216 0.026091011 0.026756292 -0.0010540889
0000d0 a7 de 3c bc 79 3c 54 bc 07 10 02 bd 1c 1d 55 3c
       -0.011527694 -0.012953871 -0.031753566 0.0130074285
0000e0 4b 96 10 bd 3f 80 64 3c b0 7c 04 bd c8 ee e2 bc
       -0.03529958 0.013946592 -0.032345474 -0.02770175
0000f0 64 4a ef bc bd 69 f6 bc f0 4d cc 3c 41 64 0c 3d
       -0.029210277 -0.030079717 0.024939507 0.034275297
000100 0c 28 2c 3c f7 f0 00 3d 41 d3 6e bc 74 ba 33 bc
       0.010507595 0.031479802 -0.014576734 -0.010969747
000110 ed 11 70 bc 05 0a 45 3d 60 3f 2f 3d 29 03 7f bc
       -0.014652711 0.04810526 0.04278505 -0.015564718
000120 45 c9 44 bd 91 3c e2 3c c2 76 4a 3c 03 94 87 bc
       -0.048043508 0.027616771 0.012357416 -0.01655007
000130 ba b6 2d 3d 70 b8 ca bc c6 d1 15 3d 55 98 d4 bc
       0.04241059 -0.02474615 0.03657701 -0.025951544
000140 38 f3 4c bc 42 d0 a0 3c 17 1d ef 3a 69 5c 02 bd
       -0.01250916 0.019630555 0.0018242922 -0.03182641
000150 41 d9 8c b9 b3 16 ee ba 3d 06 3a 3d 10 f6 3e bd
       -0.00026864748 -0.0018164724 0.045416106 -0.046621382
000160 ec 5d ac 3c cb 9a 34 3d 2c aa c1 bb 74 f3 ee bb
       0.02104088 0.044092935 -0.0059101786 -0.0072922055
000170 53 96 34 3d d7 41 57 bc 2a d3 3e 3d f6 7a 02 3d
       0.044088673 -0.013138256 0.0465881 0.031855546
000180 17 0d 27 bc 31 1c 02 3d 11 1a d1 bc 84 74 2e 3d
       -0.010195992 0.031765167 -0.025525125 0.042591587
000190 00 30 e7 bb 14 28 95 3b c5 00 09 bc 40 6b 8d bc
       -0.0070552826 0.004551897 -0.008362 -0.017263055
0001a0 06 6b 7b 3c 7b ef 09 3d 65 4d 2b bb d8 0d a6 3c
       0.015345341 0.033675652 -0.002613866 0.020270273
0001b0 44 09 8c bc 0a cd b3 bb b9 50 0f bd d0 1f 5f bc
       -0.017094262 -0.005487089 -0.034989092 -0.013618425
0001c0 34 d3 9a bc 14 5d ce bc 42 06 40 bd 67 1c 42 bd
       -0.018899538 -0.025190867 -0.046880968 -0.047390368
0001d0 ae ba 12 3d 08 dd bd 3c 74 30 2c 3d a4 fa 4b 3c
       0.035822563 0.023176685 0.042038396 0.012449894
0001e0 89 23 3e bd d3 6a 64 3c f8 fb 48 bd 6a cb 26 3c
       -0.046420608 0.0139414845 -0.04906842 0.010180334
0001f0 72 f6 04 bd 11 bb 1a 3c 92 bd d4 bc e0 22 25 3d
       -0.03246159 0.009444014 -0.0259693 0.040316463
000200 8d 1f ee bc 9f 72 20 bd 2d 1a 90 3c 3d 56 a7 3c
       -0.029067779 -0.03917181 0.017590607 0.020426864
000210 05 7a 83 bc 0c cc 71 bb 89 ed a2 3c fe f3 ab bc
       -0.016049394 -0.0036895303 0.019888656 -0.020990368
000220 b9 b0 f6 3c 00 b7 2b bd 25 ff f9 bc 1a 65 a8 3c
       0.030113565 -0.04192257 -0.03051717 0.020556021
000230 74 18 56 3c d3 aa df bb 5b 4c 5e bc 2a e7 0c bc
       0.0130673535 -0.0068257838 -0.013568009 -0.008600036
000240 70 64 d4 bc dd 06 0c 3d 45 2e c2 bc bf 27 4e 3c
       -0.025926799 0.034186233 -0.023703704 0.012582718
000250 1b 94 0c bc 12 53 57 bd e0 7a 90 3b c9 ba 81 3c
       -0.008580233 -0.052569456 0.004409179 0.015836136
000260 a6 33 3c bd 5e 6a 8c bc b6 5a bb bc 7a 6b 43 bd
       -0.045947693 -0.017140564 -0.022870403 -0.04770992
000270 bc 40 ee bc e9 23 de 3c 3b 3c 4a bd 66 27 3c bd
       -0.029083602 0.027116733 -0.049373847 -0.04593601
000280 f1 4e 45 bc d3 8d a1 bc aa 8e 76 3c 53 f2 cd 3c
       -0.012042747 -0.019720947 0.015048662 0.025139963
000290 c8 fb 16 3d bd b7 bc 3b d5 dd c6 bc a0 6c 38 bd
       0.03686121 0.005759208 -0.0242757 -0.045025468
0002a0 83 43 07 3d f2 8d 5e 3c be 37 59 bd ab f2 56 bd
       0.03302337 0.013583647 -0.053031676 -0.05247752
0002b0 13 bc da 3c 81 93 4d bd 7b 9f 2f bd 97 97 cc 3c
       0.026701009 -0.0501895 -0.0428767 0.024974627
0002c0 6d d6 c8 ba d6 5d 37 3d af 3c ef 3b 99 39 2c bd
       -0.0015322693 0.044767223 0.007300935 -0.042047117
0002d0 0a b4 e1 3a 07 1a f7 bc 59 30 b3 bc 55 88 1a bd
       0.0017219794 -0.030163778 -0.02187364 -0.037727673
0002e0 bf 88 eb 3c 8d c8 79 bc 9c 1f a3 bb 10 44 ef 3c
       0.028751729 -0.015245569 -0.0049781334 0.02920726
0002f0 c5 74 50 3c f2 91 d0 bc 73 82 cd bb 19 11 a9 bc
       0.0127231525 -0.025460217 -0.0062716543 -0.020638036
000300 a4 d1 93 3c bb 42 1d bb c9 0e 29 3c a0 46 44 3c
       0.0180443 -0.0023996073 0.010318466 0.011979729
000310 6f 35 2b 3b 80 3e e1 bc 99 f3 0f 3d 92 c7 28 bb
       0.0026124378 -0.027495623 0.035144422 -0.0025753719
000320 2f 05 01 3d 98 b2 1c bd 3c 93 a6 3c b0 8a ab bc
       0.031499084 -0.038256258 0.020333879 -0.020940155
000330 87 56 6c 3c 21 4d 85 3c 32 f9 43 bd c7 cd 75 3c
       0.014424927 0.01627213 -0.047845073 0.015002674
000340 da eb 22 3d 03 f8 e5 bc 24 75 65 bc b2 dc 03 bc
       0.039775707 -0.028072363 -0.014004979 -0.008048223
000350 6e 35 38 bb 31 ad 0b 3d 9c fd 40 3c 3b bc 3b 3d
       -0.0028108018 0.034100715 0.011779215 0.045833807
000360 f3 e0 75 bc f9 ed c9 3c c1 ad 56 bd 70 b6 7c bc
       -0.015007245 0.024649607 -0.0524118 -0.015424356
000370 0c 20 29 bd c8 fd cf 3c 8a 99 0a 3c 03 c7 21 3d
       -0.041290328 0.025389567 0.008459458 0.039496433
000380 a9 1d d0 bc e4 92 44 bd c6 43 38 bc dd 66 24 bd
       -0.025404768 -0.04799165 -0.011246627 -0.04013716
000390 b1 33 1f bd c7 84 c3 bb f8 d8 3f ba e8 83 df 3c
       -0.038867656 -0.005966756 -0.00073184026 0.027284577
0003a0 87 3a 35 bc 32 99 4e bc 2f d8 fd 3c 03 11 d0 3c
       -0.011061317 -0.012609767 0.030986873 0.025398737
0003b0 a6 68 09 3d be 23 09 bc 0e 52 33 bd a8 2c e5 bc
       0.033547066 -0.008370338 -0.043779425 -0.027975395
0003c0 43 55 65 bd fd 92 93 3c 8a 34 ee bc 76 8b b3 3c
       -0.055989515 0.018014425 -0.029077787 0.021917086
0003d0 45 15 34 3c eb 83 12 3b dd e7 38 bd fb 2e 56 bc
       0.010991399 0.0022356461 -0.045142997 -0.013072724
0003e0 b7 3c 38 3d 9b 58 f8 bb 0b d4 47 3c 81 32 87 3c
       0.044979777 -0.007578922 0.012196551 0.016503574
0003f0 30 e2 10 bd 0e c5 c4 bc 2b d9 44 bd 2e a0 29 3d
       -0.03537196 -0.024019744 -0.04805867 0.041412525

fc1.bias f4 [120]
000000 4a ed 42 bd 04 27 41 3d b5 39 1a 3e e5 ee e2 3d
       -0.047589578 0.04715635 0.15061076 0.11080722
000010 56 20 f9 3c 33 47 75 bd 28 47 81 bd 89 d5 9d bc
       0.030410927 -0.059882354 -0.063124 -0.01926686
000020 84 fc ff bc 14 8a 65 3c d2 1e cb bc aa c8 8c bd
       -0.031248339 0.014009971 -0.02479497 -0.06874211
000030 0c 54 04 3d e5 5f bd 3d 15 e4 f6 3c dc 95 ea 3d
       0.032306716 0.09246806 0.030138055 0.11454365
000040 7f 9b d3 bc 44 c0 cb 3c 36 29 0e bb 54 57 f0 bc
       -0.025830982 0.024871953 -0.0021692044 -0.029338516
000050 10 49 fb bd a9 db 18 3a 13 81 84 3e f7 d6 1d bd
       -0.12269795 0.0005831072 0.25879726 -0.038535085
000060 91 99 40 3d 1a c8 a6 bd 88 9d a8 bd b0 64 3a be
       0.047021452 -0.08143635 -0.08233172 -0.18202472
000070 0f 3d bc 3c 10 a9 e1 3d d5 e5 fb bb 68 ba e5 3c
       0.022978334 0.11018574 -0.00768731 0.028042987
000080 17 90 06 3e 40 aa c5 3b 99 83 17 bd 97 a5 bb 3b
       0.13140903 0.0060322583 -0.036990736 0.005726527
000090 31 d9 f8 bc 70 e1 75 3e d5 3b ce bc db bd 59 3b
       -0.030377002 0.24011779 -0.025175015 0.0033224735
0000a0 6e a9 54 be 8c 62 17 3e 08 6c 57 bd fc 61 db bc
       -0.20767757 0.14783686 -0.05259326 -0.026780121
0000b0 92 8e cb 3d 56 1e a1 bc 63 75 92 bc 6f 7d c1 3d
       0.099393025 -0.019667786 -0.01787824 0.09447753
0000c0 7b e3 06 3d 25 a9 2c 3d d4 0c 34 3a 30 dc 4b 3d
       0.032931786 0.042153496 0.00068683666 0.049770534
0000d0 e1 b2 c1 3d 27 6d eb ba 4b 4d 86 3d a9 17 93 3d
       0.094579466 -0.0017961607 0.06557711 0.07182247
0000e0 07 78 7b bd 96 6f 45 3d 54 bd cc 3c aa 59 68 bd
       -0.061393764 0.04820212 0.024992622 -0.056726135
0000f0 eb 11 3c 3d 8e e8 1d 3d ab 98 88 3c d9 86 91 3c
       0.045915525 0.03855186 0.01667436 0.017764496
000100 48 1e 49 3c 73 f9 1a 3d 0e 74 3d be 8c c8 7c bc
       0.012275286 0.03783555 -0.18501303 -0.0154286735
000110 e4 dd 24 bd 64 66 39 bd 2a e1 ba 3c d4 f5 24 bc
       -0.040250674 -0.045263663 0.022812445 -0.010068376
000120 d3 48 61 3d 2b 98 ed 3d 32 05 c0 3d 85 3b bc 3c
       0.05500109 0.11601289 0.09375991 0.0229776
000130 99 93 fb bb 0a 82 de 3d e5 c2 0f 3e 80 d1 00 bc
       -0.007677507 0.10864647 0.1403919 -0.007862449
000140 59 c0 e8 3c 58 97 c7 3c b2 0b 1f 3c 82 93 b3 3a
       0.028412031 0.024364159 0.009707378 0.0013700577
000150 33 fb 11 3e b8 9a b6 3c e9 0d cf 3d 59 e3 92 3d
       0.14255981 0.022290573 0.10110075 0.071722694
000160 15 30 3e 3e 37 60 d3 3d c2 42 77 bd 9e fb 0b 3e
       0.1857303 0.10321086 -0.0603664 0.13670203
000170 cb 60 4b 3d 1a 9f 24 3e 26 a9 12 bd f3 e2 89 bc
       0.049652856 0.16076317 -0.035805844 -0.01683185
000180 fb 53 2d 3e 23 1e 1a 3e 12 9c 0c 3e 8a d3 3a bd
       0.16926567 0.15050559 0.13731411 -0.045611896
000190 1b 6d b7 ba 2a 1a 17 3d 9a 36 ca 3d d3 01 c4 bc
       -0.0013994308 0.036890186 0.09873696 -0.023926651
0001a0 9a e7 cb bd a7 b7 18 3c 09 3d 8f bd a7 f6 c9 3c
       -0.09956284 0.00932113 -0.069940634 0.024653746
0001b0 e8 49 6c bd 10 f2 81 3c 91 61 b3 3d 83 ac c7 3d
       -0.05768767 0.015862495 0.08758844 0.09749701
0001c0 f6 fa db 3d f8 0e 27 bd 1d ac a5 bb 11 b6 14 3d
       0.107412264 -0.04078576 -0.005055918 0.036306445
0001d0 aa a8 85 bd b8 29 ac 3d 7f 43 12 bc d0 50 fd 3d
       -0.06526311 0.08406395 -0.008927225 0.123689294

fc2.weight f4 [84, 120]
000000 5a 20 a8 bd aa 2a 46 bd 84 1d f0 3c dc 4b d1 3c
       -0.082092956 -0.04838053 0.02931095 0.025548868
000010 b2 69 d3 bd 50 04 b4 3d 42 8f af bd 3c 30 d0 bc
       -0.10322894 0.08789885 -0.08572246 -0.025413625
000020 49 11 95 3d d6 df 00 bd 82 f7 bc bc 27 4a 42 bd
       0.072786875 -0.031463467 -0.02306724 -0.047434
000030 81 6f 9a bd ee d0 a5 3d 3c c2 f3 3b d6 e7 ad bc
       -0.07540799 0.08096491 0.007438926 -0.021228712
000040 ca 57 ae bd d9 29 9c bc a8 56 b0 3c 7f e4 c7 3d
       -0.08512838 -0.019062923 0.021525696 0.09760379
000050 31 3c 5c 3c ed 32 07 3d e3 bd 51 3e af 3e 6b 3c
       0.013442085 0.03300755 0.20482592 0.014358207
000060 ed 5e e3 bc 32 6c 87 bd 4e df 37 3d c3 d8 95 bd
       -0.027755225 -0.066124335 0.044890694 -0.07316735
000070 cf fa 18 3c fb 52 2a 3d 12 66 ac 3d c1 96 89 bd
       0.009337141 0.041583043 0.08417906 -0.06718207
000080 68 53 41 3d 16 dd b0 bd 8a 34 c6 bd e7 b6 09 bd
       0.047198683 -0.08635919 -0.0967799 -0.033621695
000090 ee 5f 25 3d 9e 0f a7 3d 09 57 83 bb 8a 14 c1 bc
       0.04037469 0.081572756 -0.004008178 -0.023569364
0000a0 7f f2 b5 bd 56 da 24 3d 81 12 a5 bb fc 0a 0f 3b
       -0.08884143 0.040247284 -0.005037606 0.0021826616
0000b0 88 13 d1 bd 02 6f a4 bb 0a 3d d7 bc e0 0e 93 bc
       -0.102088034 -0.005018116 -0.026274223 -0.017951429
0000c0 e2 2c a2 3d 43 f9 9e 3d 4d 3b 4c 3d 97 b7 94 3d
       0.07918717 0.07762387 0.04986124 0.072615795
0000d0 5f 17 fe 3c ca fe c8 bd f6 84 82 3d 48 19 e7 bd
       0.031017004 -0.09814222 0.063730165 -0.11284119
0000e0 ea b1 11 bd 02 87 b8 3d d7 f0 3d 3d d5 b6 d1 bd
       -0.035570063 0.09010126 0.04637226 -0.102399506
0000f0 3c be d0 3a e6 1d b5 bc 4d 40 df bd 0c be a1 bd
       0.0015925835 -0.022108983 -0.10900936 -0.07897577
000100 39 bf b3 3d 49 8d 6b bd ab e5 82 bd f2 86 92 3d
       0.08776707 -0.057507787 -0.06391462 0.07154645
000110 8b 7e b4 bc 35 4f 94 bc 33 3d 9f 3d 0d ef a7 bd
       -0.022032997 -0.018104175 0.07775345 -0.08199892
000120 43 1c 1b 3c a0 a8 e4 bc c9 90 23 bd 02 6c 19 bd
       0.009467187 -0.027912438 -0.039933 -0.03745652
000130 6f a4 6e bb 89 a2 c2 3d f2 3b 93 3d 03 de b3 bd
       -0.0036413928 0.09503657 0.07189168 -0.0878258
000140 36 9a a6 bd ea 6e dc 3d 2f cd 56 bd d5 f5 18 bd
       -0.08134882 0.10763343 -0.052441772 -0.03734382
000150 a3 18 9b bd 2f 11 5c 3d 79 5f fc 3d 5e 5b 28 bd
       -0.075730585 0.053727325 0.123228975 -0.04110276
000160 af da 2c bd 1b 3b ee bc 9a da f0 bd 12 69 8c 3a
       -0.04220074 -0.029080918 -0.11760445 0.0010712466
000170 22 9f 4c 3c aa 0d 52 3d 9e d4 ab bd 97 9c df 3c
       0.012489112 0.051282562 -0.08390163 0.027296348
000180 60 a4 9b 3d e1 f6 79 bd 14 d6 45 3c 0a 3c 01 be
       0.075997114 -0.061026458 0.012074966 -0.1262056
000190 44 5a 8f 3d 46 13 9c bd 08 87 b5 3d 24 b4 7b bd
       0.06999639 -0.076208636 0.08863646 -0.061451092
0001a0 01 24 ec b9 c8 dd f5 bc 2b a7 f0 bd 86 71 b8 bd
       -0.00045040253 -0.03001298 -0.11750635 -0.09006028
0001b0 56 a8 87 3d 0d e9 a5 bb f0 3a 95 bd 07 01 8e 3d
       0.066239044 -0.005063182 -0.07286632 0.0693379
0001c0 a8 5a 70 3d 77 ff a2 3d a2 6c a7 bc 91 cd 0c 3d
       0.058680207 0.07958882 -0.020437542 0.03437573
0001d0 59 8f e5 bc 3c d5 58 3d d6 0b 34 bd 1d d7 be 3d
       -0.028022455 0.05293773 -0.0439566 0.09318373
0001e0 2e a3 79 3d 38 65 91 bc 81 de 9e bc a7 81 74 3d
       0.060946636 -0.01774846 -0.019393208 0.05969396
0001f0 a1 86 48 3d ca 16 42 bd 1c 3b 8b bd 71 ef f0 bd
       0.048956517 -0.047385015 -0.067983836 -0.1176442
000200 d0 a2 23 3c 52 da 03 bd e1 19 9d bb ab 54 63 3c
       0.009987548 -0.03219063 -0.004794345 0.013875167
000210 ff 95 59 3d 83 e4 07 3d b8 96 53 bd 6a 91 bd bd
       0.053121563 0.03317691 -0.05165741 -0.09256251
000220 e2 7c eb bc 7e ba 2a 3d 63 f2 50 3d 15 15 04 bd
       -0.028746072 0.04168176 0.051012408 -0.032246668
000230 10 61 d3 bd f9 d4 3d 3d 74 26 ee ba 27 35 0f 3d
       -0.103212476 0.046345685 -0.0018169419 0.0349628
000240 30 de 01 bc 1a 38 9e bd 07 10 c5 bb be 9c 6d 3c
       -0.007926509 -0.07725544 -0.0060138735 0.014502702
000250 0a 5b c7 bd 1e 91 a5 bd 5e 4d 74 3c 4a cc 39 3d
       -0.09734161 -0.080843195 0.014911024 0.04536084
000260 b9 ea 0f be dd 72 15 3d 3c 09 5b bc 0b e6 b2 bc
       -0.14054383 0.036486495 -0.013368901 -0.021838209
000270 b4 09 48 3d 30 45 91 3d 9b d5 28 3d f4 08 36 bd
       0.04883738 0.070932746 0.041219335 -0.044442132
000280 2e 85 69 bd bc 81 de bd c0 81 e6 3c b2 cd 4b bd
       -0.057011776 -0.108645886 0.028138041 -0.049756713
000290 ac dd 8a bd 4d 10 ff bc c8 be 0c bd c9 65 b2 bd
       -0.06780562 -0.031135703 -0.03436163 -0.0871082
0002a0 cb be 04 bd d1 9a bf 3d 8d 56 80 bd 75 36 7b bd
       -0.032408517 0.09355701 -0.06266508 -0.06133123
0002b0 d9 7a cb 3d a1 ae 99 bd 79 74 d7 bd 5e 83 04 3d
       0.09935541 -0.07504011 -0.10520262 0.032351844
0002c0 55 0d 2e bd 59 f9 02 bd 69 96 79 bd 31 2f 00 bd
       -0.042493183 -0.031976078 -0.060934458 -0.031295005
0002d0 8e b4 cf bd 4d 8b ab bb 62 6b 06 be d3 d0 fc bc
       -0.1014186 -0.005235112 -0.13126901 -0.030861294
0002e0 53 54 9c 3d 8a 6c 0e 3d 49 9c bc 3d c5 79 e2 3c
       0.07633271 0.03477148 0.092094965 0.027645955
0002f0 cd 05 84 3d 6b 54 8f 3d 54 78 ca bd 67 ef 0c 3d
       0.06446419 0.06998523 -0.09886232 0.034408
000300 8b f6 95 3d 51 40 e2 3d 52 32 ec bb a7 17 a8 3d
       0.07322415 0.11047424 -0.007208147 0.08207636
000310 86 a5 4c bd 60 62 4e bc a6 50 25 3d 63 27 26 3d
       -0.049962543 -0.012596697 0.040360115 0.040564906
000320 aa 7b ed 3c 87 4b 60 bc e9 77 f5 3d 5d 94 e4 38
       0.028989632 -0.013689882 0.11985762 0.00010899522
000330 aa 66 32 3d 54 23 4f 3d 00 32 a8 3d 1c 5b 0a 3d
       0.04355494 0.0505708 0.08212662 0.033778295
000340 38 eb 45 bd fa ed 89 bc a5 79 15 be 31 c3 0b be
       -0.048320025 -0.016837109 -0.14597185 -0.13648678
000350 28 22 ea 3d 33 ae 19 3d 67 ba 63 3d 58 c4 a0 3c
       0.11432296 0.037519645 0.05559769 0.019624874
000360 6e 21 a9 bd 9e a7 ae bd 1f dd 97 bd 43 5d ce bd
       -0.08258329 -0.08528064 -0.074152224 -0.10076382
000370 50 14 ca bd 61 ee aa 3c 99 95 7d 3c 72 b7 7b bd
       -0.098671556 0.020865621 0.015477561 -0.061454244
000380 4d f0 e8 3c 1f aa d0 3d 1d 37 34 bd 7a 25 66 bd
       0.028434897 0.10188698 -0.043997873 -0.056188084
000390 09 b9 04 3d 04 e0 48 bd 61 0a 7e 3d 09 f2 25 3e
       0.032403026 -0.049041763 0.062021617 0.1620561
0003a0 f6 e7 62 3d 79 57 65 bc 84 6e f9 bb a5 73 f6 bc
       0.055396996 -0.013997906 -0.0076120514 -0.03008444
0003b0 62 11 39 3c 87 3d f5 3c 73 b8 21 3d cc c8 01 be
       0.011295648 0.029936565 0.039482545 -0.12674254
0003c0 9d b6 b6 3c 83 ea 96 bb 8e 56 91 bd e1 f1 08 bc
       0.022303874 -0.0046055927 -0.07096587 -0.00835845
0003d0 6e 8c d7 bd a0 8b 8e 3d 25 80 28 3d 19 1b 3f 3d
       -0.10524832 0.06960225 0.041137833 0.0466567
0003e0 ed 21 d5 bc a9 05 c2 3c 39 69 d2 bc 9f 89 c8 bc
       -0.026017154 0.02368434 -0.02568494 -0.024479685
0003f0 99 24 8b bd f7 08 5f bd 0c e0 92 bd b8 d2 94 3d
       -0.0679409 -0.05445191 -0.0717164 0.07266754

fc2.bias f4 [84]
000000 e6 3e 98 3e 7a f7 22 3e c8 96 8d bd 45 dd 2d 3d
       0.29735488 0.15914717 -0.06913525 0.042447347
000010 34 67 cb bc 92 7f 01 be a6 b4 8a bd 25 e7 84 bb
       -0.024829485 -0.1264632 -0.06772737 -0.004055875
000020 d1 d0 03 3e 67 0c 94 3d 98 38 6c bd 3e 6e 34 3e
       0.12872626 0.07228928 -0.05767116 0.17620179
000030 c8 37 e0 3d db 77 37 3d 0c 00 16 bd ef c9 e2 bd
       0.109481394 0.044792037 -0.03662114 -0.11073672
000040 a2 d1 7a bd 5d 04 c7 bc 87 5e a7 3e 55 c3 25 bd
       -0.061235078 -0.024294073 0.32689306 -0.040469486
000050 bf 23 a7 3d b7 02 25 3d 87 1a bc 3c f1 58 2f 3e
       0.08161115 0.040285792 0.022961868 0.17123772
000060 be fd a2 bd b7 d8 5b bd 3a f9 f1 bc 6c c1 a2 bd
       -0.07958554 -0.053673472 -0.029537786 -0.079470485
000070 9c 57 1f 3e 15 fc 06 3e bc 25 b5 3d 24 7a 99 bd
       0.15560764 0.13182099 0.08845088 -0.074939996
000080 f2 4f fc 3c 31 5a df 3c 34 87 94 3d dc 86 26 be
       0.03079984 0.027264686 0.072523504 -0.16262382
000090 7b 0b 81 bd 4b d2 78 3d 84 91 40 3e 65 2e 33 3e
       -0.06301018 0.060747426 0.1880551 0.17498167
0000a0 91 a8 52 3e 6c be a0 3e 81 99 3f 3e 2a 04 3e 3e
       0.20572115 0.3139528 0.18710901 0.18556276
0000b0 50 29 fd bd 73 f8 11 bc 54 bd 4b 3c 53 86 20 3d
       -0.12361395 -0.008909333 0.012435276 0.0391906
0000c0 73 30 f2 3d 0d 04 02 3d 61 fd da 3d 8a 4d 21 bd
       0.11825647 0.031742144 0.106928594 -0.039380588
0000d0 21 97 54 bd d3 d9 b6 3b ff 78 9f bd a3 55 92 bd
       -0.05190194 0.005580166 -0.0778675 -0.0714524
0000e0 70 97 20 bc c6 ac e2 3d 11 f8 ce 3c de 6e 0f ba
       -0.0098017305 0.1106811 0.025264772 -0.00054715376
0000f0 38 7c a3 bd 78 fd 2b bd be b5 51 3e c8 66 23 3d
       -0.07982677 -0.041989774 0.20479485 0.03989294
000100 d0 b8 46 be c1 f8 d2 3d fa 63 74 3e 8a 06 10 3d
       -0.19406438 0.10301352 0.23866263 0.035162486
000110 e7 47 a1 3d c2 ae 6b 3d 86 bb 80 3d fb 91 65 3e
       0.078750424 0.05753971 0.06285767 0.22418968
000120 12 9d 01 3e 72 34 d7 bd 45 fa 4d 3e 57 a2 8f 3d
       0.12657574 -0.1050805 0.20115001 0.07013386
000130 be 8a 89 3e 0c 9f 2f bd f3 01 47 3d ec ac 8d 3c
       0.26863664 -0.04287629 0.048585843 0.01729437
000140 15 e4 85 bd eb 85 82 3e f7 be 12 be eb ca d4 bd
       -0.06537644 0.25492796 -0.1433066 -0.10390266

fc3.weight f4 [10, 84]
000000 2f c3 51 be ea 3f 6c be 93 6d e7 bd 73 86 18 be
       -0.20484613 -0.23071256 -0.113001965 -0.14895038
000010 50 13 2c bd a3 d6 80 b9 de 49 8b bd 35 3a c5 bd
       -0.042010605 -0.0002457398 -0.068011984 -0.09630243
000020 68 0f 18 bd fc 53 3e 3d 4b 74 75 bc a8 e3 cd bd
       -0.037124068 0.046466812 -0.01498134 -0.100531876
000030 d4 6d b7 3c 37 30 cb 3d 62 41 06 be b5 cb 06 3e
       0.022391237 0.099213056 -0.13110879 0.13163646
000040 6d 64 7a 3d 47 c1 c8 bc 92 46 32 3e d4 aa e9 bd
       0.06113093 -0.024506224 0.17409733 -0.11409536
000050 25 3a 95 3e 4a 86 b6 bd f1 ea 08 be 34 3a 22 3e
       0.29145923 -0.08912332 -0.13370873 0.15842515
000060 84 3d 3e 3e 52 96 1c 3e 45 24 f5 bc 15 89 93 3d
       0.18578154 0.15291718 -0.029924521 0.07203881
000070 52 76 1e bd f9 db 39 be b2 0b ac 3e 54 f5 b0 bd
       -0.038687058 -0.18150319 0.33602673 -0.086405426
000080 c2 de 99 bd 97 31 7b 3d 7b df 50 bc 71 2a 29 bb
       -0.07513191 0.06132659 -0.012748594 -0.002581265
000090 de 68 15 3c 21 a8 dc bd 24 d7 79 3c b4 c6 43 be
       0.009119241 -0.107742555 0.015249047 -0.19118768
0000a0 06 f2 3a be 1c 54 cb 3e b9 71 1f be c9 2e ae 3d
       -0.18256387 0.39712608 -0.15570726 0.08505017
0000b0 fa 4e 31 3e ad b3 0a bd 11 72 43 bd ec 35 65 3c
       0.17315283 -0.03386276 -0.047716204 0.013989907
0000c0 9c 4a 08 be e7 40 2e 3a 04 3f fe 3d f2 0f 80 bd
       -0.13309711 0.00066472444 0.12414363 -0.06253041
0000d0 18 f0 89 3e c8 b0 c6 bc 7b 50 a8 bc 87 46 4e 3e
       0.2694099 -0.024254218 -0.020546189 0.20144092
0000e0 29 aa 19 be 0f ef 7f be 32 6a b2 3d 3f 4d bd bd
       -0.15006317 -0.24993537 0.087116614 -0.09243249
0000f0 b4 14 09 3c b5 e0 2c bd ef 75 14 bd 22 da cb bc
       0.008366752 -0.042206485 -0.036245283 -0.024884287
000100 8d c9 16 3d 28 35 f4 bc e2 ec 6c 3e 7b 1d 06 be
       0.036813308 -0.029810503 0.23137239 -0.13097183
000110 7f aa f2 3c bf 88 52 bd 8d 39 4f 3e aa e7 f4 bd
       0.029622314 -0.051399942 0.20236798 -0.11958249
000120 a1 b9 25 be 07 8e 57 bd 75 57 77 bc b5 d3 7a 3c
       -0.16184093 -0.052625682 -0.015096535 0.015309264
000130 33 03 4f 3e 11 9d 66 3d 25 0f 66 bd 3c d2 45 3e
       0.20216064 0.056302134 -0.056166787 0.1931848
000140 83 3a d1 3c 28 31 02 be 6d d8 5c 3e 46 d5 ee 3d
       0.025540596 -0.12714064 0.21566935 0.116617724
000150 91 13 62 be d3 25 47 be 6b 9e 6c 3d a0 d5 40 bd
       -0.22077776 -0.19448023 0.057768267 -0.04707873
000160 c6 3c 40 3e c3 b5 be 3d 64 48 2d 3c 32 f7 e5 3d
       0.18773183 0.09312012 0.010576341 0.112287894
000170 bf e2 22 be 6c 25 0c 3d 70 2e 88 bd 3b 05 03 be
       -0.1590681 0.034215376 -0.06649482 -0.12794964
000180 3e e0 42 3d 92 d3 06 bd 90 3b 00 be 9e 76 66 3e
       0.047577135 -0.032916613 -0.12522721 0.22506186
000190 c6 d4 34 bc 42 8c 95 3d fd 05 69 be 1f 88 c7 ba
       -0.011037057 0.07302143 -0.2275619 -0.0015223062
0001a0 4e c1 79 3e 77 8f a3 bd f3 45 ec 3d 89 20 d0 be
       0.24390146 -0.07986348 0.11536779 -0.40649822
0001b0 f3 1a 0d 3d f6 80 42 3c 54 2e a3 bd 0f 18 22 bc
       0.03444953 0.011871567 -0.07967821 -0.009893431
0001c0 31 65 93 bc 56 b4 16 be e2 a6 b4 3d 97 09 9b bd
       -0.017992588 -0.1471723 0.08820893 -0.075701885
0001d0 1e b0 02 be 7a 17 bb 3e e4 40 90 3e 4a bf bf bd
       -0.12762496 0.3654135 0.28174508 -0.09362657
0001e0 19 e3 aa bd a4 6e e1 bd 33 1c 28 bd b6 38 3b 3c
       -0.08344097 -0.11007431 -0.041042518 0.011427095
0001f0 f3 4e a6 bd 4f ce af 3d f3 68 76 3d e7 90 58 be
       -0.08120527 0.08584272 0.06015868 -0.21149026
000200 c7 b7 6b be e4 c9 26 3d b9 54 8e 3b 28 fa 8b 3e
       -0.23019324 0.04071988 0.004343596 0.27339292
000210 ef 04 8f be 24 18 49 3e ae 3c f8 3d ff 2e 9d 3d
       -0.27933452 0.19638115 0.12120949 0.076749794
000220 08 a8 92 bd 51 77 15 bc aa ae bd 3e 09 7e 44 3d
       -0.07160956 -0.0091226855 0.3704732 0.04797176
000230 31 37 73 3e d5 05 2b bd ac 61 25 3e 76 09 29 be
       0.23751523 -0.04175361 0.1615054 -0.16507515
000240 ba 8a 4a bc ea 6d 24 3e bd 61 7b be 4f 5e c8 bc
       -0.012362177 0.16057554 -0.24549003 -0.024459032
000250 dc e2 36 3e 0a e6 29 be d1 23 53 bd 13 88 c1 3d
       0.17859977 -0.16591659 -0.05154783 0.09449782
000260 21 ee 1b 3c 21 81 b8 bd 7c f9 c0 3b dc c8 84 be
       0.009517224 -0.090090044 0.005889116 -0.25934494
000270 02 aa b7 3b be 54 50 3e 9d 35 85 bd 9c 53 14 3e
       0.0056049833 0.20344827 -0.065043665 0.1448502
000280 03 7c c6 3d 2b 1d b3 3c 46 1e 11 3e 1a b6 ff bd
       0.09691622 0.021864494 0.14171705 -0.12485905
000290 85 f7 d3 bd d9 b1 71 bd d1 91 07 3e 37 23 0c bd
       -0.10349945 -0.0590075 0.13239218 -0.03421327
0002a0 19 84 21 3e ba 2f 20 3d 82 bf c0 3d 1a 14 55 3e
       0.15773048 0.039108016 0.09411527 0.2080845
0002b0 63 ea 0c be 91 8e 1f bd 2e c8 b3 bd 08 67 3b be
       -0.13761286 -0.03895432 -0.087784156 -0.18301022
0002c0 02 2b 9c 3e f8 64 50 bc 44 88 d8 bd f3 a4 b2 bd
       0.30501562 -0.012719385 -0.105728656 -0.08722868
0002d0 85 c1 52 3d 8a 55 08 3e 96 9b f3 3d dc e7 9f 3d
       0.051454086 0.1331388 0.1189491 0.078078955
0002e0 be 87 b5 bd c9 d2 cc bc 68 94 42 3e ec d3 c7 bc
       -0.088637814 -0.025002854 0.19001925 -0.024393044
0002f0 6c 0c 5f bd 8f 52 25 bc f0 04 ce bd 3a 0e d8 3d
       -0.054455206 -0.010090484 -0.100595355 0.105495885
000300 22 3e 05 3d 37 b3 ce bd 0e de 21 be f6 7b 17 3e
       0.032529958 -0.10092776 -0.15807363 0.14793381
000310 a3 56 fd 38 e9 40 c3 3d c1 73 88 3d fa d6 3a bd
       0.000120801174 0.09533865 0.06662703 -0.045615174
000320 64 a0 44 3d 61 0e 81 bd 3a 97 cb bd 8f 8d e4 3d
       0.048004523 -0.06301571 -0.099409536 0.11159813
000330 f0 1e b1 3d 2a 84 fa 3d e3 46 25 3e a2 43 43 3d
       0.08648479 0.122322395 0.16140322 0.04767192
000340 27 f8 84 3e cd da 9b 3c 6b 35 24 3e a8 75 4e 3e
       0.25970575 0.01902523 0.16036002 0.2016207
000350 a1 87 62 3e c8 d2 7f 3c 1f ec 1b 3e 63 1e 93 3d
       0.22122051 0.015614219 0.15226792 0.0718353
000360 e9 72 57 bd 57 f8 10 bd 40 84 46 be 3a 84 04 3e
       -0.05259982 -0.035393085 -0.19386387 0.12941065
000370 0c 76 60 3e 2b fc 17 3d f7 60 0f 3b 61 f5 53 be
       0.21920031 0.03710572 0.0021877864 -0.20699073
000380 ee dc 84 3d 33 cf 88 bb a3 60 c7 bd 85 4d a2 bd
       0.064874515 -0.0041750907 -0.09735229 -0.07924942
000390 d2 66 60 3d 16 64 c5 3d e2 bd 04 3e 95 8d bd 3c
       0.054785557 0.096382305 0.1296306 0.0231388
0003a0 57 67 85 be 3a 64 ce 3d 8e 83 eb 3d aa 7d 05 3c
       -0.26055405 0.100777104 0.114997014 0.008147636
0003b0 ab 96 92 bd 14 1c a9 3d 22 36 55 3d 5e e8 ba bc
       -0.07157644 0.082573086 0.05205358 -0.02281588
0003c0 60 99 47 bd bf ee bf 3d 8c 1b 35 3e bb ab 84 bd
       -0.048730254 0.09371709 0.1768629 -0.064780675
0003d0 88 52 5b be b8 24 67 3d b9 d4 13 3e e6 47 00 3e
       -0.21418202 0.056431502 0.14436616 0.12527427
0003e0 72 e7 a0 bd 7f 33 d2 bc 0f b5 50 3c d6 04 4b 3c
       -0.07856645 -0.02565932 0.01273848 0.01239129
0003f0 b0 37 61 bd 06 0f 37 bd 29 7a d1 bd 04 15 f5 3d
       -0.05498475 -0.04469206 -0.10228378 0.11966899

fc3.bias f4 [10]
000000 4a 20 42 be 9c 63 e8 be cd fd 24 bd c2 17 a7 3e
       -0.1895763 -0.45388496 -0.040281106 0.32635313
000010 d2 fd ea 3e fb ad 60 be cc 82 10 3e dd 0c 80 be
       0.45896775 -0.21941368 0.14112395 -0.25009814
000020 c9 c3 dc 3e 7c d2 5f be
       0.43118122 -0.21857637
