fashionmnist_net_sgd.pth (torch, 181075 bytes, 10 tensors)

conv1.weight f4 [6, 1, 5, 5]
000000 0e 7b a0 be ae bf 97 3e 11 e7 00 3f 17 3e f1 3e
       -0.31343883 0.29638427 0.5035258 0.47117683
000010 d4 40 07 3d 26 93 b3 3c 38 dc ec 3e 0a 83 e7 3e
       0.03302081 0.021920752 0.46261764 0.45217162
000020 fa 8d 05 3d 84 74 73 3e ec 9b f9 bd d6 33 d7 3d
       0.032606103 0.23774916 -0.12187943 0.10507934
000030 91 d5 2c be 72 d0 89 bd a0 31 c2 bc d6 8b 00 bf
       -0.16878344 -0.06729211 -0.023705304 -0.5021337
000040 9c 14 f5 bc a3 98 aa be ea 7e 99 bd 39 45 05 3d
       -0.029917054 -0.33319578 -0.0749491 0.03253672
000050 02 70 a7 be 29 63 13 be 2b d8 60 be f3 4e 6c be
       -0.32702643 -0.14393295 -0.21957462 -0.23076992
000060 79 12 69 be 4d ce 80 be 65 58 dc 3d 0d cc b7 3d
       -0.22760953 -0.25157395 0.107590474 0.089744665
000070 f3 ac 9d 3e 31 ab 0d 3e 3e e8 25 3e 16 54 0d 3e
       0.30796012 0.13834836 0.16201875 0.13801607
000080 c3 78 86 3e 32 7e fc 3c 82 e5 19 bb eb b6 00 be
       0.2626401 0.030821893 -0.0023482745 -0.12569778
000090 f7 50 87 be 27 45 79 3e fb 06 51 bd f1 38 29 3d
       -0.2642896 0.24342786 -0.051032048 0.04131407
0000a0 3e 4e 37 bc 29 a5 03 be 6d 4e 7a 3e 7c 97 bd 3e
       -0.011188088 -0.12855972 0.2444398 0.37029636
0000b0 2b 84 9b be fb f2 8c 3e d5 fe 90 3d da 7a b3 3c
       -0.30374274 0.2752913 0.07079855 0.021909166
0000c0 12 97 77 3e 71 c3 3d bd a2 9f 02 3e a1 01 1d 3e
       0.24178723 -0.046328966 0.12756208 0.15332653
0000d0 89 16 78 be 54 70 01 bf f5 2d 16 bf ff 75 8d bc
       -0.24227346 -0.50562024 -0.58663875 -0.017268179
0000e0 e9 48 f1 bd 9d 81 38 3e 41 ed 07 3d 5d b6 43 be
       -0.11781485 0.18018194 0.033185247 -0.19112535
0000f0 6e dd f8 3d db 44 12 3e 03 5e 3a 3d b6 2c 6c 3e
       0.12151609 0.14284079 0.045499813 0.23063931
000100 95 c0 ac 3c 08 24 24 3e 71 a1 91 3e c8 5e f4 bc
       0.021087924 0.1602937 0.28443483 -0.029830351
000110 d7 5e bb bc 62 02 32 3e 07 7d 2a 3e a9 0e 28 3d
       -0.022872372 0.17383721 0.16649257 0.041029606
000120 21 1c 7f 3e 2f 13 70 3e 20 45 bf bd 02 54 58 bf
       0.24913074 0.23444818 -0.093393564 -0.84503186
000130 54 b3 31 bf a9 0a a2 3d f9 d3 f8 3d 03 49 3b 3d
       -0.6941426 0.079121895 0.121498056 0.045723926
000140 16 41 5d bf d8 6f 04 bf 24 8f ca 3e a9 b2 51 3e
       -0.8642744 -0.5173316 0.39562333 0.2047831
000150 53 d7 8f bd 27 d8 cc be 89 6c 05 3e 17 4c 96 3e
       -0.07023492 -0.4000866 0.13029684 0.29354927
000160 c1 20 6c 3d 15 8b ff bc fa 62 d8 bd ae c6 74 3e
       0.057648424 -0.03119425 -0.10565753 0.23903915
000170 65 da 34 3e aa 7f ed 3d e8 15 cd bc e4 be 22 be
       0.17661436 0.115966156 -0.02503486 -0.15893131
000180 53 42 a4 3e e2 82 03 3e c9 5d 83 3d 77 aa 6b 3e
       0.3208185 0.12842897 0.064143725 0.23014246
000190 80 41 90 3e 7b 5b 8e bc 80 0d 00 3f a9 25 a4 bd
       0.28174973 -0.017377606 0.500206 -0.080149956
0001a0 53 34 21 bf 08 47 d8 bd d5 04 ef 3d c8 94 fb 3e
       -0.62970465 -0.10560423 0.116708435 0.4913695
0001b0 8e 02 9b 3e fe 9a 50 bf ce a3 81 be 7b 84 88 bd
       0.30275387 -0.814865 -0.25320286 -0.06665894
0001c0 5a 87 e1 3e 82 9d 94 3e 0c 85 fd be ab b6 6b be
       0.44048578 0.2902642 -0.4951557 -0.23018901
0001d0 77 67 c3 3e de 44 0b 3e cd 70 21 bd 1e ab 96 be
       0.38164875 0.1360049 -0.039414216 -0.29427427
0001e0 7e 5c a1 bd 97 a1 0d 3e 68 5a 5d 3e 79 f3 6c 3d
       -0.078789696 0.13831173 0.21616518 0.05784938
0001f0 4e a5 9e be 77 fd af 3d f8 d0 8b 3e eb d4 66 be
       -0.30985492 0.085932665 0.27307868 -0.2254216
000200 00 82 17 bf 29 46 fb be 95 7c 6f bc a5 40 c6 3e
       -0.5918274 -0.49076965 -0.014617105 0.38721195
000210 54 13 f6 bc 6f d7 fa be 74 80 18 bf 83 53 b3 3e
       -0.030038513 -0.48992488 -0.59571004 0.35024652
000220 a1 4b c1 3e 77 8b 3f bd d5 10 ee bc a6 4b 72 3e
       0.37753013 -0.046763863 -0.02906076 0.2366167
000230 aa ef f1 3e 4c 6d 01 3d 90 6b d3 bc 7b bf a0 be
       0.47253162 0.031598374 -0.025808126 -0.31396088
000240 20 32 63 3d 3d fd 33 3e 88 41 4b 3e 27 40 29 3d
       0.055467725 0.17577071 0.19849217 0.041320946
000250 0a 68 19 be ce 62 a5 3d
       -0.14981094 0.08075486

conv1.bias f4 [6]
000000 32 fd b1 3d a2 a2 05 3f 7d 10 09 3f 21 57 4b bf
       0.08690871 0.5220128 0.53540784 -0.79429823
000010 79 c4 3c bd be 34 90 bc
       -0.04608581 -0.017603274

conv2.weight f4 [16, 6, 5, 5]
000000 28 79 cc bd 60 0b 9f bd f1 e9 67 bc 0a a1 14 bd
       -0.09984046 -0.077658415 -0.014154897 -0.03628639
000010 57 29 13 3d f6 b5 ae bc 09 44 be bc 8c c6 e9 bd
       0.035928097 -0.021327 -0.023225801 -0.11414823
000020 80 8a 1b be d3 43 40 3d 7b b6 22 bd 6b 9b 10 bc
       -0.15189552 0.046939682 -0.03972481 -0.008826117
000030 38 67 f6 bd ef 7a c0 bd d3 53 75 bd c4 c3 2c 3d
       -0.12031406 -0.09398448 -0.059894394 0.042178884
000040 2a 76 a1 bc 25 a5 e7 3a 55 7b 20 3d 24 a9 2f bd
       -0.019709665 0.0017673118 0.03918012 -0.042885914
000050 30 3b de 3c 65 6b 9a 3d f5 3b 11 bc fb 92 d1 3b
       0.027127832 0.07540015 -0.0088643925 0.0063956953
000060 19 e1 99 3b a2 d3 14 be 1a 5c e6 bd 02 2c b8 bc
       0.004696023 -0.14533857 -0.11248036 -0.022481922
000070 8d 86 0d be 8d 4c d6 bd 7e b5 ce bc 7f b0 e3 bd
       -0.13820858 -0.1046382 -0.025233027 -0.11117648
000080 80 01 f5 bc 20 75 9c bd e4 38 7b bc 90 59 bc bc
       -0.029907942 -0.07639527 -0.015333388 -0.022991925
000090 1b 41 5e bd e2 c8 ec 3a 37 1d 45 bc a8 70 c3 bd
       -0.05426131 0.0018065239 -0.012030891 -0.09542972
0000a0 b7 f5 82 3b b8 d4 35 3b 25 7f 43 bd ab 00 b9 bd
       0.0039965766 0.0027745198 -0.047728676 -0.090333305
0000b0 2d 59 4e bc a0 86 0a bd 6e 90 15 3c 2c c4 97 3a
       -0.012594503 -0.033819795 0.009128673 0.001157885
0000c0 95 69 6f 3d 23 2e 87 bd ba b6 80 bd 65 e6 08 be
       0.0584503 -0.06600597 -0.06284852 -0.13369139
0000d0 12 0f 3b be 55 23 8a be 3e 39 11 be eb e6 b1 bc
       -0.18267468 -0.2698008 -0.14181992 -0.021716556
0000e0 b6 21 55 bd 99 4a 7a bd f3 36 2b bc 3f 48 1c be
       -0.052034102 -0.061106298 -0.010450113 -0.15261935
0000f0 b0 de 4b 3e 6e 02 11 3d 2f fb 3d bc 88 67 01 bb
       0.19909167 0.035402708 -0.011595531 -0.0019745547
000100 fc 8d d8 bd 27 aa 3f 3e 15 95 e4 3d 26 31 57 3c
       -0.10573956 0.18717252 0.11161248 0.0131342765
000110 a3 55 8a 3a 74 e2 25 3d 4c 55 c7 3d 9f 9a 92 3d
       0.0010554086 0.040499166 0.09733066 0.07158398
000120 9b 12 1e 3e d1 e5 8e 3d 8c 7c 84 3d a7 fe 2b 3e
       0.15436785 0.06977428 0.06469068 0.16796361
000130 b6 44 4a 3d 4b 1f 3c 3d dc 7a 0d 3e 27 03 de 3e
       0.049381934 0.04592828 0.13816398 0.4336178
000140 df 8c 45 3e fe 4a 09 3d 50 a8 85 3d 0e 55 92 3e
       0.1929202 0.033518784 0.06526244 0.28580517
000150 9e e6 8e 3e f2 69 f2 bc 9e 65 3a 3c f3 5a 6d 3b
       0.27910322 -0.029591534 0.0113767665 0.003621754
000160 b5 d2 41 3e 53 c4 6e bd 2d 14 55 bd c5 58 08 be
       0.18928035 -0.058292698 -0.052021194 -0.13315113
000170 5e b4 e1 bc f5 30 2d 3d f7 37 ac bb 8d f7 8d be
       -0.027551826 0.042283017 -0.005255695 -0.2772793
000180 e0 65 3d be 2f 48 4d 3c be e1 ef 3d 23 75 12 be
       -0.18495893 0.012529417 0.11712979 -0.14302497
000190 22 a3 d1 3d 4b 06 28 3d 18 f5 de 3b 7b c0 29 bd
       0.10236193 0.041021626 0.00680412 -0.04144333
0001a0 cf b9 99 bd 56 c8 aa 3d 69 7c a5 bd 29 fe 4c 3d
       -0.07506143 0.08338992 -0.0808037 0.050047074
0001b0 1f e2 97 3c 52 64 1b 3d 32 45 cd bc 9e bb bb bd
       0.01854044 0.03793747 -0.025057409 -0.091666445
0001c0 59 4d 4b bd 93 8b c8 3d a1 8d 42 bd 01 a9 8b bc
       -0.04963431 0.09792247 -0.04749835 -0.01704836
0001d0 3d c8 2a be 01 15 8c bd 3a 02 9e 3c c3 34 df bd
       -0.16677947 -0.06839944 0.019288171 -0.108987354
0001e0 f2 c1 85 bd 4b 79 11 be 8a a4 5d bd 41 2f ce bd
       -0.06531133 -0.14206426 -0.054111995 -0.10067607
0001f0 c0 2e db bd 77 88 c2 bd 18 af 8c 3d 07 81 23 3c
       -0.10702276 -0.09498685 0.06869334 0.009979493
000200 84 43 a4 3c 44 3b 65 bd 7d a1 4b 3d 75 7c 66 3d
       0.020051725 -0.055964723 0.049714554 0.056271035
000210 87 f0 df 3d 46 0c fd 3d 49 5b b8 3d 65 76 63 3e
       0.10934549 0.123558566 0.09001786 0.22213133
000220 26 80 80 3d 3a 42 fd bd f1 f7 96 3c c6 c4 e0 3c
       0.062744424 -0.12366147 0.018428775 0.027437579
000230 41 ec f3 3d a1 64 89 3b 53 3b 9e 3c f5 49 d7 bc
       0.11910296 0.004192904 0.019315397 -0.026280383
000240 ee 89 9b bd 5f 60 4e 3e 9b 31 93 bd 6f 02 9f 3d
       -0.075946674 0.2015395 -0.07187196 0.07764136
000250 69 45 19 3d 5a 1b 3a bd c5 8d 18 3e e9 0b 39 3d
       0.03741971 -0.04543624 0.14897831 0.045177374
000260 c4 53 95 be cb 22 b8 bd 5f 44 7d 3d 39 c1 23 3e
       -0.2916547 -0.08991011 0.061832782 0.15991677
000270 9e ef c1 3c 0b a6 0d be 42 4e 03 be a4 d1 cc bb
       0.023673829 -0.13832872 -0.12822822 -0.006250577
000280 e5 21 0e bb 51 ac 8f 3d 8a 53 73 3b 6c 4f 0f be
       -0.0021687683 0.070152886 0.003712865 -0.13995141
000290 5e db b9 bd 74 1f 25 3d 93 f4 f1 3c b8 7e d8 3c
       -0.09075044 0.0403132 0.029535567 0.026427612
0002a0 9a 60 10 be 47 0b 8e 3d 28 e9 34 bd 27 f7 c8 3d
       -0.1409935 0.06935745 -0.044167668 0.098127656
0002b0 aa cf 1d 3d 99 20 d6 bc 4d f9 aa 3d ac 4d a5 3e
       0.038528122 -0.02613859 0.083483316 0.3228582
0002c0 25 50 01 3e c9 00 6e be 8a b0 50 be c2 8d 6a be
       0.12628229 -0.23242487 -0.20379844 -0.22905639
0002d0 68 95 9f 3d f8 ef 9b 3d 6b 0f 23 be 00 e4 c6 bd
       0.07792169 0.0761413 -0.1592385 -0.09711456
0002e0 3b 89 17 be 05 f0 4f bd f4 b3 05 be 11 3f 2b be
       -0.14798443 -0.05076601 -0.13056928 -0.16723277
0002f0 79 26 82 bd db 18 e8 bd 1a d7 5c be 28 96 ee bd
       -0.06354994 -0.11332866 -0.2156643 -0.11649734
000300 89 72 0c be 35 ee b3 bd 29 ba d4 bd 37 ce 46 be
       -0.13715567 -0.08785669 -0.1038707 -0.19414602
000310 c4 b1 88 be 56 50 06 be 76 a5 77 bd 40 ed 9e bd
       -0.26698124 -0.13116583 -0.06046053 -0.077600956
000320 48 f3 8b be 89 55 c9 3d 91 0e 75 3e e9 9d b3 3d
       -0.27334046 0.09830768 0.23931338 0.08770353
000330 b3 73 0e bd f9 9f 76 bd a9 70 0e bd ee 19 3e be
       -0.034778308 -0.060211156 -0.03477541 -0.18564579
000340 28 82 cc 3d cb 2c 2d 3e f8 64 56 bd a6 b0 c9 3d
       0.09985763 0.16911618 -0.052342385 0.09848146
000350 c7 96 11 3e 52 7b 93 bd e8 d8 9a 3d 0a 22 97 bd
       0.14217673 -0.07201256 0.07560903 -0.07379539
000360 52 95 90 bc 87 fe 38 3d 47 93 53 3d c1 6b 3b 3d
       -0.017649326 0.04516461 0.051654126 0.04575706
000370 85 e1 75 be 2c 81 48 bd 1e b3 b2 bd 0b 0f fb bd
       -0.2401181 -0.048951313 -0.0872557 -0.122587286
000380 a2 d0 0c bd 72 a3 06 3f c2 b1 bd bd ef 16 c9 be
       -0.034378655 0.5259315 -0.0926242 -0.3927531
000390 0a af 15 be ef 52 9f 3c 8f a0 2a 3e 4b 80 93 3d
       -0.14617553 0.019448726 0.1666281 0.07202204
0003a0 f0 f2 6b bb 9d 68 22 be df dd 0b bd c5 5b 43 bd
       -0.0036002956 -0.1586022 -0.03414714 -0.04769494
0003b0 fd e9 7a bd 08 4a 4f 3c e7 72 df bd b7 b6 2e 3e
       -0.061258305 0.012651928 -0.10910588 0.17061888
0003c0 f6 1e d0 bd dc f1 8a 3d 01 4f 03 3e 17 8b 02 be
       -0.10162155 0.06784412 0.12823106 -0.12748371
0003d0 77 17 82 bc 2b 58 62 be 9d 9f 36 3e a9 9a 6c 3e
       -0.01588033 -0.22103946 0.17834325 0.23105873
0003e0 a9 be 60 3d 9f e9 3b 3e 76 b7 3f bd 78 51 48 3e
       0.054869328 0.18350838 -0.04680582 0.19562328
0003f0 c8 24 08 3e 18 a7 ac 3c c1 5c 3c be da 2e eb 3d
       0.13295281 0.02107577 -0.18394758 0.114835456

conv2.bias f4 [16]
000000 4e 41 86 bd 60 47 ec bd ce 62 a7 3d a0 91 ff 3b
       -0.06555425 -0.11537051 0.081731424 0.0077993423
000010 fd a5 14 3e 37 b5 bb bc c0 79 42 be 48 9a 8f 3e
       0.14516445 -0.022913558 -0.18991756 0.28047395
000020 03 00 62 bc 3a 2f 24 3e 9b 22 95 3d 54 a2 43 bd
       -0.013793948 0.1603364 0.07281991 -0.04776223
000030 21 e7 5f bd 4c e0 86 bd 00 47 f1 bd 3f f9 7c 3d
       -0.05466378 -0.0658575 -0.1178112 0.061761137

fc1.weight f4 [120, 256]
000000 49 93 79 bd 84 12 56 3d 31 50 aa 3d 15 91 a0 39
       -0.060931478 0.05226375 0.083160765 0.00030625673
000010 e4 a7 82 bc 09 9b 12 3d e9 ce 92 3d 8f da 82 3d
       -0.015949197 0.035792384 0.07168371 0.06389343
000020 e4 aa 0d be 9c 4f 69 3d 85 6b 0e 3d f4 da 8c 3d
       -0.13834721 0.056960687 0.034770507 0.068776995
000030 0e b5 8f bd 1a 99 ab 3b 02 77 0c 3d b8 a6 23 bd
       -0.07016955 0.005236757 0.034293182 -0.039953917
000040 93 6e 72 bd 39 18 7d bd 76 c4 e4 bd 2f 9c ae 3c
       -0.059187483 -0.06179068 -0.111702845 0.021314709
000050 35 04 44 bd fa 9f 4b bb 55 d9 9a bc c0 58 3e 3d
       -0.047855575 -0.0031070695 -0.01890246 0.046471357
000060 be 71 87 3d 9b 50 95 3d 90 88 03 3d bd ac 5a 3d
       0.066134915 0.07290765 0.032112658 0.053387392
000070 c7 c7 ee bc 63 c0 03 3d 16 cc a7 bc 62 79 50 bd
       -0.029147996 0.032165896 -0.020483058 -0.05089701
000080 5e 7b 52 3d 90 29 1f bd 08 6e c1 3d 94 5c c7 3c
       0.051387183 -0.038857996 0.09444815 0.024336137
000090 e0 f8 75 bd ae 0c 5a 3d be f7 55 3d e9 af 08 3d
       -0.0600518 0.05323475 0.05223822 0.033370886
0000a0 a9 23 2f 3b ba 3e 98 bc 87 9e 31 3c ac 8b a9 bc
       0.0026724136 -0.018584598 0.0108410185 -0.020696484
0000b0 7f 20 8a bc 2f ca cf bc 24 89 ef bd 14 e4 02 be
       -0.016861198 -0.025364963 -0.116960794 -0.12782317
0000c0 5d 63 33 3d 22 47 37 bd 28 a8 b7 bb fd b2 26 bc
       0.043795932 -0.044745572 -0.0056047626 -0.01017451
0000d0 f1 62 14 bc 15 67 88 bd eb 1f 3d bc ad 50 73 3c
       -0.009056793 -0.06660286 -0.011543254 0.014850778
0000e0 93 8b bd 3d 08 b0 70 bd 6b e0 47 bd db ba 98 3c
       0.09255137 -0.058761626 -0.048798006 0.018643787
0000f0 42 38 17 3e 42 10 84 3c a9 cc 65 bd ca 12 c5 3d
       0.14767554 0.016121034 -0.056103382 0.09622724
000100 6d b7 09 be 72 ba c5 bd a1 93 91 bd 74 c2 07 be
       -0.13448878 -0.09654702 -0.07108236 -0.13257772
000110 05 62 bc bb 22 41 7d 3c d6 f1 2c bd c4 c5 2a 38
       -0.0057489895 0.015457423 -0.04222282 4.0715342e-05
000120 cb 83 39 3d 9d c6 1d 3d 70 ff d6 3b 9f 30 fb 3c
       0.045291703 0.03851949 0.0065612122 0.030662833
000130 3e f4 51 bd d4 16 e9 bc 6b 76 d2 bc f7 a9 c9 3d
       -0.051258318 -0.028453268 -0.025691232 0.09846871
000140 80 5b 80 bc f8 72 95 3d 45 35 50 bd 0c b7 7e 3d
       -0.01566863 0.07297319 -0.05083205 0.062186286
000150 63 6e 91 bc 3f 52 1b 3b d5 e4 6d 3d 8f a9 3c 3c
       -0.017752832 0.0023700146 0.05807956 0.011515035
000160 66 5f ac 3c bd 4a 1f 3d 6c 99 7b 3d b3 50 45 bd
       0.021041583 0.038889635 0.06142561 -0.048172664
000170 14 40 69 3c b5 fc d8 3c 0a 59 91 3d 6e 11 05 bc
       0.014236469 0.026487688 0.07097061 -0.008121831
000180 7e 2b 37 3b fa ce 57 bd ee 40 96 3d 61 5f 12 3e
       0.0027949507 -0.052687623 0.07336603 0.14294197
000190 0b ef d8 b9 36 60 dd bc 6d b2 a9 bc b2 b4 9b 3d
       -0.0004137683 -0.027023416 -0.020714963 0.07602824
0001a0 b6 59 9a bd 55 7e 1d 3d 89 04 96 3b d8 39 51 3c
       -0.07536642 0.038450558 0.0045781774 0.012770139
0001b0 0e ab d3 bc 42 42 84 bd b4 bd b8 bd e0 32 2e bd
       -0.025838401 -0.0645795 -0.09020558 -0.042528987
0001c0 61 05 6e 3d d8 0d 24 bc b1 80 4a bd f1 24 06 3d
       0.0581106 -0.010013066 -0.049439136 0.032750074
0001d0 b0 d0 41 3d a5 be 22 3d 16 09 7d bd 19 37 9f bd
       0.04731816 0.039732594 -0.061776243 -0.07774181
0001e0 7c ba bb bc b9 2c bb 3c 30 8e 8b bb ed 06 69 bd
       -0.022916071 0.022848474 -0.0042588934 -0.05689137
0001f0 5f 0e d8 3c 02 2e 30 bd 9b f7 2f bc 67 24 d4 bc
       0.02637404 -0.043012626 -0.010740186 -0.025896264
000200 93 85 66 bd 6e 58 f0 bc 1d ba 92 3d e4 03 01 3d
       -0.05627973 -0.029339042 0.071644045 0.03149785
000210 3d ad 8b 3d 44 90 90 3c 4e e8 3e 3d df 5f 9d 3d
       0.06820152 0.017646916 0.04660826 0.076843016
000220 97 6c 99 3d d3 d8 52 bd 4b ca ea 3c d8 74 05 3d
       0.07491415 -0.05147631 0.028660914 0.032582134
000230 85 56 f2 3c 38 82 03 bc 03 d9 23 bd 03 d6 d5 3c
       0.029582271 -0.008026652 -0.04000188 0.026103025
000240 90 5a bd bc 10 5b 11 3d df e9 83 3d 72 fd b0 3c
       -0.023114473 0.035487235 0.06441092 0.021605227
000250 99 2d 0b 3d 56 67 9c 3d 8e c9 99 3c d1 c9 eb 3d
       0.033979032 0.07636897 0.018772867 0.11513103
000260 60 5f 9c 3d ad a7 14 3d 03 79 19 3d 16 18 9e 3d
       0.07635379 0.03629272 0.03746892 0.07719438
000270 01 9c b2 bb 7d ec 8c 3c 18 50 a4 bb b3 9d ee 3d
       -0.005450726 0.01720261 -0.0050144307 0.116511725
000280 73 72 be 3c 81 eb 7a bd db b1 6f bd ea c0 fa 3b
       0.023247933 -0.06125975 -0.058519226 0.0076523917
000290 2c 60 4e 3d 6c 14 b1 3d d5 fd 91 3b fe 08 94 3c
       0.050384685 0.08646473 0.004455308 0.018070694
0002a0 ce 3a ab 3a 33 d5 8a 3d 8b b3 c6 3c d8 49 87 3d
       0.001306379 0.06778946 0.024255535 0.066058815
0002b0 41 4b 41 bd 15 1b 7d 3d 13 3e 50 bd 67 54 1a bd
       -0.04719091 0.061793406 -0.05084045 -0.03767815
0002c0 66 9e 9f bc 9c 98 36 3d 1d 64 5c 3d a0 35 fd 3d
       -0.01948471 0.044579133 0.053806413 0.12363744
0002d0 29 da c5 bc e0 5d 8a bd 4d d3 92 3d 5f ea e9 3c
       -0.024151878 -0.067561865 0.07169209 0.02855414
0002e0 f0 db 67 3c 7c 4a 9e bd 92 18 92 bc 48 e3 23 bd
       0.014151558 -0.077290505 -0.017833982 -0.040011674
0002f0 2e 37 1b 3d 82 d6 25 bc f6 b7 92 bb 80 d2 0b 3d
       0.03789442 -0.010121943 -0.0044774963 0.034136295
000300 c5 6b 0f bd 08 c2 9a bd f1 6f 9a bd 1a 08 67 bd
       -0.035014886 -0.0755654 -0.075408824 -0.05640421
000310 87 a7 1b bd c8 19 c5 bc f7 4c ed 3b 2e b5 80 3d
       -0.038001563 -0.024060145 0.007241841 0.06284557
000320 83 56 41 bd 18 85 1b 3e 93 05 85 3d 15 51 e5 3d
       -0.047201645 0.1518749 0.06495204 0.11197106
000330 01 54 3c be 6e a6 d1 3d 0e a8 fc bc c8 d4 84 3d
       -0.1839142 0.10236822 -0.030841853 0.06485897
000340 2d 2c 3f bd 57 33 d1 3c c6 7f 2d 3c 5f 4c e8 3c
       -0.04667299 0.025537176 0.010589546 0.02835673
000350 f4 8b 87 bd 2f 70 87 3d 88 ca 08 bd 35 aa 2b bd
       -0.06618491 0.06613194 -0.033396274 -0.04191037
000360 e4 f1 5a 3d 3b 90 23 3d 02 9c 5f bd f0 52 2d 3d
       0.05345334 0.03993247 -0.05459214 0.042315423
000370 2a e2 8a bb eb bd e3 3c fc 0e 2d bc 5c d2 1b bb
       -0.0042383866 0.02780052 -0.010562655 -0.0023776507
000380 95 8e 0b bd 69 13 9e bc 97 7e 4a bd bf cd 45 bd
       -0.034071524 -0.019296365 -0.04943713 -0.048291918
000390 45 8e 5e bd 42 73 f1 bc 6b 5e 31 3d 92 5a 98 3d
       -0.054334898 -0.029473905 0.043302935 0.0743915
0003a0 f3 07 fd 3c b1 74 99 bc a3 69 00 bc 8b 45 d8 3d
       0.03088758 -0.0187324 -0.007837686 0.10560139
0003b0 1c c5 4a bd ac 2b 8c 3d 05 9d 90 bd ab f2 b3 3d
       -0.049504384 0.06844267 -0.07061199 0.087865196
0003c0 b9 d0 33 3a ff fe 92 3c 87 d6 ba 3d 2e 83 16 bd
       0.000685941 0.017943857 0.09122949 -0.036746196
0003d0 f0 e6 f8 3d f6 cf 1c 3e c9 64 c2 3d db 04 78 3c
       0.12153423 0.15313706 0.094918795 0.015137876
0003e0 21 5a d1 3d d1 43 ec 3c de 4e 29 bd 99 bd 82 3c
       0.10222269 0.028840931 -0.04133498 0.015959548
0003f0 3e 02 cd 3c d4 9a 21 bd 2c 2c 3b bd 13 12 c9 bc
       0.025025483 -0.039454296 -0.045696422 -0.024544751

fc1.bias f4 [120]
000000 98 c0 b5 3d 8d fc 44 3d 88 6c 13 3d 9f 01 83 3d
       0.08874625 0.048092414 0.035992175 0.063967936
000010 3a 2d 2c bc 14 5a 02 bd 44 29 19 bd 2b d2 44 bd
       -0.01050883 -0.031824186 -0.03739287 -0.048051994
000020 47 d8 80 bd 64 ed 55 bd 79 af 3a 3d 3d c1 d6 39
       -0.06291252 -0.052228346 0.0455775 0.00040961234
000030 cc e1 7d 3d a5 0b d0 3d 56 a3 b4 3c 6a fb f3 bc
       0.061982915 0.10158471 0.02205054 -0.02978297
000040 c0 88 ce bb d2 4f 25 bd 45 e7 3f 3b 0c 46 56 bd
       -0.006302923 -0.040359326 0.0029282134 -0.052312896
000050 b1 b0 26 bd cb 9d 31 3c cf 40 2c 3d 01 f5 4e 3d
       -0.04069585 0.010840843 0.042053994 0.050526623
000060 44 19 08 3c a0 53 0e 3e 59 d7 68 3d 2c 85 69 bd
       0.008306805 0.13899088 0.056845997 -0.05701177
000070 05 b9 bc bc 05 bc de 3d c7 c1 0e 3d a8 6b d1 3b
       -0.023037443 0.10875706 0.03485277 0.0063910075
000080 b2 f4 95 3c 6a 57 45 3b f0 85 6a bd 8b 8a 2e bb
       0.018305156 0.0030111917 -0.05725664 -0.002663287
000090 05 68 08 bd 50 c0 3f bd c6 5f 16 bd 86 9d b5 bc
       -0.033302326 -0.046814263 -0.03671243 -0.02216984
0000a0 2f 57 0a bd 15 4a a0 3d 2f 8d c4 bc 65 9b c8 3c
       -0.03377455 0.0782663 -0.023993103 0.02448816
0000b0 d7 20 14 bd 1c 4f b6 3c a3 a9 d1 ba 6b e8 8a 3c
       -0.03616413 0.02225452 -0.001599599 0.016956529
0000c0 b8 f5 1a bc f8 1e 45 bb ac 22 d7 bb a6 79 bd 3d
       -0.009457998 -0.0030078273 -0.0065654125 0.09251718
0000d0 9e 32 14 3d 5c 32 34 bc 9b 6c 5b bd b2 15 60 bd
       0.036181085 -0.010998335 -0.05357037 -0.05470819
0000e0 15 ec d9 3c 22 d9 fa bc 7a 73 c8 bd 71 d3 3b 3d
       0.02660183 -0.030621115 -0.097876504 0.045855943
0000f0 6e f9 de 3d aa 60 57 bd 13 ac d0 3d 2b cf be 3d
       0.10887419 -0.05258242 0.101890706 0.09316858
000100 7d 03 72 bd a3 22 04 bd 77 f9 9a 3d a9 27 6c 3d
       -0.059085358 -0.032259595 0.07567113 0.05765501
000110 5b 3d 02 bd 67 f5 a3 3d cb bc 12 3d 81 ca 96 3d
       -0.031796794 0.08005791 0.03582458 0.07362843
000120 4b 1b 42 bd 6b 5d 26 bd 5c f7 d9 3c 4f 98 87 bc
       -0.04738931 -0.040616434 0.026607208 -0.016552119
000130 c0 3d 2f bc 52 38 aa bd 00 86 94 3d 00 3a a2 3d
       -0.010695875 -0.083115235 0.07252121 0.07921219
000140 7d ad 00 bd ca 74 94 3d 59 7d 82 3d 6a 73 07 3d
       -0.03141545 0.07248838 0.063715644 0.03306905
000150 92 35 1d 3d d2 ff 8a 3d 4e 03 4d 3c 82 f7 dc 3d
       0.038381167 0.06787075 0.012512995 0.10789396
000160 d6 92 7e bc f1 fc ea 3c 3d df 27 3c 70 9c c1 3c
       -0.015537938 0.028685065 0.010246095 0.023634166
000170 38 0f 13 bd 3d be 61 3d ae 2a 83 3d b8 07 8e 3d
       -0.035903186 0.055113066 0.06404625 0.06935066
000180 1f d3 88 bd 94 7a 19 bd a5 20 94 3d 53 af 70 3c
       -0.06680893 -0.037470415 0.07232789 0.014690238
000190 0d 1a 90 bc 0b bb 32 3d 7d bc 48 bd 67 56 7d 3d
       -0.017590547 0.04363541 -0.04900788 0.061849978
0001a0 00 6e a2 bc 46 9f 06 3d 3f 5b 42 bd a0 92 c1 3d
       -0.019827843 0.03286674 -0.0474503 0.094517946
0001b0 bd 11 32 bd df 3b 48 3d 25 e6 b5 3d 40 2d 62 3d
       -0.043473948 0.048885223 0.08881787 0.055218935
0001c0 23 55 d1 3b 3d 08 19 3d 6d 96 5d 3d 42 69 e5 bc
       0.006388323 0.037361372 0.054098535 -0.028004292
0001d0 97 fa 42 3d 66 33 8f 3d 7b 7b bd 3b a3 2f a3 bc
       0.047602262 0.06992225 0.0057825423 -0.019920176

fc2.weight f4 [84, 120]
000000 1e 24 c8 bd 56 91 f8 3d c0 11 5b bb c0 6a 36 bd
       -0.09772514 0.12137096 -0.0033427328 -0.0445354
000010 92 2f 1d bc 30 f9 12 3d 4c 2d 77 bd 19 cc 28 3d
       -0.009593861 0.035882175 -0.060345933 0.041210268
000020 27 a3 a8 bd 95 06 0a 3e 9f 15 35 bd d4 3e 78 bd
       -0.08234244 0.13479073 -0.044210073 -0.060606793
000030 8c da 93 bc cf 63 78 3c 1f 88 34 bc 7f fc 87 3d
       -0.018048547 0.015160515 -0.011018782 0.06639957
000040 17 c6 6e 3d 56 2b c1 3b 89 74 f8 3d 4c 79 2e 3d
       0.058294382 0.0058950586 0.12131602 0.042596146
000050 ef bc 45 bd e1 53 b7 bd b7 4b 7a 3d c1 16 68 3d
       -0.048275884 -0.089515455 0.061107364 0.056662325
000060 8e 6b d8 bc d8 30 6e ba ea cd 6c 3d 42 6b 99 bd
       -0.026418474 -0.0009086258 0.057813562 -0.07491161
000070 7b b9 4d 3d 67 d6 a3 3c 04 77 77 bd fe 60 bb bd
       0.050225716 0.019999696 -0.060416237 -0.09149359
000080 b7 f2 2f 3d aa 86 28 bc cd e0 bd bd 5d 47 6b 3d
       0.04295608 -0.010286013 -0.09271393 0.057441104
000090 27 a5 45 3d a6 86 a3 3d c9 d0 e4 39 09 30 ac bd
       0.048253205 0.079846665 0.00043643106 -0.084075995
0000a0 e1 0a ff 3b c0 59 aa 3d d3 27 9d 3d ee a9 71 bd
       0.0077832793 0.083179 0.076736115 -0.05899995
0000b0 97 12 fd 3a fd 7e 33 bd 03 88 ca bd 3f d5 e9 3c
       0.0019307908 -0.043822277 -0.098892234 0.028544066
0000c0 33 d6 30 bc 99 74 15 bd c7 b3 b5 bc 23 7d 4e 3d
       -0.010793257 -0.03648815 -0.022180451 0.05041231
0000d0 a4 4e 27 3d 00 be 69 3a 61 da 2a bd cb 29 05 bc
       0.040846482 0.0008916557 -0.04171217 -0.00812764
0000e0 00 68 4d bd 21 2b 41 bd bb e4 5c 3b 82 d0 d3 bd
       -0.05014801 -0.04716027 0.003370567 -0.10342504
0000f0 a3 82 bb bd 44 c9 55 3b 48 01 45 bd 77 07 c2 3d
       -0.09155776 0.0032621184 -0.048096925 0.0947408
000100 b9 11 1f bd 20 f0 d6 3c e2 b0 1f bd df 22 02 3e
       -0.03883526 0.026237547 -0.038987048 0.12708615
000110 6d 68 41 3c 1f 27 5f 3d 20 94 89 bd 2b 53 1b b6
       0.011804682 0.05448067 -0.06717706 -2.314521e-06
000120 bd b6 0b bd ff f0 e0 bc e6 98 6b bd a7 ef 43 bd
       -0.03410982 -0.027458666 -0.057518862 -0.047835972
000130 0a e6 a6 bd 36 24 cd bc 09 96 47 3a 96 98 f1 3d
       -0.08149345 -0.02504168 0.00076136045 0.117966816
000140 dc 34 99 bd 2d 3b 15 bd 85 e6 d1 bc 9e c4 81 bd
       -0.07480785 -0.036433388 -0.025622616 -0.0633633
000150 cf 31 0d be f0 19 e5 bc ca d4 d0 3d ae f0 6b 3d
       -0.13788532 -0.02796647 0.10196836 0.057602577
000160 56 e6 9e bc eb d0 11 3e 36 58 8a 3d 93 4a 47 bc
       -0.019396942 0.14239852 0.06755106 -0.012163776
000170 62 bf 26 bb 97 17 af 3d f8 ed 0e 3e 0a da d1 3c
       -0.0025443663 0.08549421 0.13957965 0.025616664
000180 e4 88 9a 3d 1b 46 c3 3d b2 c2 8d 3d 26 45 41 bd
       0.07545641 0.09534856 0.06921901 -0.047185086
000190 b1 12 6a 3d ed cf 74 bd dc c8 98 3d 6e e6 a6 bd
       0.05714673 -0.059768606 0.07460186 -0.0814942
0001a0 61 0c 06 bd 03 56 4a bd 35 da b6 3d 17 df db 3c
       -0.03272665 -0.049398433 0.089283384 0.026839776
0001b0 41 96 61 3d ea e3 85 3d f3 29 18 bd 65 79 e2 3c
       0.055074934 0.06537612 -0.03714938 0.027645776
0001c0 04 8e 95 3d 5b 3c 6d 3c f6 66 1a 3d e4 98 59 bd
       0.07302478 0.014479722 0.037695847 -0.053124323
0001d0 bf 84 80 bc bc 46 d8 3d e8 28 6c bd 1a 48 6d bd
       -0.015688298 0.105603665 -0.0576562 -0.05793009
0001e0 eb a7 c9 bd d9 8f b3 3d 9f d7 cb bd 94 b0 12 3e
       -0.09846481 0.08767671 -0.09953236 0.14325172
0001f0 88 74 08 bd e8 f7 e2 bd 3a 95 fc bd 2a 4c 53 3d
       -0.033314258 -0.110824406 -0.1233315 0.051586308
000200 68 0c 76 bd a4 ad 4d 3d 51 0f 91 3d f0 ff 0c 3d
       -0.060070425 0.050214425 0.070829995 0.03442377
000210 0e 99 a4 bd 15 d8 a1 3d 7b 5b f1 bc 78 7e 29 3d
       -0.08037005 0.079025425 -0.029462567 0.041380376
000220 9c 2a 05 3b bf a0 31 bd 0a dd 9e 3d 0d 61 30 3d
       0.0020319587 -0.04336619 0.077570036 0.043061305
000230 c2 5c 6e bd 67 19 c0 bd 23 04 82 bd 2e 30 66 bc
       -0.05819393 -0.09379845 -0.06348445 -0.014049573
000240 69 f8 b4 bd fd 26 04 3e 61 1b 3f 3d 02 3c cd 3d
       -0.08836443 0.12905498 0.04665697 0.10021211
000250 21 30 bd 3c 9d 55 db bd 8e 49 9a 3d 1b 35 29 3d
       0.023094239 -0.10709689 0.07533561 0.04131041
000260 a0 a3 75 3d 6f b0 73 bb e9 77 9c 3d 78 fa 85 bc
       0.059970498 -0.003718402 0.076400585 -0.016354784
000270 72 bd b9 3d a2 1d e3 bd 14 21 bb 3c 4a f8 4b 3d
       0.09069337 -0.110896364 0.022842921 0.049797334
000280 67 a4 81 bc 5e 06 ac bd 6e 80 37 bd 50 ac 60 3d
       -0.015825463 -0.08399652 -0.044800214 0.05485183
000290 d3 6c 79 bd 32 b1 bc bd 46 6f 96 3d e8 ca f7 3d
       -0.0608948 -0.09213485 0.073454425 0.12099248
0002a0 44 6b 51 bd f8 ec 6d bd b3 d0 63 bd 88 7b 07 3e
       -0.051127687 -0.05808732 -0.055618953 0.13230717
0002b0 12 78 20 3d 71 99 aa 3c 0e d3 ff 3d 8a 10 93 bd
       0.039177008 0.02082512 0.12491427 -0.07180889
0002c0 23 c9 d6 3a fa 5d 23 bd 74 6a 83 3d 32 3c 8e 3d
       0.0016386848 -0.039884545 0.06416789 0.06945075
0002d0 3b d7 e9 3c 3d 35 93 bd 09 5b db 3d ea 3f 08 bc
       0.028545013 -0.07187889 0.10710723 -0.00831602
0002e0 2d 87 24 3d f2 05 2b bc 44 28 23 3d b9 8f 81 bd
       0.040167976 -0.010438429 0.039833322 -0.06326241
0002f0 17 ad 39 be 13 aa ec 3d 9f 2a b6 3c 6c 47 2a 3d
       -0.18132435 0.115558766 0.02223712 0.04157202
000300 6f 85 0b 3c 63 fe ac bc 75 10 83 bc 1c c9 d3 bc
       0.0085157 -0.021117395 -0.015999058 -0.025852732
000310 dd 43 ae bd f8 e0 85 bd 83 8c 3f 3c a7 68 82 bd
       -0.08509038 -0.0653705 0.011691215 -0.06367617
000320 53 35 fe bc cc 84 c1 bd 69 5b e8 bd 16 3f 6c 3c
       -0.031031286 -0.09449157 -0.1134556 0.014419338
000330 1e 03 3b bd f9 35 c4 3c c2 0c 95 3c 22 40 fe bd
       -0.04565727 0.023951517 0.01819456 -0.12414576
000340 ad 44 2c 3d e0 9a 63 3c 53 db 2a bc f2 9c 8e 3d
       0.04205768 0.013891906 -0.0104282675 0.06963529
000350 c1 ab 16 3d c8 52 b6 3a 9c 76 1d 3d 69 9d 83 3d
       0.03678489 0.0013910169 0.038443193 0.06426508
000360 35 58 90 bd b0 79 9d 3c 2a d5 7c 3d d2 c9 1f 3e
       -0.07048074 0.019223064 0.061726727 0.15604332
000370 83 b6 db 3d 56 dc af 3d 1e 2a b4 3b 33 a4 ae 3d
       0.10728171 0.085869476 0.005498185 0.08527412
000380 c9 c4 d6 bd 31 74 53 3d 4f 7c 0f 3e 14 d6 1b be
       -0.104867525 0.05162448 0.14012264 -0.15218383
000390 5c 6b a3 bd 6c 6c 0f 3e 1f 14 e3 bc c0 0b d5 bc
       -0.079794616 0.14006203 -0.027719555 -0.02600658
0003a0 67 42 84 3d fa 38 c8 3d ef 41 13 3d c2 4f 50 3d
       0.06457978 0.097764924 0.03595155 0.050857313
0003b0 2f d3 8e bd 1c 13 c2 3d 1b 2f 7d 3c 70 79 15 bd
       -0.06973874 0.09476301 0.015453125 -0.036492765
0003c0 b8 ed 89 3d 35 df b5 3d e0 0c 54 3d 2d 58 a3 bc
       0.067347944 0.08880464 0.05177009 -0.019939506
0003d0 1f 53 31 bd f6 0d 52 bd 00 c5 2a bc 1a 59 a1 bd
       -0.04329216 -0.051282845 -0.010422945 -0.07878323
0003e0 07 9a 29 3c 37 05 1c 3d fa 8d 8b bb 5f 54 aa 3d
       0.010351664 0.03809091 -0.0042588683 0.08316874
0003f0 2d ee 89 bd 83 da d2 3d bf 0f 15 3c b6 3d 9a 3d
       -0.067348816 0.10295584 0.009097992 0.07531302

fc2.bias f4 [84]
000000 b6 39 c2 3d ed 9a 9b 3d 69 1f eb 3d a3 d9 cf bd
       0.09483664 0.07597909 0.114806004 -0.10148933
000010 e6 d4 4a 3d 5e cd f7 3d c1 3c b4 3d bb f1 88 bd
       0.049519442 0.120997176 0.088006504 -0.066867314
000020 41 96 b2 3c 68 7a 92 bd d2 bb c4 bd 5a ea f2 3c
       0.021800162 -0.071522534 -0.096061364 0.029652763
000030 92 96 55 3d ef 82 9f 3d 52 e4 00 3c f7 3c 36 3c
       0.05214555 0.077886455 0.007866936 0.011122934
000040 e7 b5 a6 3d 40 ae 41 3d 9f 21 2b bd df f2 1a bc
       0.08140164 0.04728532 -0.04178011 -0.009457319
000050 a5 76 2d 3e c0 51 40 bd f5 68 0a 3c 04 48 bf bd
       0.1693979 -0.046952963 0.008447875 -0.09339908
000060 99 62 4a bd c9 58 04 3e f3 d6 01 bd 37 7b 56 3d
       -0.049410436 0.12924494 -0.031699132 0.0523636
000070 40 68 ab 3c 62 e5 c8 3b 21 2d 42 bd 3a a5 1f 3e
       0.020923734 0.00613086 -0.04740632 0.15590373
000080 08 53 cf 3d 80 f5 65 bd 92 3c 9e bb c3 f5 93 bd
       0.10123259 -0.05614233 -0.004828998 -0.0722461
000090 d6 ad 64 bd 58 62 44 3e cb 53 44 bc 93 bd bc bd
       -0.055829845 0.1917814 -0.011982868 -0.09215846
0000a0 cc e6 bc bd 4e 52 4f bd c3 b0 ec bc 92 91 76 bd
       -0.092237085 -0.0506156 -0.02889288 -0.06019742
0000b0 70 95 c1 3d 6a 93 08 3e ab 49 44 3c 90 41 ab 3d
       0.09452331 0.13337484 0.011980454 0.083621144
0000c0 6f 39 be 3d 9a 89 44 bd 17 82 b4 bc 0c 3d a2 bd
       0.09288298 -0.04798279 -0.022034688 -0.079218
0000d0 9c a9 22 3e 01 58 05 3d ba 39 04 3e 1b d6 42 bd
       0.15885013 0.03255463 0.12912646 -0.047567468
0000e0 58 a3 f2 bc 46 90 b1 3d d5 57 8d 3d 10 19 1e bd
       -0.029618904 0.08670096 0.06901518 -0.03859812
0000f0 61 60 b7 3d 23 5d ba bd e1 3a 88 3d 70 6b 12 3c
       0.0895393 -0.09099796 0.06651855 0.008936748
000100 70 ef 4b bc e0 7c d2 3c 98 f4 9c 3c 3f fe d0 bb
       -0.012447223 0.02569431 0.0191596 -0.0063779647
000110 57 63 f7 bb db 08 5d 3d d5 6a d8 3c 83 35 a9 bd
       -0.007549684 0.053963523 0.026418129 -0.0826216
000120 6a 75 45 3e aa 41 32 3e 5d 49 58 3d 5b 63 00 3e
       0.19283071 0.17407861 0.05280434 0.12537901
000130 f2 27 e7 bc 96 18 bc b9 8f 30 65 3e 4e 46 2e bb
       -0.02821729 -0.00035876472 0.22381805 -0.0026592198
000140 05 f9 0d 3e bb 5b 9e 3d 8e 93 13 3e 57 01 91 3d
       0.13864525 0.0773234 0.14411756 0.07080334

fc3.weight f4 [10, 84]
000000 d3 e5 da bd d0 3d fa bd bf 12 02 be 5e 46 f5 bd
       -0.10688367 -0.12218821 -0.12702464 -0.11976312
000010 e7 66 88 3d 58 83 20 be b1 24 6c 3e 14 3c da 3c
       0.06660252 -0.15675104 0.23060872 0.026639976
000020 9f 0f 4f be 12 09 7d 3d 21 54 71 bc 12 8e 53 3b
       -0.20220803 0.06177623 -0.014729531 0.0032280725
000030 d1 7c d0 bd 0d 30 9a bc b0 7f 26 bd 6a a5 2d be
       -0.10180057 -0.01882174 -0.040649116 -0.16957632
000040 87 89 ab 3d 6f 02 eb bd 9e 6c cd bc 69 55 3c be
       0.08375841 -0.114750735 -0.025076207 -0.18391956
000050 fc 9e b0 3e b5 a2 d3 3d 29 07 c2 bd c2 d0 72 3e
       0.34496295 0.10333768 -0.09474022 0.23712447
000060 2f 48 a7 bd 9f 90 de bd 7e f2 3d be 9f a9 af bc
       -0.08168065 -0.10867428 -0.18549535 -0.021443186
000070 c2 5b f5 bd a5 80 23 3d db d5 aa bd 77 e7 96 3e
       -0.11980392 0.039917607 -0.08341571 0.2947347
000080 48 a9 ab 3e 37 c5 ab 3d 81 08 c2 bd dd ea ed bd
       0.3352759 0.08387225 -0.09474278 -0.11617062
000090 33 b2 b4 bd 9d 1e f2 bd db 0b 3e 3e ae 7b 64 bd
       -0.08823051 -0.11822245 0.1855921 -0.055782013
0000a0 eb bd a3 bd ed 5a 78 3c 67 88 c9 bd 9c 48 75 3c
       -0.07995208 0.015158397 -0.0984047 0.014970925
0000b0 59 64 26 be af 7e 40 3e e8 76 3e 3e 23 b0 b6 3d
       -0.16249217 0.18798326 0.18600047 0.08920314
0000c0 77 07 2b be f4 5b 37 3d ac b0 e2 bd d3 73 14 bc
       -0.16702066 0.044765428 -0.11068854 -0.009060818
0000d0 92 70 09 bd 27 d6 9b 3d 79 e3 3a 3e 1c 89 26 be
       -0.03355462 0.07609206 0.18250836 -0.1626324
0000e0 82 69 f3 bd 3b 89 0c be 73 68 f8 bd fb b7 e1 3d
       -0.118853584 -0.13724224 -0.12129297 0.110214196
0000f0 f1 b9 16 3e 80 92 cf bc 8a ae e4 bd 1f 6b 3f 3e
       0.14719369 -0.025338411 -0.11166103 0.18693207
000100 c6 eb e9 bd c5 b9 8b bc 8a a6 a3 3d 24 e7 63 3d
       -0.11421923 -0.017056355 0.07990749 0.055640355
000110 3c c4 e9 bc 4f 08 8a 3e c4 9e a9 3d f3 a1 89 3d
       -0.028535955 0.26959464 0.08282235 0.067203425
000120 9e 42 b8 3e f6 98 b3 bd 8e f5 a0 3e 70 89 98 3d
       0.35988325 -0.08769409 0.31437343 0.07448089
000130 85 e8 b0 bd d5 95 79 3e 76 01 71 3e cc 40 d1 bd
       -0.086380996 0.24373563 0.23535714 -0.10217437
000140 c8 e5 14 3e b4 fa b7 bd 65 d1 a3 3d 86 9e 00 be
       0.1454078 -0.08983365 0.07998923 -0.12560472
000150 fe 00 5d 3d c4 75 26 be e0 a1 45 be 70 d7 c6 bd
       0.053956024 -0.16255862 -0.19300032 -0.0970906
000160 e6 c5 21 3b 32 b7 ff bd 5f 00 5b 3d f2 e7 20 3d
       0.0024684607 -0.124861136 0.05346715 0.0392837
000170 3c b0 a9 bd 1b 23 c2 3c 08 df d4 bc 0e f2 e4 3d
       -0.08285567 0.02369838 -0.025985256 0.11178981
000180 e0 42 16 3d 59 c7 9a bd 4c 38 db bc 6b 99 2a be
       0.03668487 -0.07557554 -0.026760243 -0.16660087
000190 e2 16 f8 bc bd 2e 77 3d 79 5c f4 3c c0 7e ac be
       -0.030284349 0.060347307 0.02982925 -0.33690453
0001a0 d7 5c 05 bd f7 09 6e bd c3 0d 05 3d b8 0d 7a bd
       -0.032559242 -0.058114972 0.032483827 -0.06104824
0001b0 7b f8 21 3d 65 36 d1 bd 80 90 e2 3d 9f 4c a0 3e
       0.03954361 -0.10215453 0.110627174 0.31308457
0001c0 e2 fd 2c be 9f 9a 96 3e a4 ae 6d 3e 8f 9a 18 3b
       -0.16893724 0.29414842 0.23211151 0.0023285483
0001d0 f2 50 c3 3d 51 32 e4 3d 37 93 f2 bc b3 27 4f 3e
       0.095369235 0.111424096 -0.029611213 0.20229988
0001e0 d0 32 ff bb 6b 3c 95 be f3 25 8b 3d 68 18 bb 3d
       -0.0077880397 -0.29147658 0.067943476 0.091355145
0001f0 e3 81 20 3c e5 ed 33 3d 30 18 95 3d 95 1b 5c 3d
       0.009796592 0.043928046 0.07280004 0.05373724
000200 70 2b 8a 3d dd b1 66 bd 87 dd 03 be 53 ce a5 3e
       0.06746566 -0.056321967 -0.12877475 0.32383975
000210 84 9b a6 3e 13 e9 33 3d 69 e0 3e be dc 7b 96 bd
       0.32540524 0.04392345 -0.18640293 -0.07347843
000220 4c 4b 76 be 6d 76 b7 bd 05 11 7a 3c 2c 4a 3b 3d
       -0.24052161 -0.08958135 0.015262847 0.045725033
000230 11 7b 65 3d 41 52 79 be 33 9f d9 3e b9 29 cf bc
       0.05602557 -0.24347784 0.42504272 -0.02528845
000240 54 28 56 be 48 cf d1 bd ea 53 09 3e 78 c7 7a be
       -0.20913821 -0.10244614 0.13410917 -0.24490154
000250 81 b6 e9 3d 67 76 cb bd 30 0c bf bd b5 b6 ad 3d
       0.11411763 -0.09934693 -0.093284965 0.08482114
000260 6f 3d 56 be a7 81 dd bb fb 17 dc bd b2 a3 54 bd
       -0.20921873 -0.0067598405 -0.107467614 -0.051913925
000270 c8 60 dd be 68 b5 0f bd 2c 3e 1e be 9e 46 6a be
       -0.432379 -0.03508511 -0.15453404 -0.22878501
000280 ad 3b 1c 3d 9e e3 a1 3c 21 8c cb 3d 66 22 77 3e
       0.03814285 0.019761857 0.09938837 0.24134216
000290 76 97 95 bd db 63 8e 3c 2f 38 fb bd 44 35 ed 3d
       -0.073042795 0.0173816 -0.122665755 0.11582425
0002a0 b1 41 c9 bd c5 33 c1 3d 24 34 19 be 1a 85 0d 3e
       -0.09826983 0.094337024 -0.14961296 0.13820305
0002b0 ea 33 2c 3e 17 e5 00 3d ba 2f 17 be 40 8f b1 bd
       0.16816679 0.031468477 -0.147643 -0.08669901
0002c0 8b 04 72 3e f9 71 47 3e 27 af f2 3d 5f 57 02 3e
       0.23634546 0.19477071 0.11849814 0.12728642
0002d0 f0 78 6e be 73 0b 58 3e fd 6a b3 3d 4a d1 ab 3e
       -0.23288321 0.21098118 0.08760641 0.33558112
0002e0 58 d6 6a 3d 2d 5f 1c be eb f3 67 3e 28 87 93 3e
       0.05733332 -0.15270682 0.22651641 0.28814054
0002f0 c8 19 3f be 7c ff 23 bd a9 1d 12 bb 9a a9 0e 3d
       -0.18662179 -0.04003857 -0.002229551 0.034829713
000300 37 af 99 3b e5 72 b7 be ce 6d 98 bd 4e b8 d3 bd
       0.0046900767 -0.35829845 -0.074428186 -0.10337888
000310 1c 5c 39 3e 1f 04 0b 3e 5a 06 a1 3d 5e 60 99 bd
       0.18101543 0.13575791 0.078625396 -0.07489084
000320 29 14 67 bd 0d 93 4b 3c 54 e3 21 3e 5b 0a 8e 3d
       -0.05641571 0.012425196 0.15809375 0.06935569
000330 41 28 4e 3d 13 98 a1 be e2 7e b9 3d 53 63 95 bd
       0.050331358 -0.31561336 0.09057404 -0.07294335
000340 98 4d 92 3d 42 6c 3e 3d c5 ae bf 3d 8a 9d a2 bc
       0.07143706 0.04648996 0.093595065 -0.019850511
000350 c8 96 2e be 16 c6 72 bd c8 06 8e 3e 51 35 8f be
       -0.17049706 -0.05927094 0.2773955 -0.27970365
000360 9a 0f 5d be fc d0 c9 b9 61 02 9a 3b 0c 66 39 3d
       -0.21587983 -0.00038493413 0.0046999906 0.045263335
000370 60 ea fe bd 4a 3f 5c 3c 75 5e 43 bd f4 8a 91 3c
       -0.12447047 0.013442824 -0.047697503 0.017766453
000380 a5 17 49 3e 50 15 c5 3d c1 58 13 be 5a d0 91 3e
       0.19637926 0.09623206 -0.14389326 0.28479272
000390 21 72 8d 3e 4b ec 0f 3e 89 d5 0e be c0 ea a1 3e
       0.27626136 0.14054982 -0.13948645 0.31624413
0003a0 be a7 04 bc 67 6d 57 3d f6 d4 5e 3d 08 85 f9 bd
       -0.0080966335 0.05259457 0.054402314 -0.12183577
0003b0 f0 a3 44 3e 4e d5 17 be eb ab d5 3c 9e 15 8e 3c
       0.19203162 -0.14827463 0.026082953 0.017344292
0003c0 c6 a0 01 3f d7 21 45 3c dd a7 93 be 3a 49 f7 3d
       0.50635946 0.012031994 -0.28839007 0.12074514
0003d0 73 d8 c9 3d 12 59 a5 3d 23 19 8c 3e 5d b6 55 3d
       0.098557375 0.080736294 0.27362928 0.05217587
0003e0 ee b4 4f 3c 21 f5 e0 3d 26 b3 4e be 27 0a 06 be
       0.012677414 0.10984255 -0.20185527 -0.1308981
0003f0 ab 53 05 3d da c5 1f be a9 0e 14 be 0b a4 7b bd
       0.032550495 -0.15602818 -0.14458717 -0.06143574

fc3.bias f4 [10]
000000 7c c2 1f bc 3a c7 8b be fb 77 25 bc b9 ef 94 bd
       -0.0097509585 -0.27300435 -0.010099406 -0.07272286
000010 34 c5 a1 be 20 62 19 bd f2 90 72 3e cc 65 62 3e
       -0.31595767 -0.037447095 0.23688105 0.22109145
000020 67 36 12 3e a6 b0 20 be
       0.14278565 -0.15692386
