fashionmnist_net_adam_5.pth (torch, 181139 bytes, 10 tensors)

conv1.weight f4 [6, 1, 5, 5]
00000000: 76f2 913d 31d7 313d 290b 893c 19e8 4f3d
00000010: 2596 03bd aac4 0f3e c8ab 7d3e f6eb 323e
00000020: 6d97 9ebd 04d9 c3bd 0c12 3a3e 2176 fb3d
00000030: 4370 353d 6042 3fbd 54a6 5c3d 63c5 95bd
00000040: a19e 1bbe 4b13 68be b629 b03d 1876 6cbc
00000050: c4ea 6bbc 532b 05bd 922d e0be 9258 a93d
00000060: 715b 263d 4e05 4c3d b23a d53b 82d2 643d
00000070: 0063 9b3d 9f36 ca3b 308f 95bd bec1 1cbe
00000080: 3355 443e 0672 403e 9387 2bbe 1b2b 4fbe
00000090: 079e 5cbe deb0 da3e 22b8 ed3d 218d 34be
000000a0: ab98 a9be 403b 9aba 40b2 7c3e 2d45 1e3e
000000b0: ee4e 80bd 5bf1 8bbd 7517 163d 4ee8 90bc
000000c0: f53c c63d 024b ba3c de11 dbbb b8fc ba3c
000000d0: c658 f8bc d1de 3b3d 259a 0dbd 7a43 09bc
000000e0: 4303 5e3c 9fef a53c b1c4 1c3d 54a5 1b3d
000000f0: 72d9 433c 8671 edbc cbd4 263c 4eb8 bb3a
00000100: 92ea f23a 1393 4abc 04ba 3bbc c0f8 de3d
00000110: eb3c e8bc 5c03 da3c 9669 3ebd b75c 61bd
00000120: 74af ddbb dff2 95bc 3a0b 8ebd bf75 993d
00000130: fd9c 583d b6b6 483d 3a2d 3cbd 24c4 85bd
00000140: 54ab 853d 3d9a 953b 6534 193e d134 7a3d
00000150: fd97 ccbd 6292 f93c 24b4 263c 8701 c2bd
00000160: daf7 fb3d 4eab cb3c 0e88 1c3e c7f2 723d
00000170: 006f 533d 7868 f13d e2d8 33be ad32 30bd
00000180: 4d34 ea3c cb55 d33c 63db 913c cfe8 44bc
00000190: 6254 7cbd 3fca a6bb bc99 05be 0466 07be
000001a0: c56b 9bbc ee87 a93d 46c4 0b3e 2228 56bd
000001b0: 3a9b 0abf f3a9 4abe 8214 293d 9beb 583d
000001c0: 21bc e03d a5f8 4bbe 9e6a 6ebe 0d02 ae3d
000001d0: d79e 1cbc 6c21 ed3d 7788 80bc b104 c8bd
000001e0: 74a2 8ebc 25ed b13d 96f6 803d f38b 783d
000001f0: 1b6e 0e3d 0c55 0cbd e1fe 9cbc 6ae2 493c
00000200: 44b3 f83b 317c 90bb c762 41bd fea7 25be
00000210: 9648 4ebe 9c18 24bd 1103 933b 2135 efbd
00000220: d4bb 92be 4f7c a5be 875a 66be 9616 84bd
00000230: 6eac cbbd daac 5ebd f84b f0bd 9c7f 0ebd
00000240: cb06 bc3c ca7b 153d 6cd7 1abb 067c 90bc
00000250: a843 b73c 5891 0dbd
0.07126324 0.043418113 0.016728954 0.050758455 -0.03212561 0.14039865 0.2477256 0.17472824
-0.07743726 -0.09562877 0.18170947 0.12278391 0.044296514 -0.04669416 0.05386956 -0.07313039
-0.15197231 -0.2266361 0.08601706 -0.014432453 -0.014399234 -0.03251202 -0.43784767 0.082688466
0.04061455 0.049809746 0.006507241 0.05586482 0.07587242 0.006171062 -0.073027015 -0.15308282
0.19173126 0.18793496 -0.16750936 -0.20231287 -0.21544658 0.42713064 0.11607386 -0.17631961
-0.3312429 -0.0011766925 0.24677372 0.15456076 -0.06265055 -0.06833144 0.036643464 -0.017688897
0.096795954 0.022740845 -0.0066854795 0.022825584 -0.030315768 0.04586679 -0.03457083 -0.008377904
0.013550582 0.020255862 0.038273517 0.037999466 0.0119536985 -0.028984796 0.01018257 0.0014321895
0.0018533042 -0.012364167 -0.011457924 0.10887289 -0.02834936 0.02661293 -0.046487413 -0.05502006
-0.0067653004 -0.018304287 -0.06935735 0.074931614 0.05288409 0.04900237 -0.04594157 -0.065315515
0.06526819 0.004565506 0.14961393 0.061085526 -0.09989927 0.030465309 0.010174785 -0.094729476
0.12303133 0.024861958 0.15286276 0.05931356 0.05161953 0.11787504 -0.17563203 -0.04301708
0.028589392 0.025797745 0.017804807 -0.0120183965 -0.06160391 -0.0050900276 -0.13046926 -0.1322251
-0.018972287 0.0827788 0.13649091 -0.052284367 -0.54143107 -0.19791393 0.041279323 0.052959066
0.10973383 -0.19919069 -0.23282859 0.08496485 -0.009559355 0.1157864 -0.015690072 -0.0976652
-0.017411448 0.0868781 0.062970325 0.06068034 0.034772974 -0.034260795 -0.019164504 0.012322048
0.0075897295 -0.004409336 -0.047213342 -0.16177365 -0.20144877 -0.04006253 0.0044864495 -0.116800554
-0.28658926 -0.32321402 -0.22495471 -0.064496204 -0.09944998 -0.054364063 -0.1173324 -0.034789667
0.022952458 0.036495008 -0.0023626937 -0.017637264 0.022371128 -0.03456244

conv1.bias f4 [6]
00000000: 4586 aebd a474 92bd 9f29 26bf 2aa6 e0bd
00000010: 4952 24bf ecd0 a1bf
-0.08521704 -0.07151154 -0.6490726 -0.10969193 -0.6418806 -1.2641883

conv2.weight f4 [16, 6, 5, 5]
00000000: e5db 973e 975e 233e 5d7b b6bd e93f 85bd
00000010: 912c 5a3d 4f42 443e 33cf 893d ccfa 21bd
00000020: 353d fdbd b777 6ebd 7f64 b63d 1f7c c33c
00000030: cd1a 7b3d 163b d8bb b8d0 a7be a73a 4bbc
00000040: 0f9a da3d 7f90 c63d 5c09 e8bd 49a9 3e3c
00000050: 4ef2 82bd 510e 8dbd 7b00 34bc dcf2 17be
00000060: 4336 30be 7c50 513e d333 15be 1790 8a3e
00000070: 2a2d 1b3e d0f7 a0bf c2b2 4b3c 3f00 46be
00000080: 9983 2a3d 498d 94bd 6176 72bf 7cdb 713c
00000090: d698 84bd 4362 5abe 8393 213d 8b93 c0be
000000a0: fa3b 2cbd 9de3 a1bd 0519 4fbe 6958 29bd
000000b0: d325 b0be dc37 9dbd 131b 32be 027f 3e3d
000000c0: 8780 36be 1feb 40be 3644 aa3e 48a4 2f3e
000000d0: bc64 d03d 89e2 543e d540 ed3b f81c 1ebd
000000e0: 8185 c8bd 29fc 47be 8ead 4fbd 1c6f d9bd
000000f0: 74ef 1c3e c411 0a3e a44a 90bc 341e 883d
00000100: 1877 31be a3d8 4b3d 1694 613d 51bd 68be
00000110: 1223 d83d 0711 31bd 045f c7bd 49b0 1bbe
00000120: eb6a a9bd f755 013e f361 873d d937 fd3e
00000130: f924 7b3e 9077 213e b24f 70bd e457 d7be
00000140: 4027 883e 3864 943d 1817 15bd 5cb2 d43d
00000150: 2869 c8bd 760a 283e 8088 b33d 8806 bcbd
00000160: 4a10 b9bd 0596 22be 9265 8c39 6a32 8fbc
00000170: 7392 85be 3b8a c5bd d695 acbe 841d 0ebe
00000180: 459f 3abe 0fcc 3cbe fe50 0ebe 139d 5fbe
00000190: ac2c 8abe 343b 213e 276b 473e f852 893e
000001a0: aa7f 423d 7822 0bbe eb5b 44be a10b 80bb
000001b0: 2051 853e 0ff2 ad3d 20f1 6ebe bef8 d8bc
000001c0: eca9 20be 554e 303e 695f 8f3d 33fe 403d
000001d0: a872 b5bd 78ec 8b3d c2c7 053e f13b 643e
000001e0: e027 0b3e 7d73 353d 8caa 85bd ce11 99bc
000001f0: 3caf 083e ac87 c2be db42 92be 461c c8bd
00000200: e48f de3d 3c2a 973e d755 63bd 6689 43be
00000210: 7e37 bebd 01af 5d3e f088 cb3e 018a f0bd
00000220: 2b82 6abe f457 50be 8de8 793e 7d44 d53e
00000230: 1b8f 8cbe cb33 0abe b732 c63c 99b6 2a3e
00000240: ab5f 4d3e 0ad5 b2bc b152 013e 2204 223e
00000250: 523e 283e 18a2 3a3e aeac 953e 0a63 5e3e
00000260: dd72 573d 4f8d 95be 22fb 45be 2c79 743e
00000270: 0330 35be cb84 13be 634e 7bbe 91ba 3fbe
00000280: a8e6 d13d 36fa ed3d 1980 bfbd f101 59be
00000290: 5a2b 36bd 037f 323e a293 7d3e a30b 59bd
000002a0: c21e 74be 159c 413d a230 aebd 776d 04be
000002b0: 4790 4cbe 1279 75be 0910 4abe 7a8c 50be
000002c0: cc35 ecbd a12b a8be fecc a83c b2f0 73bd
000002d0: 9a10 16be 5270 103e 390d 6abe a05a cf3d
000002e0: 5ee6 dcbd dec9 8ebe 7710 1a3e 8ac6 0b3d
000002f0: 8b0f ac3d 2e9a c0be ebf6 f2bd 6a87 573d
00000300: f982 093d ba0f 503c 1a5f 90be 950e e13d
00000310: b39a 463e 8786 f13c dfd4 163d 43bd adbe
00000320: e8ca ad3c 033e 45be ead8 40bc 0979 983d
00000330: 1223 37be 15f5 21be 3792 0cbe 3cc6 523c
00000340: c256 e33b 41b0 e3bd 81b4 dbbd f5c4 e33d
00000350: 0409 343c bd86 f7bd 6610 cebd 108d babd
00000360: b90d 10bc 495f 08be 3c79 653d f321 f13a
00000370: a6c1 343e e106 2abd 5aa8 59be bda7 ccbd
00000380: 58db a2bd d801 27be 5c96 3fbe 6c21 473e
00000390: 4d17 03be f91f 38be 7765 7bbe 4124 95be
000003a0: 1f8f 2d3e 50cb 8bbe ac8c 90be 96c4 46be
000003b0: 7ad5 b2be 8995 3e3d 0b3e 1fbd bde7 a1be
000003c0: 7487 bdbe 6ca6 d93c 5d9e 953d 92ae c2bd
000003d0: b0ae f4be bd98 04be 7cf9 8bbe 8b98 79be
000003e0: d500 23be 6750 eabe ca66 4ebd 42a0 3a3d
000003f0: d899 b5be 63c4 d83d e902 a4bd 8c7c cdbd
0.29659954 0.15954052 -0.089102484 -0.065063305 0.053265158 0.1916592 0.06728973 -0.03954582
-0.1236519 -0.058219638 0.08905887 0.023862896 0.061304856 -0.0065988405 -0.32776427 -0.0124041205
0.106739156 0.09695529 -0.1132991 0.01163704 -0.06393872 -0.06887496 -0.010986443 -0.14838737
-0.17208199 0.20440859 -0.1457055 0.27063057 0.15153947 -1.2575626 0.012432756 -0.19336031
0.041629408 -0.072535105 -0.9471188 0.014761802 -0.06474464 -0.21326546 0.03944732 -0.37612566
-0.042049386 -0.07904742 -0.20224388 -0.04134408 -0.34403858 -0.0767667 -0.1739314 0.046507843
-0.17822467 -0.18839692 0.33255166 0.17152512 0.101754636 0.20789541 0.0072403946 -0.038601846
-0.09791089 -0.19529785 -0.050702624 -0.106168956 0.15325719 0.1348334 -0.017613716 0.06646386
-0.17330587 0.049767148 0.055072866 -0.22728468 0.10553564 -0.04322913 -0.0973492 -0.15203966
-0.08272346 0.12630449 0.06610479 0.4945667 0.24525823 0.15768266 -0.058669753 -0.42059243
0.26592445 0.07245678 -0.036398977 0.10385582 -0.09785682 0.1641024 0.0876627 -0.09180933
-0.0903631 -0.1587754 0.00026778557 -0.017480094 -0.26088294 -0.09645506 -0.33708066 -0.13878447
-0.18224819 -0.18437217 -0.13898084 -0.21837263 -0.26987207 0.1574524 0.19474469 0.26821113
0.04748503 -0.13587368 -0.19175689 -0.0039076363 0.26038456 0.08493435 -0.2333417 -0.026485797
-0.1568982 0.17217381 0.0700062 0.047117423 -0.088597596 0.06832212 0.13064483 0.22288491
0.1358943 0.04429959 -0.0652667 -0.018685248 0.13348097 -0.37994134 -0.28566632 -0.09771018
0.10867289 0.2952441 -0.055501785 -0.19095382 -0.09287928 0.2164879 0.39752913 -0.11745072
-0.22901218 -0.20346051 0.24405117 0.41653815 -0.2745293 -0.1349632 0.024194105 0.16671218
0.20056026 -0.0218301 0.126292 0.15821889 0.16430023 0.18225896 0.29233307 0.21717468
0.052599777 -0.29209372 -0.19334081 0.23874348 -0.17694096 -0.14406125 -0.24541621 -0.18723513
0.10249072 0.116199896 -0.093506046 -0.21192147 -0.044474937 0.17431264 0.24763349 -0.052989613
-0.23839858 0.047267992 -0.0850537 -0.12932383 -0.19976912 -0.23971966 -0.1973268 -0.20366088
-0.115336984 -0.32845786 0.02060556 -0.059555717 -0.1465477 0.14105347 -0.22856607 0.10124707
-0.107861266 -0.27888387 0.15045343 0.03412489 0.08401402 -0.3761763 -0.11863502 0.052619375
0.03357217 0.012699062 -0.28197557 0.109891094 0.1939495 0.029483093 0.036824103 -0.33933458
0.021214917 -0.19261937 -0.011770466 0.074449606 -0.17884472 -0.15816148 -0.13727652 0.012864646
0.0069378326 -0.11117602 -0.10727788 0.11121551 0.010988478 -0.12086246 -0.100617215 -0.09108937
-0.008792334 -0.13317598 0.05602382 0.0018396958 0.17651996 -0.041510466 -0.21255627 -0.09992931
-0.07951993 -0.16309297 -0.18709701 0.19446343 -0.12801857 -0.17980947 -0.24550425 -0.29129222
0.16949128 -0.27303553 -0.28232324 -0.19410929 -0.34928495 0.046529327 -0.03887753 -0.31622115
-0.37017405 0.026568614 0.07305596 -0.09505953 -0.47789526 -0.1294889 -0.2733878 -0.24374597
-0.15918286 -0.45764467 -0.050390996 0.04556299 -0.35468936 0.10584333 -0.080083676 -0.10033521

conv2.bias f4 [16]
00000000: 97ee 96be 7d71 0d3e 26f2 483e 3e70 30bf
00000010: 9d8c 63be e351 a13e e33d 663e b750 56be
00000020: 6cd9 c33d 2767 d2bd 3a53 233e 6689 b53d
00000030: e175 51be ac6d 4fbd 55a5 b3be 1f36 953d
-0.29478905 0.13812824 0.19623622 -0.6892127 -0.22221608 0.31507787 0.22484545 -0.20929228
0.09562954 -0.10273581 0.15949717 0.08864097 -0.20455123 -0.0506417 -0.35087076 0.072857134

fc1.weight f4 [120, 256]
00000000: ce07 1e3e 55e1 47bd b7c2 5dbe b474 9ebe
00000010: 25c1 603e 5441 af3d 27f4 0dbe 1dbf 69be
00000020: b30b ed3d 677a 7f3e 2f9f 40bd 0af5 d1be
00000030: 4db1 45bc 8e15 e1bc fdbe 67be 6d6c 27bf
00000040: 98e9 fb3d ec7c cd3c dd7f cc3d 5cab 33bd
00000050: 04bc f93e c72d 443d 08a2 163e 5952 c43e
00000060: 4ca0 a93e 9254 efbd 541c 193e 1553 b33e
00000070: 0a3b 7d3e c06a b83d 229b 753c be1a 413e
00000080: 567e 363e 86de dd3d 7b5c 363d d55e 48bd
00000090: 09f4 303e d5fa 2d3e 737f 743d 8335 22bd
000000a0: 835a af3c 5a8b 9cbd 34ff 23be f570 99bd
000000b0: 8402 823d 59d7 96be 486f 4ebe c0a5 88bd
000000c0: f11a 913e 85ba 74bd 8ab5 3ebe f375 3abe
000000d0: d5e1 aabe c209 ec3c 509a bbbe e721 87be
000000e0: b714 0fbe b568 9ebd c49d c3be 984c 21be
000000f0: e469 30be 5455 873e 2913 9ebe cb14 58be
00000100: c5c4 133d c563 ca3d 269e 13bd fa66 bfbe
00000110: 3c8a f4bd fc99 21bd de30 a0be 0686 64be
00000120: 1a08 7dbd 754c ad3d 3196 873e cc80 63be
00000130: c78a 843e 77b5 c63d 01e0 e53c 9310 893b
00000140: a094 f83d 3390 f73c 1e6d 8d3e 7491 ae3d
00000150: cbbc 683e 8430 81bd 1ad3 453d c6b9 9c3e
00000160: ee8f bc3d 2783 2dbc 9c40 7e3d b328 c43d
00000170: cf80 51bc 5395 023e 6841 b5bb 7a68 6cbd
00000180: 29b7 163e cbd2 053e cd8b edbd 4dbc 2b3e
00000190: 413d 96bc 5da6 d9ba 339c 69bc 6fc4 c73e
000001a0: 5fa3 62be f800 15bd 80b1 53bc d32b 4b3e
000001b0: c684 ca3d 10f7 fabc 8d98 8bbc c16a 82bd
000001c0: 3fd9 d4bd fb02 143d 7e31 dbbd 06b0 2cbe
000001d0: 2816 663d 1c79 84bd 8b23 223d 69b8 623d
000001e0: bbb6 bd3c 2910 6bbd 8d52 253e 05c8 a4bd
000001f0: edbd 88be 56c0 8fbd 4824 21bd ff20 173e
00000200: fc18 41bd 4f96 c53d 0671 e53d 741d 8a3e
00000210: ccf7 e7bd 804e fa3d e81f 743d 64ed ff3d
00000220: 5410 323e 4707 8bbd 50d4 7ebd f3c8 c23d
00000230: 6802 1c3e e884 44be 0f8a 1fbe 1f5d fd3d
00000240: 4fbe ca3c 0201 823d d06d 213e 9a8b 363b
00000250: 8dcc 883d 539e d23d e59c 303e dcde 19be
00000260: e19e 51bd 8a2e 823d 0bef 2b3b f9a4 21be
00000270: 7cc0 aebe 3645 81be fc5b 39be d9d4 223d
00000280: 6b71 f6bd 04ec 2c3e 63f1 613e a414 15be
00000290: b2bf 963d ba83 3cbd 4dde 893d f4a5 9a3e
000002a0: d88b 79bd 9c04 de3d 5f77 f13d 81d6 a2bd
000002b0: 63cf 2dbe 8469 b1bd f505 d5bc 0608 843e
000002c0: bb44 44be fc5b 14bd 620b 1abe bb4d 68be
000002d0: 2a1f d73d c3bc 6abe 379c 0dbb 58ad 973d
000002e0: 0ade 02be 9227 17be 60ba a13d c1bc a1bd
000002f0: ca45 d23d 949c 21bd 1129 31be 150d 38bd
00000300: 1f5d 5d3e 4f97 3dbe 1828 d0bb 5961 f6be
00000310: a9b0 353b 76d6 213d 9704 983d bd71 7bbe
00000320: dc8b b5bd fd19 fe3d 1010 00bd ed02 8abe
00000330: 724a 6b3e 6fd5 1ebe 909d ccbe 90e8 7cbe
00000340: 42ee 733e 6c0a 2e3e e9ac bb3d 6813 093c
00000350: a4f2 5b3e 303e 28bd aedc b83d 1216 3f3d
00000360: 085f 95bd e7d9 0ebd 3ce6 50bd abc1 87bd
00000370: 3140 1f3d ef94 1b3e d110 3d3e 985a 763d
00000380: f72e c1be 3101 93bd 8ed2 3c3d 096e 9d3d
00000390: 7ff9 85be e447 52bd 7881 543e e3a9 13bd
000003a0: 7f85 2bbe 4095 053e ea8c 9c3e e730 7d3e
000003b0: a31c 76bd 28b2 623e 3d15 063e cd69 43bd
000003c0: 3bf4 67be 43e7 d1bd 27e4 13be 7c91 27be
000003d0: f7ef 5fbe 1a1a 86bc dded 48bd 5edd 493d
000003e0: e990 31bc 0667 6dbe d4b8 1cbd dd17 72bc
000003f0: 3b47 84be e757 67be c035 0cbe 3d9f e5bd
0.15432665 -0.048798878 -0.21656309 -0.30948412 0.21948679 0.08557382 -0.13862668 -0.2282681
0.11574497 0.24949037 -0.04702681 -0.41007262 -0.012066198 -0.027476098 -0.2263145 -0.6539982
0.12300414 0.025083981 0.099853255 -0.043864593 0.48776257 0.04789522 0.14710248 0.38344076
0.3313011 -0.116860524 0.14952213 0.35024324 0.24729553 0.09004736 0.0149906 0.18857858
0.17821631 0.108334586 0.04452179 -0.048918564 0.17280592 0.16990216 0.059691858 -0.039601814
0.021405464 -0.07643767 -0.16015321 -0.07492248 0.06348136 -0.29461172 -0.20159638 -0.06672239
0.28340867 -0.05974819 -0.18623939 -0.18209057 -0.3337542 0.028813247 -0.3664117 -0.26393053
-0.13972746 -0.07734815 -0.38206303 -0.15751874 -0.17227894 0.26432288 -0.30873993 -0.21101682
0.036076326 0.09882311 -0.036039494 -0.37383252 -0.119404286 -0.03945349 -0.31287283 -0.22316751
-0.061775304 0.08461849 0.26481774 -0.22217101 0.2588713 0.097025804 0.028060915 0.004182884
0.12137723 0.030220127 0.27622312 0.08523837 0.22728269 -0.06308082 0.048297025 0.30610484
0.0920714 -0.010590351 0.062073335 0.09578075 -0.012787058 0.12752275 -0.0055314787 -0.057716824
0.14718308 0.13068692 -0.115989305 0.1677105 -0.018339755 -0.0016605366 -0.014258432 0.39017054
-0.22132634 -0.036377877 -0.012920737 0.19840936 0.09888606 -0.030635387 -0.017040515 -0.06368018
-0.10392999 0.036135655 -0.10702799 -0.16864023 0.056173474 -0.06468412 0.039584678 0.05535165
0.023158422 -0.05738846 0.16144772 -0.08045963 -0.26707402 -0.07019107 -0.03934124 0.14758681
-0.047142968 0.0964781 0.11203198 0.26975596 -0.113265604 0.12222004 0.05960074 0.124964505
0.17389041 -0.067884974 -0.062214196 0.09510984 0.15235293 -0.19191325 -0.15580009 0.12371277
0.02474895 0.063478485 0.15764546 0.0027854205 0.0667964 0.10284104 0.1724735 -0.1502642
-0.05117691 0.06356533 0.002623501 -0.15785588 -0.3413123 -0.25248116 -0.18101496 0.03975377
-0.120333515 0.16886908 0.22064738 -0.14558655 0.07360782 -0.04602406 0.06731854 0.30204737
-0.06092438 0.10840723 0.11790346 -0.079510696 -0.16973643 -0.08662704 -0.026003817 0.2578737
-0.19166844 -0.036220536 -0.15043405 -0.22685902 0.10503991 -0.2292357 -0.0021608004 0.074061096
-0.12780014 -0.14761189 0.07896876 -0.0789733 0.102672175 -0.039455965 -0.17300822 -0.04493435
0.21617554 -0.18514751 -0.006352436 -0.48121145 0.0027723706 0.039511167 0.074227504 -0.24555106
-0.08864567 0.124073006 -0.03126532 -0.26955357 0.22977617 -0.15511106 -0.3996396 -0.2469809
0.23821357 0.16996163 0.09163839 0.008366443 0.21479279 -0.04107493 0.09026466 0.046651907
-0.072935164 -0.034875777 -0.05100082 -0.06628736 0.038879577 0.15193532 0.18463446 0.06014499
-0.37731144 -0.071779616 0.046099238 0.07687003 -0.26166913 -0.05133809 0.20752513 -0.03605069
-0.16750143 0.13045216 0.3057626 0.24725686 -0.060085904 0.22138274 0.1309404 -0.04770832
-0.2265176 -0.10249188 -0.14442502 -0.16364092 -0.21868883 -0.016369868 -0.04905497 0.049283378
-0.010837772 -0.23183832 -0.038262203 -0.014776197 -0.25835595 -0.22592126 -0.13692379 -0.11212013

fc1.bias f4 [120]
00000000: 0e45 edbe 7ac7 b8bd 0ff5 97be 1699 88be
00000010: 2196 c6bd 0a8a b4be 9243 5fbd 937c 05be
00000020: 103e 0c3d 930a dabd 9cd7 02bd d190 4ebe
00000030: 348e 93be 4ed7 a33d fc9f b6bc 4d9b edbd
00000040: e14d 8dbd 06d3 c83e 0d97 02be a3d8 e7bd
00000050: 3815 cf3d 7b3a 843e 3569 b1bd 2512 4e3e
00000060: eb4d f23c 75c2 533e c072 7c3c 93df d8be
00000070: 0228 9bbe a5cf 913d 1d70 873e 0090 12bd
00000080: 4dda 9bbe e285 cdbe 49c3 04bf edea 093f
00000090: fcf6 dcbd 4d79 34be aa3d 61bd 2e9d 083d
000000a0: 33fa 0bbd 54dc afbd 1789 bebe 7cf0 5d3d
000000b0: dfe2 93be 0c39 29be a9cc 25bf ecb0 3e3c
000000c0: 4950 363d 756c 773e 3e27 57be 1a25 76bd
000000d0: b559 89bd 19ff b4bd 9bcf eb3e 49b8 41be
000000e0: 83f6 a7be 9a66 f03e fc15 38bd 12a2 2e3e
000000f0: 3fe7 f4bd 85e1 a2bd 501f e83d 082e eb3d
00000100: 5648 9439 394f 03bd 3338 dcbe 2ec8 8abd
00000110: eef9 79bd be05 13be 01d1 7fbd 2597 7fbe
00000120: bcb8 3fbf cf4c f6be 93fd 3c3e b325 ac3e
00000130: a471 b2bd 3fd2 25be c18c 1a3e 8747 05be
00000140: 93db 8fbd 4bb9 d73d d716 b8bd 7834 66bd
00000150: 2913 09bf e552 66be ba13 c93e d689 4fbe
00000160: daf6 81bd 6068 c03d 708e 8abe 7bcb 16bf
00000170: 2070 033e ff69 35be 3670 28be 2e22 9abe
00000180: 685e c3b9 186b b6be 81f6 c03d da4c 92bd
00000190: 8919 09be d102 c7bd 0d1b 41bd e9d6 47bd
000001a0: 68bb b7be 4ad5 80bd 20eb 373b 75ef d33d
000001b0: c32e dfbd f32e 3bbc d0d4 08be 01e2 dabd
000001c0: 2612 8c3e e9ab 1cbd 6425 703e e2d5 53bd
000001d0: 2026 28be 215e 13bd 36fd 70be c9a2 febc
-0.46341747 -0.09022422 -0.29679152 -0.26679295 -0.096966036 -0.35261565 -0.0545078 -0.13035803
0.034238875 -0.10646548 -0.031943902 -0.2017243 -0.2881943 0.080000505 -0.022293083 -0.11601887
-0.0689962 0.39223498 -0.12752934 -0.11320617 0.10111469 0.25825867 -0.08662645 0.20124109
0.02957817 0.20679648 0.015408218 -0.42358074 -0.3030396 0.07119683 0.26452723 -0.03578186
-0.30439988 -0.40141207 -0.5186048 0.53874093 -0.10789296 -0.17624398 -0.054990448 0.033353023
-0.034174155 -0.08586946 -0.37213966 0.054184422 -0.28884026 -0.16525668 -0.6476541 0.011638861
0.04451016 0.24162467 -0.21011063 -0.060093977 -0.067065634 -0.088377185 0.46056828 -0.18917955
-0.3280526 0.4695328 -0.04494284 0.17054012 -0.11958169 -0.07953171 0.113340974 0.11483389
0.00028282654 -0.032057974 -0.43011627 -0.067764625 -0.061029367 -0.14357659 -0.06245518 -0.24960001
-0.7489126 -0.48105475 0.18456106 0.33622512 -0.087130815 -0.16193484 0.15092756 -0.13015567
-0.07024302 0.10533389 -0.08988731 -0.05620238 -0.5354486 -0.22492559 0.39272863 -0.20267424
-0.06345911 0.09394908 -0.27061796 -0.58904237 0.12835741 -0.17716216 -0.16449055 -0.30104202
-0.00037263636 -0.3562858 0.09422017 -0.071435645 -0.13388647 -0.09717334 -0.04714494 -0.04878894
-0.35885167 -0.06290682 0.002806373 0.10348407 -0.10897591 -0.011424768 -0.13362432 -0.10687638
0.27357596 -0.038249884 0.23451763 -0.051717646 -0.16420794 -0.03597844 -0.23534092 -0.031083481

fc2.weight f4 [84, 120]
00000000: abfd 2ebc ebc4 88bd c9fa c63d 8f7d a93e
00000010: 4a9a 883d ea3f b23e f4ff 46be 8899 df3d
00000020: f136 143e 560b 773e 4ebc 9fbb ab76 1c3e
00000030: 7cb1 fdbd c08a 1dbe dfa4 b3bc b84d 0f3c
00000040: bd17 8c3e 8b42 1dbf bf52 c63e de84 00bc
00000050: c9b3 8d3b 9891 97be 7a9b 83be 28da 6c3e
00000060: a05d e2bd ff73 89be 4b1c 9ebd 48f5 a83e
00000070: 36e2 cb3e be09 14be 694e 66be 3d26 be3c
00000080: 9606 ea3c fce2 6f3e ee73 d03d 137e ffbe
00000090: b98b 9a3c 79d3 98bd be75 9f3d 9d95 a83e
000000a0: d10f ae3d c082 6fbe f604 893d 26c6 023e
000000b0: 4ac1 d0bb 00b7 9e3e 32df a23d b46a 95bd
000000c0: 91ae bbbd 62f2 24bf 8f26 83bd 9377 8dbd
000000d0: 3ec0 a63e 2cb2 69be 9f7d 163e 0738 9c3e
000000e0: 7a7f 043e 4f0e b4bd a234 4cbe 575e b2be
000000f0: b153 78bd e657 9fbd a453 fd3e cbeb 7d3e
00000100: 766f 65be 55db f5bc c641 cb3e 1983 6fbe
00000110: 8b7b d03d c828 113e a7b2 153d d490 793e
00000120: 6042 7c3e 4322 a43e 6c9b 09bd c54a 3a3e
00000130: 5c64 173e 7cd2 323d f0c3 50bd 11e7 a13e
00000140: e476 b5bb be7e f23c 6f9e dd3d 189a f33c
00000150: f39b 7b3e 8beb 5a3f fc62 023e c2c7 18bd
00000160: eb67 f73c 4ace 833e 3859 853e fbf4 0f3e
00000170: 559f 3fbd c113 67bd caf4 c83d af0f 043e
00000180: b4c0 19be 854b 863e afe0 9abe 2aa5 e0be
00000190: 1c47 83bc 2d45 773d 8918 d03d 38cf b43e
000001a0: 7c8a 0b3e 0192 813d fa7e 603e 341c 523e
000001b0: 473d cf3c bbd4 563e 88ad e7bd 0d3f 4dbc
000001c0: 88a9 e13d d9b9 073e 3e07 ee3d 20d9 c9bb
000001d0: ea90 043e c402 78bd b08c 5a3e e5b8 c33c
000001e0: ae25 e9bc 6dc6 69bb 9915 19bd cbdf 583e
000001f0: 21a9 943c 7ead fc3e 2998 023e 1e77 3cbe
00000200: ba5b b0be 449a 75be c5c0 ee3e 6a7c 643e
00000210: 0bfe bc3d aa31 d8bd 23ef b73e 10c4 483c
00000220: c37d 513e 02e0 d9bd 2caf 963d aaeb f83b
00000230: 74e7 833e 6fb3 113e 20c6 643e 391d 793d
00000240: d266 9abd 9fbf 263e 8b1f 1dbd b52b 7a3e
00000250: 3652 82be b3b1 323e 4636 80be 914a 663e
00000260: 0502 99bd 4b0e 643e d78d ed3d 8e4c 44be
00000270: 4d63 45bc 8929 3a3d fc44 d8bc 0818 573e
00000280: 4699 dabd 2644 b03e 3ec7 edbd 923f 883d
00000290: fcaf 4e3e f7b0 8c3e 3754 843e 0a26 c8bd
000002a0: 4b16 7a3b e508 27bc aa98 07bd 0a9c a3bd
000002b0: 3d62 0b3d d2f9 38be 4631 293e 7599 023f
000002c0: 2618 95be 374d 88be bb9d 483e 92d9 083d
000002d0: 5c2c 8b3e c917 fb3c c6e1 743d 5a45 b9be
000002e0: 4330 8cbe 74ad 8dbd 2735 043e 43c8 12bd
000002f0: 2ff2 10bd c8d1 793e 12a2 c4be 4cff b4bd
00000300: 7e41 353e 03a1 0abd d9ba ad3e dc07 adbd
00000310: 39d1 18be c54a 193d 2acf ea3e 758d 6c3d
00000320: 1cc8 d83d b6eb e2bd 3a36 983e 1f82 2abd
00000330: 6ceb 073d 0b36 cb3e b29e 523e 6f0a c7bd
00000340: d500 22bc 44b6 4cbd cd1c a0be f2bb 613e
00000350: 8ec0 01be 2d5d 0b3e bcb1 f13b a26a d3bc
00000360: b911 a03e 70ff 003f ae14 7cbe c050 353e
00000370: 3930 9dbc 662f a03d 3c70 0aba 7d7e 65bd
00000380: b05a 243e c8b5 dabd 330f bb3e b32a a5be
00000390: c08f bdbb 3697 d23d c225 81bd 17c7 88bb
000003a0: 6af2 8d3e 6c38 9ebd 8e57 923e 7e4b 1bbd
000003b0: a77e 993c 0e2a 843d 782d ab3e d80e 593d
000003c0: a79b 8fbe 0b23 993d 96a1 0dbe 3591 95be
000003d0: 16d3 9f3d 2f34 a93e eb36 c93c 4948 a43e
000003e0: da07 253e 5571 473c d221 26be 9bff 2f3d
000003f0: 3e86 d73d 7b4c f5bd 42f0 873d ac1d a53d
-0.010680596 -0.06678184 0.09715802 0.33103606 0.06670053 0.34814388 -0.19433576 0.10917956
0.14474083 0.24125418 -0.0048747426 0.15279643 -0.12387368 -0.1538496 -0.021929203 0.008746557
0.2736186 -0.6142966 0.38735005 -0.007844178 0.0043244106 -0.29603267 -0.25704557 0.23130095
-0.11053014 -0.2684631 -0.0772024 0.32999635 0.39821023 -0.14456841 -0.22490849 0.023211593
0.028567594 0.23426431 0.10178362 -0.49900874 0.018865453 -0.0746221 0.077861294 0.32926646
0.084991105 -0.23389721 0.06690399 0.127709 -0.006370698 0.30998993 0.079527274 -0.07295743
-0.09164155 -0.64432347 -0.06403839 -0.069075726 0.32568544 -0.22821873 0.14696358 0.30511495
0.12939253 -0.08791792 -0.19941953 -0.348376 -0.06062669 -0.07780437 0.49477875 0.24796979
-0.224058 -0.030011812 0.3969862 -0.23389854 0.10179814 0.14175713 0.03654733 0.24371654
0.24634695 0.3205739 -0.033595487 0.18192585 0.14784378 0.043657765 -0.05096811 0.31621602
-0.0055378545 0.029601451 0.108212344 0.029736564 0.24571209 0.8551566 0.12733072 -0.03729988
0.03020092 0.25743324 0.2604463 0.14058296 -0.04678281 -0.056415323 0.09812315 0.12896608
-0.15014917 0.26229492 -0.30249545 -0.4387601 -0.016025119 0.060368706 0.1016093 0.35314345
0.13627046 0.06326676 0.21923438 0.20518571 0.025297774 0.20979588 -0.11312395 -0.0125272395
0.11018664 0.13254489 0.11622475 -0.0061599165 0.12945905 -0.060549513 0.2134273 0.023891876
-0.02846035 -0.003567125 -0.037374113 0.2117912 0.018147053 0.49351114 0.12753357 -0.18404815
-0.34444982 -0.23984629 0.46631446 0.22313085 0.09228142 -0.10556348 0.35924634 0.012253776
0.2045813 -0.10638429 0.0735763 0.0075964527 0.25762522 0.14228605 0.22341204 0.060818885
-0.07539143 0.16284035 -0.03836016 0.24430735 -0.25453347 0.174506 -0.25041407 0.22489382
-0.07471088 0.22271077 0.115993194 -0.19169828 -0.012047601 0.045449767 -0.026400082 0.21005261
-0.10673766 0.34426993 -0.11610268 0.0665275 0.2018432 0.27478763 0.258455 -0.097728804
0.003816026 -0.010194992 -0.033104576 -0.079887465 0.034029234 -0.18064049 0.16522703 0.51015407
-0.29119986 -0.2662141 0.1959142 0.033410616 0.2718228 0.03065099 0.059785627 -0.36185724
-0.2738057 -0.06917849 0.12910901 -0.035835516 -0.035387214 0.24396431 -0.384049 -0.088377565
0.17700765 -0.03384496 0.33931616 -0.08448765 -0.14923562 0.03742482 0.4586118 0.05775209
0.10585043 -0.110801145 0.29728872 -0.041628 0.0331835 0.3968967 0.2056835 -0.09718787
-0.009887894 -0.04997851 -0.31271973 0.22044352 -0.1267111 0.13609762 0.007375924 -0.025807682
0.3126352 0.50389767 -0.24617264 0.17706585 -0.019188033 0.078215405 -0.00052810065 -0.05602883
0.1605022 -0.10679203 0.36535034 -0.3225914 -0.0057849586 0.102827474 -0.0630603 -0.004174124
0.2772401 -0.07725605 0.28582424 -0.03791379 0.01873715 0.06453334 0.33433127 0.05299267
-0.2804844 0.07477387 -0.13831171 -0.29212347 0.07803933 0.33047625 0.02456232 0.320864
0.16116276 0.012173017 -0.16223839 0.042968374 0.105236515 -0.11977478 0.066376224 0.080623

fc2.bias f4 [84]
00000000: 9d0d 19be 5483 b4be edaf a83e 1004 843d
00000010: ba34 d3bc 66b7 093e 6474 b6bd 6dcd 8dbe
00000020: 9269 333e 2159 963d fb61 07bf 9b60 49be
00000030: 33c0 97be bd28 48bd fe91 3abe 75d6 8fbe
00000040: 903a acbe f9fb 4bbd 889b 433e 4023 b7bd
00000050: 248d 2cbe 1fc9 d2be eba0 f0bc 8089 1b3e
00000060: 4a29 34bf 2368 e2bd 1187 f2bd 3b9a cebe
00000070: 530a e33d 0af5 38be 0aa8 46be e9cf 7cbd
00000080: 0292 ec3d 17e1 88bb 6a74 0abf 2d10 1dbe
00000090: 07e5 cd3e 81c7 a1be 14cf 193e 193a 9ebd
000000a0: ef3c be3d d32d efbe df95 bebe 296e 5f3d
000000b0: c63e 023e 6935 843d ced4 973e 5db2 523c
000000c0: c77f a5be f890 f1bd b11a e5bd 34d6 3ebe
000000d0: 0673 4fbe 6c85 84bd fce8 4cbe 1afa c33d
000000e0: a503 a83c 3f1e 173e d8c8 963d 2aca 523e
000000f0: 7259 a2be fdc2 7fbe 0ff9 143e 1821 c03d
00000100: eb3e 91be 7abf 45be 9c61 2d3e 7d1f f33c
00000110: 627e 553e 2d1e 9dbe 6edc 2ebc 7d33 023e
00000120: 82ea f73d 8371 95be e839 673e 45af 70be
00000130: 920f 01bf a3d3 f13d 104d 4dbe 6a24 463e
00000140: ce24 05be efc0 af3d e7fd 623e b309 c63d
-0.149466 -0.35256445 0.3294672 0.06446087 -0.025781978 0.13448867 -0.089089185 -0.2769579
0.1752074 0.07341219 -0.5288388 -0.19665758 -0.29638824 -0.048866976 -0.18219754 -0.28093305
-0.3363843 -0.049800847 0.19102299 -0.0894227 -0.16850716 -0.41169068 -0.029373607 0.15189171
-0.703755 -0.11055019 -0.11842168 -0.40352044 0.110859536 -0.18062225 -0.1940004 -0.061721716
0.11551286 -0.0041772234 -0.54083884 -0.15338202 0.40213796 -0.31597522 0.150204 -0.07725925
0.09288966 -0.4671465 -0.37223718 0.054548416 0.12719259 0.064555 0.29654545 0.012859908
-0.3232405 -0.11795229 -0.111867316 -0.186364 -0.20258722 -0.06470761 -0.20010751 0.095691875
0.02050955 0.14757632 0.07362527 0.20584932 -0.31708866 -0.24976726 0.14548133 0.09381312
-0.28368315 -0.19311324 0.16931766 0.0296781 0.20848992 -0.30687085 -0.010672672 0.12714954
0.12105276 -0.29188165 0.22580683 -0.2350436 -0.50414383 0.118079446 -0.20048928 0.19349828
-0.13002321 0.08581721 0.22167169 0.09669819

fc3.weight f4 [10, 84]
00000000: 2377 90be 67c8 d1be 2620 76bb ca67 d8be
00000010: 10fd 93be d240 3dbd 9a71 a5bd cfba 0cbf
00000020: 0bcc 9cbe 79c8 a8be 1750 dabe d97f 49bd
00000030: 0960 d13c b7cc 8abd 92a4 15bf a947 27bf
00000040: 68fa 19bf 416f 953d ccea 58be 1bc4 53be
00000050: 8415 c13c ef17 e7be ce9c 553d ca48 1d3d
00000060: 6867 37bc 7330 b9bd 4b45 dabe c444 18bf
00000070: 54cc 2dbe 5e35 2f3d 0cfc 74bc ad2a d9bd
00000080: affb 92bc 048c 443c f11b a2be b60d 9dbe
00000090: 9011 47be 1cb9 48bf 9822 173e 2fd7 8bbe
000000a0: 409e 903b d3ee 57be 8179 20bf 7eb1 743d
000000b0: b124 c6bd 1501 ebbd bb88 a83c cbea 81be
000000c0: 56f6 e0be 0e5b f9be 62f6 4f3d ab2c 75bc
000000d0: f006 b1be 9a95 79be f1d3 773d f90d b3be
000000e0: 8570 0abf 7d04 163e a345 b3be 389e 19bd
000000f0: 1cfb eabe a6de b8be a57b 0b3d 5b97 25be
00000100: 5cb3 86bd 73fe 8abe d5f6 b53b 42ac c43d
00000110: 270d 3abe 0d64 91be 4466 2cbe bfe8 9f3b
00000120: 920e b3be 9cb0 8ebc 7dcc c9bd 23a9 64be
00000130: 6a40 14bf 96cd 013e fb5f 01bf c7cd 89be
00000140: 02a5 70be 7a85 a9bb 1279 a13d 64a8 02bf
00000150: 43c5 06be 5487 babd 89bb eb3d 8995 86bf
00000160: 634d 4d3d 82f1 24bd 7840 01be 1718 c4bc
00000170: 29d2 35bf fce5 77bf 9040 7bbe a056 7ebf
00000180: e689 31bf 6c33 2abf ea94 68bf edaa 3ebf
00000190: 1778 cdbd 1b62 f7bd 7b2e 433c 5380 28bf
000001a0: e339 493d 5fc7 7bbd 205a 81be 75e1 9ebe
000001b0: 6714 0cbf c0b7 5bbe bbf9 40bf 4405 1abf
000001c0: c745 cc3d 6818 b3be 7ea7 75bd 7f06 1abf
000001d0: 7645 16bf ceb7 a7bd d81f a8bd 7790 53bf
000001e0: a761 b6bd 0acf b4be f178 02bd d288 8ebe
000001f0: 573b e1be f1f2 733d 7f95 30be 4f18 fbbe
00000200: a9de 37bf 90ec 2cbd 8ef0 ea3d fd1c 0cbe
00000210: 14f0 08be 7db9 aebd ad33 abbe 582d 8ebd
00000220: d6a7 8bbe 0891 a4bf 3dcf 31bf 4491 b33c
00000230: 3713 88bf 1dd8 50bf 072a a3be 26c8 b83b
00000240: c1ab 12bd a385 9fbf b756 903d 5e56 91be
00000250: b93d dbbd b74b 81bf 4c45 f7bd cbda 9dbf
00000260: 3191 89bf 4830 dcbc a164 873d 61e2 47be
00000270: 2772 0bbe 347d 16bf 4c37 b43d 3d08 243d
00000280: bf25 10be 5037 0abf 1edf 51be 1091 2fbe
00000290: d6e2 74bd c9be f2be 7d38 febe c8b3 e0be
000002a0: ed95 c2be 34c9 acbd d906 d33b 2dda a5be
000002b0: 9603 e3be 2b2d ef3a 027a 61be 65b6 b1be
000002c0: 9990 bb3d 4ff0 29bd 6fe2 41be 90ff 09bf
000002d0: 608b 883d 3b5b e5bc 2983 12bf 11e5 b6be
000002e0: a4a6 c7be 9949 66bd c443 68bf 287c bfbe
000002f0: 6be6 d3be b913 cfbe 792a 76be bc46 093e
00000300: 2ba0 83be ccff 563d a27f 2f3d c97f e9bb
00000310: 6277 3ebe ed22 bebe 5af3 3dbe e92a d5bd
00000320: 4862 7ebd cd00 05bf 8089 95be 0704 8fbc
00000330: 28a5 b23d c672 58bf 784a 7abe c6c7 6ebf
00000340: 697a 903c fd3a 3fbe 7f64 44bf 8ce3 ee3d
00000350: 7000 a8be 6c56 fbbb 6091 8ebe 021f 63bd
00000360: 2a7b 84be 9688 ddbe 1823 0bbf e83f b83c
00000370: a464 0dbc 8cc3 16bf f917 08bf c97f d93d
00000380: 0edd 90bf ce41 203e 22bd eb3d 3f9a 6dbe
00000390: 31e7 06bf ec87 b23d 12c7 9abe 255d 033e
000003a0: 17c1 90bc 7af3 2dbf 747c d5bd 9d53 023e
000003b0: 66df 67be ed72 fabe cdb5 83bd 27b9 06bf
000003c0: 3694 7fba 7c4f 20bf 960c 9bbe 4e4a 9bbc
000003d0: eba6 4dbf d099 afbd 5429 6ebd 9d8c edbe
000003e0: 0a4d 9abe 0068 183d 5c15 343e 15ce 37bf
000003f0: ba7e 9dbd 09d3 26bf fca5 ad3d 5b09 39bf
-0.28215894 -0.40973207 -0.0037555783 -0.42266685 -0.2890401 -0.046204396 -0.080783084 -0.5497255
-0.30624422 -0.32965448 -0.4263923 -0.04919419 0.025558488 -0.067773275 -0.5845424 -0.6534372
-0.60147715 0.072966106 -0.21183318 -0.20680277 0.02356983 -0.45135447 0.052151494 0.038399495
-0.011194088 -0.09042444 -0.4263099 -0.5947993 -0.16972476 0.042775504 -0.014952671 -0.10603843
-0.017942278 0.011996273 -0.31661943 -0.30674523 -0.19440293 -0.78407454 0.1475929 -0.2731261
0.004413396 -0.21087198 -0.626854 0.059739582 -0.09674967 -0.11474816 0.02057301 -0.25374445
-0.4393794 -0.48702282 0.05077208 -0.014964263 -0.34575605 -0.24373475 0.060504857 -0.34971598
-0.5407794 0.1465015 -0.35014066 -0.037504405 -0.45894706 -0.36107367 0.034053463 -0.16171019
-0.06577179 -0.27147254 0.0055531063 0.09603168 -0.1816908 -0.28396645 -0.16835886 0.0048800404
-0.34972054 -0.017418198 -0.09853456 -0.22330146 -0.5791079 0.12676081 -0.5053708 -0.26914808
-0.23500445 -0.0051733823 0.078844205 -0.51038194 -0.13161187 -0.09107843 0.11510379 -1.0514385
0.05012263 -0.040269382 -0.12622249 -0.023937268 -0.71023804 -0.96835303 -0.24536347 -0.9935093
-0.6935104 -0.66484714 -0.90852225 -0.7447956 -0.10032671 -0.12079259 0.011912937 -0.6582081
0.04912747 -0.061469432 -0.25264072 -0.31031385 -0.5471863 -0.21456814 -0.7538106 -0.60164285
0.099742465 -0.34979558 -0.059974186 -0.6016616 -0.5869974 -0.08189355 -0.08209199 -0.8264231
-0.089053445 -0.35314208 -0.03185362 -0.2783876 -0.43990585 0.05955786 -0.17244528 -0.49041983
-0.7182413 -0.04221779 0.114716634 -0.13682933 -0.13372833 -0.08531473 -0.33437863 -0.069422424
-0.27276486 -1.285676 -0.69456846 0.021919854 -1.0630864 -0.8157976 -0.31868002 0.005639094
-0.03580833 -1.2462658 0.070477895 -0.28386205 -0.10705132 -1.0101231 -0.12073764 -1.2332395
-1.0747434 -0.026878491 0.0661099 -0.1951995 -0.13617764 -0.58784795 0.087996095 0.04004692
-0.14076899 -0.5399065 -0.20495269 -0.1714518 -0.05978664 -0.47411183 -0.49652472 -0.43887162
-0.3800501 -0.08436814 0.0064400253 -0.32393017 -0.44338673 0.0018247714 -0.22019199 -0.34709468
0.09158439 -0.04148894 -0.18934034 -0.5390558 0.06667209 -0.027997604 -0.57231385 -0.3572164
-0.38994324 -0.056222532 -0.907284 -0.3739941 -0.41386732 -0.40444735 -0.2403964 0.1340589
-0.25708136 0.05249004 0.04284633 -0.007125829 -0.18600228 -0.3713602 -0.18549863 -0.10408575
-0.062105447 -0.51954347 -0.29206467 -0.017457975 0.08722907 -0.8455013 -0.2444247 -0.9327358
0.017636495 -0.18674846 -0.76715845 0.11664495 -0.32812834 -0.0076702144 -0.27845287 -0.055449493
-0.25875217 -0.4326827 -0.54350424 0.02249141 -0.008629952 -0.5889213 -0.5316158 0.10620076
-1.131746 0.15650102 0.115106836 -0.23203371 -0.5269652 0.08717331 -0.30230004 0.128285
-0.017670197 -0.6794964 -0.10424128 0.12727208 -0.22643813 -0.48915806 -0.0643116 -0.5262627
-0.0009749563 -0.62621284 -0.3028304 -0.01895633 -0.8033282 -0.08574259 -0.058144882 -0.46396342
-0.301369 0.037208557 0.17586273 -0.7179883 -0.07690187 -0.65165764 0.08478925 -0.722799

fc3.bias f4 [10]
00000000: e79e 24be 7f10 01bf 3570 d03c 3022 083e
00000010: de01 abbd 6881 95bc bddd 2f3e 6410 f53c
00000020: 9560 003e 4edc ccbe
-0.16076241 -0.50415796 0.02544413 0.13294291 -0.083499655 -0.018250182 0.1717443 0.029915042
0.12536843 -0.4001183
