fashionmnist_net_adam_hf_4.pth (torch, 181075 bytes, 10 tensors)

conv1.weight f4 [6, 1, 5, 5]
0	0xbec56c1a	-0.38559037
1	0xbe9d799f	-0.30756852
2	0xbddd6367	-0.10809975
3	0x3ca59292	0.020211492
4	0xbc79a977	-0.0152381575
5	0xbedb68f6	-0.42853516
6	0xbe7fd305	-0.24982841
7	0x3d935690	0.07194245
8	0x3d41cd6e	0.047315054
9	0x3e04e843	0.12979226
10	0xbe0ce7e6	-0.13760337
11	0xbc3cd86e	-0.01152621
12	0x3cae906c	0.0213091
13	0xbde1b37a	-0.110205606
14	0x3e3ad99d	0.18247075
15	0x3c8eddc6	0.017439734
16	0x3d6225f9	0.055211995
17	0x3d2f9d7e	0.042874806
18	0x3e242959	0.16031398
19	0x3d88d7f7	0.06681817
20	0xbc96e175	-0.018418053
21	0x3dd4e591	0.10395349
22	0x3de66f67	0.11251717
23	0x3dd0ea9e	0.10201
24	0x3d02ef83	0.031966697
25	0xbb9ceb51	-0.004788794
26	0xbaeed015	-0.0018219972
27	0x3ba0710a	0.004896288
28	0x3d2b3c87	0.04180577
29	0x3d767bf1	0.060176793
30	0xbd1caad3	-0.03824885
31	0x3dba3be1	0.09093452
32	0x3d0489d5	0.03235801
33	0x3d518d06	0.05115988
34	0x3d3c922f	0.04603785
35	0xbe47bcca	-0.19505611
36	0x3e393557	0.18086754
37	0x3ea3e0d8	0.3200748
38	0xbe75d1b5	-0.24005778
39	0xbdce666d	-0.1007813
40	0xbcfbcfa5	-0.030738661
41	0x3e0cdf76	0.13757119
42	0x3ee13ee1	0.43993285
43	0xbf14a5a8	-0.5806527
44	0xbd505c3b	-0.050869208
45	0xbd5a4767	-0.05329075
46	0x3e6a34b7	0.22871672
47	0x3e8e8070	0.27832365
48	0xbecc2219	-0.39869764
49	0xbda74f84	-0.08169463
50	0x3ca11ac3	0.019666081
51	0xbca1634a	-0.019700665
52	0x3d59d384	0.053180233
53	0xbc012703	-0.007882836
54	0x3d8850a0	0.06656003
55	0x3d8a2fdc	0.0674741
56	0xbdc1a394	-0.09455028
57	0xbe31f19a	-0.1737732
58	0x3e521ef5	0.20519622
59	0x3e8169c4	0.25276005
60	0x3e050725	0.12991007
61	0xbe831631	-0.25602868
62	0xbea27a26	-0.31733817
63	0x3e9c418d	0.3051876
64	0x3e91a9b1	0.28449777
65	0x3d755a58	0.05990061
66	0xbec0b59e	-0.37638563
67	0xbe80d89f	-0.2516527
68	0x3e20f653	0.15718965
69	0x3e666fd6	0.225036
70	0xbe310226	-0.17285976
71	0xbe0512b1	-0.12995411
72	0x3d09f68f	0.033682402
73	0x3cd0413b	0.02542173
74	0x3ab6614c	0.0013914495
75	0xbd5f9ef9	-0.054594968
76	0x3c940664	0.018069454
77	0xbb8485be	-0.0040442636
78	0x3d980bb4	0.07424107
79	0x3da6e2f2	0.08148755
80	0xbdcd2cec	-0.10018334
81	0xbd0badd2	-0.034101315
82	0x3c1d7dd3	0.009612518
83	0x3ca00be6	0.019536924
84	0x3e3b33f0	0.18281531
85	0xbe4cce29	-0.20000519
86	0x3bf7f5ea	0.007567157
87	0x3df43323	0.11923816
88	0x3d7ae09f	0.06124937
89	0xbdc5ee96	-0.09664647
90	0x3e179f25	0.14806803
91	0xbdc2a615	-0.09504334
92	0x3d94a87c	0.07258698
93	0x3e2b9cb4	0.16758996
94	0x3e51d493	0.20491247
95	0xbda59ace	-0.08086167
96	0x3d9c46db	0.07630702
97	0x3d44a0de	0.048004977
98	0xbb1bd9e9	-0.0023781008
99	0xbd883824	-0.06651333
100	0x3c1dc518	0.00962951
101	0x3d97b49a	0.07407494
102	0xbe1b8936	-0.1518906
103	0xbe8c7593	-0.27433452
104	0x3ced0f46	0.028937947
105	0x3d71c079	0.059021447
106	0x3dc97e3d	0.09838531
107	0x3cb46a83	0.022023445
108	0xbe0a838c	-0.13526744
109	0xbe85a165	-0.26099697
110	0x3e06731a	0.13129845
111	0x3e1276c9	0.14303125
112	0x3af52f1f	0.001870606
113	0x3dd46d73	0.10372438
114	0xbed91fd1	-0.42407086
115	0x3ccbadba	0.024863113
116	0xbc812f95	-0.01576976
117	0x3e059365	0.13044508
118	0x3e344ef2	0.1760824
119	0xbe33e986	-0.17569551
120	0x3e2caa35	0.16861804
121	0x3c192e0c	0.009349357
122	0x3e0f3a39	0.13987054
123	0x3d7c806c	0.06164591
124	0xbb9565ac	-0.0045592394
125	0x3d0e1dc6	0.034696363
126	0x3c63533b	0.013874824
127	0x3d8f7b34	0.07005921
128	0x3dbe53b6	0.0929331
129	0x3d049466	0.032368086
130	0xbc03bd7d	-0.008040783
131	0xbe1839d0	-0.14865804
132	0xbe8043dc	-0.25051773
133	0xbda9921a	-0.0827982
134	0xbdee7b23	-0.1164458
135	0xbdcbc36b	-0.099493824
136	0xbe347e77	-0.17626368
137	0xbeaca0e1	-0.3371649
138	0xbec8f1d9	-0.39247015
139	0xbe37f890	-0.17965913
140	0x3d567f6f	0.052367624
141	0x3d4de3c3	0.05026604
142	0xbdbee680	-0.09321308
143	0xbcc76e9d	-0.024344737
144	0x3950ce25	0.0001991322
145	0x393326c2	0.00017085209
146	0xbdb75eb5	-0.08953611
147	0x3d623ec2	0.05523563
148	0x3d508d84	0.05091621
149	0xbd1de90c	-0.03855233

conv1.bias f4 [6]
0	0xbf257fb1	-0.64647967
1	0xbcfc08f9	-0.030765997
2	0xbcfa4f5f	-0.030555425
3	0xbd01fb8d	-0.03173404
4	0xbe971949	-0.2951148
5	0xbf800a00	-1.0003052

conv2.weight f4 [16, 6, 5, 5]
0	0xbf33f620	-0.7029743
1	0xbee2adfa	-0.4427336
2	0xbe990693	-0.29887828
3	0xbe967480	-0.29385757
4	0xbe0953d8	-0.1341089
5	0xbe8fd33c	-0.28090847
6	0xbc61ee22	-0.013789685
7	0x3d6fc9f6	0.058542214
8	0xbc7329ab	-0.014841477
9	0x3e00aaf4	0.12565213
10	0x3e3aa7c3	0.18228059
11	0x3e121dff	0.14269255
12	0x3db8b3bf	0.09018659
13	0x3ab69dc1	0.0013932512
14	0x3d8e3c4f	0.06945097
15	0xbe3a3121	-0.18182804
16	0x3ca5294e	0.020161297
17	0x3e887974	0.2665516
18	0x3dbd0e03	0.09231188
19	0x3da55ccf	0.080743425
20	0xbe2fafba	-0.17156878
21	0xbd6ab49c	-0.05730115
22	0xbd87b4b3	-0.066262625
23	0xbd8c4e4c	-0.068508714
24	0x3e62ae1e	0.22136733
25	0xbe36b097	-0.17840801
26	0xbc4a2995	-0.0123390155
27	0xbd5cc334	-0.053897098
28	0xbe68ae6d	-0.22722788
29	0xbeb2c7f4	-0.34918177
30	0x3c17b370	0.00925909
31	0x3e62627f	0.22107886
32	0x3e274f01	0.16338731
33	0xbe8d5cd5	-0.27609888
34	0xbd904bef	-0.07045733
35	0xbd1c8042	-0.038208254
36	0x3d9a6b5e	0.0754001
37	0x3de1b92e	0.11021648
38	0xbb3bad14	-0.0028637098
39	0xbdadf7ba	-0.08494516
40	0xbed9a9f0	-0.42512465
41	0xbea82def	-0.32847545
42	0xbceb38f0	-0.028713673
43	0xbc5b2e9c	-0.013377812
44	0xbd934dbf	-0.07192563
45	0xbd8b0355	-0.06787745
46	0xbd5a23c2	-0.053256758
47	0xbe3141bb	-0.1731023
48	0xbddf38be	-0.108994946
49	0x3e2e5995	0.1702636
50	0xbf0889e4	-0.53335404
51	0xbdc239e4	-0.09483698
52	0x3e00f9eb	0.12595336
53	0x3b4c6869	0.0031190163
54	0xbe0ac66e	-0.13552257
55	0xbea4d910	-0.32196856
56	0xbe2a5775	-0.16634925
57	0x3e4dd214	0.2009967
58	0x3e445121	0.19171573
59	0x3d074a99	0.033030126
60	0xbe6989fc	-0.22806543
61	0xbe83851d	-0.25687495
62	0x3e312455	0.17299016
63	0x3e491e14	0.1964038
64	0x3dbc162d	0.09183917
65	0xbe023bcb	-0.12718122
66	0xbe190252	-0.14942291
67	0xbe0a9e0d	-0.13536854
68	0xbdb16fbb	-0.08663889
69	0x3eab6ba0	0.3348055
70	0x3c0e7386	0.008694535
71	0x3ed7c3cd	0.42141572
72	0x3e918653	0.28422794
73	0x3e7c345f	0.24629353
74	0x3ec7dd6b	0.39036116
75	0xbdd0547c	-0.10172364
76	0x3e11aba2	0.14225629
77	0x3e42226d	0.18958445
78	0x3e2a7775	0.16647132
79	0xbcab353c	-0.020899408
80	0xbdbd0c2e	-0.09230839
81	0x3b637f50	0.0034713335
82	0x3dd0bff3	0.101928614
83	0x3d52b6f9	0.051444028
84	0xbcc6cc48	-0.02426733
85	0xbe300c2f	-0.17192148
86	0xbdb83b1d	-0.0899565
87	0x3cde5b28	0.027143076
88	0x3d450a75	0.048105676
89	0xbd554b23	-0.05207361
90	0x3cd2a103	0.025711542
91	0x3e3e7c5b	0.18602125
92	0x3ddbefa7	0.107390694
93	0xbd49d374	-0.049273923
94	0xbcd72452	-0.026262436
95	0xbe439335	-0.19099124
96	0xbdf0dd80	-0.11760998
97	0x3c6d3b08	0.014479406
98	0x3ddca2e6	0.10773258
99	0xbdbc5822	-0.091964975
100	0xbdc115ae	-0.09427963
101	0xbdc4dc31	-0.09612311
102	0xbe2fe7fe	-0.17178342
103	0xbd110f11	-0.03541476
104	0x3e03f7f4	0.12887555
105	0xbe090084	-0.13379103
106	0x3daf792a	0.08568032
107	0xbe8a5194	-0.27015364
108	0xbc8c365d	-0.017115766
109	0xbccec698	-0.025241181
110	0x3df29983	0.11845686
111	0x3e4c6a55	0.19962437
112	0xbc9ed61f	-0.01938921
113	0xbe507b81	-0.20359613
114	0x3cfc429c	0.03079348
115	0x3de9bf7b	0.11413475
116	0x3e83deb6	0.25755852
117	0xbcd99087	-0.026558174
118	0xbe921918	-0.2853477
119	0xbc6347f0	-0.013872132
120	0xbd0071dc	-0.031358585
121	0xbdfb55ea	-0.12272246
122	0xbec4389d	-0.38324443
123	0xbde545c8	-0.1119495
124	0x3e8ccd25	0.27500263
125	0xbe57e790	-0.21084428
126	0xbd435798	-0.047690958
127	0x3ac2bf82	0.0014858099
128	0xbe22e267	-0.15906678
129	0xbe478f71	-0.19488312
130	0xbdba376e	-0.090926036
131	0xbc03059a	-0.007996941
132	0x3dc8e011	0.09808362
133	0xbdfd27cf	-0.123611085
134	0xbe71fa4b	-0.23630635
135	0xbdbd4ff0	-0.092437625
136	0x3da8c620	0.08240914
137	0x3e9e000c	0.3085941
138	0xbd7767f5	-0.060401876
139	0xbf184e4b	-0.59494466
140	0xbe6a70ec	-0.22894639
141	0x3d439218	0.047746748
142	0x3e55a620	0.20864153
143	0x3e23b322	0.15986302
144	0xbe924603	-0.2856904
145	0x3e854720	0.26030827
146	0x3e3b5e07	0.18297587
147	0x3e1276eb	0.14303176
148	0x3e013da9	0.12621178
149	0xbd5631f4	-0.052293733
150	0x3ecd4c77	0.400974
151	0x3ec0f7d2	0.37689072
152	0x3ec0b960	0.3764143
153	0x3e267f30	0.16259456
154	0xbee45297	-0.4459426
155	0x3ee089a2	0.43855006
156	0x3ebc170f	0.36736342
157	0x3e189f43	0.14904504
158	0xbd9e8ce3	-0.07741716
159	0xbe5c9d09	-0.21544279
160	0x3e02bc0f	0.12767051
161	0x3d68230a	0.05667404
162	0xbe79002b	-0.2431647
163	0x3d43f9d3	0.047845673
164	0xbeceb445	-0.4037191
165	0xbddfcd82	-0.109278694
166	0xbe591d02	-0.21202472
167	0xbe71cf86	-0.2361432
168	0xbf0102fb	-0.5039517
169	0xbf36fa75	-0.7147592
170	0xbeb34fd0	-0.3502183
171	0xbef8c389	-0.4858668
172	0xbe1b6731	-0.15176083
173	0xbee70b2b	-0.45125708
174	0xbf2bec75	-0.6715768
175	0xbe48e3e9	-0.19618191
176	0xbe642d20	-0.22282839
177	0xbce5ead2	-0.028066073
178	0x3bc7e9d2	0.0061008716
179	0x3e63cc28	0.22245848
180	0xbd90c923	-0.07069614
181	0xbf057133	-0.52125853
182	0xbd8bc602	-0.06824876
183	0x3e0a6eca	0.13518825
184	0x3de9a301	0.11408044
185	0xbed7ad57	-0.42124435
186	0xbf29e0bc	-0.6635854
187	0xba9f0504	-0.0012132232
188	0x3d42e338	0.047579974
189	0x3e143884	0.14474684
190	0xbec1df22	-0.3786555
191	0xbe590eb3	-0.21197014
192	0xbe00dfdf	-0.125854
193	0x3c824a36	0.015904527
194	0x3e212e47	0.1574031
195	0x3d38c9f1	0.04511446
196	0x3ba50cf1	0.005036943
197	0x3be8a34b	0.007099544
198	0xbdac8e81	-0.08425618
199	0x3da5dfd4	0.080993325
200	0x3e08ac6a	0.13347021
201	0x3e961498	0.29312587
202	0xbe2300d7	-0.15918289
203	0xbe7f4a70	-0.2493074
204	0x3b778b7a	0.0037772343
205	0xbc827cbb	-0.015928617
206	0xbe9e3163	-0.30897054
207	0xbe5c2916	-0.21500048
208	0xbe0b6c7a	-0.136156
209	0x3c805008	0.015663162
210	0xbeb416cd	-0.35173646
211	0xbe9baea3	-0.30406675
212	0xbe3c18f7	-0.18368898
213	0xbe8c783c	-0.27435482
214	0x3e25dcce	0.16197512
215	0xbe7ad5fc	-0.24495691
216	0xbe95e2db	-0.2927464
217	0xbe9cbd8d	-0.30613366
218	0xbe0ee65b	-0.13955061
219	0x3e556b1e	0.20841643
220	0x3d69303c	0.056930766
221	0x3c6ac23b	0.014328535
222	0x3e0282b5	0.12745173
223	0x3e4f07ef	0.2021787
224	0x3e0ad9ad	0.13559599
225	0xbe4703b0	-0.19435
226	0xbb5a2e79	-0.003329186
227	0x3d8497e9	0.06474287
228	0x39aea44a	0.0003331027
229	0x3da04d61	0.07827259
230	0xbd03531c	-0.03206168
231	0x3d355df5	0.044279058
232	0x3c894fee	0.016761746
233	0x3cc7067a	0.02429508
234	0xbd9a11fb	-0.07522961
235	0xbde66c62	-0.11251141
236	0xbbe36882	-0.0069399485
237	0x3d58eace	0.052958302
238	0x3c6f6ed8	0.01461383
239	0xbe0c005d	-0.13672014
240	0xbd735094	-0.059403017
241	0x3e0b68d0	0.13614202
242	0x3afadafd	0.001913875
243	0x3cbcad70	0.02303192
244	0xbe413eeb	-0.18871658
245	0xbd5cbe95	-0.05389269
246	0xbe33fef6	-0.17577729
247	0xbd7bf375	-0.061511476
248	0xbe05fa95	-0.1308387
249	0xbe41a938	-0.18912208
250	0xbf07a650	-0.5298815
251	0xbe4cddc3	-0.2000647
252	0xbdfd2c66	-0.12361984
253	0xbddbef44	-0.10738996
254	0x3d698f37	0.057021346
255	0xbe0f5397	-0.1399673

conv2.bias f4 [16]
0	0x3d384804	0.044990554
1	0x3e81e2bf	0.25368306
2	0x3cbd5fa9	0.023116903
3	0xbeed0397	-0.462918
4	0xbe4f1b16	-0.20225176
5	0x3f252cdd	0.6452158
6	0xbe72be71	-0.2370546
7	0xbd965353	-0.073401116
8	0xbefb8cc5	-0.49130836
9	0x3eeb6fb1	0.4598365
10	0x3cb99774	0.022655226
11	0xbdb05e39	-0.086117215
12	0x3de665d5	0.11249892
13	0xbc5e67e8	-0.013574578
14	0x3d09a16d	0.033601213
15	0xbed078e7	-0.4071724

fc1.weight f4 [120, 256]
0	0xbe54252e	-0.20717308
1	0xbe1ad115	-0.15118821
2	0xbcfd747b	-0.030939331
3	0x3efb0a62	0.4903136
4	0xbbcdc5f4	-0.0062797014
5	0x3e2f27c1	0.17105009
6	0xbd8c67cc	-0.06855735
7	0xbdb43ddb	-0.088008605
8	0x3db607a9	0.0888818
9	0x3e29c562	0.16579202
10	0x3e246965	0.1605583
11	0xbf12d4a6	-0.57355726
12	0xbe4a73b7	-0.19770704
13	0x3daafe87	0.083493285
14	0x3ead3122	0.33826548
15	0xbdeffa7f	-0.117177
16	0x3d04eba3	0.032451283
17	0xbe63a6ac	-0.22231549
18	0xbe4b06f0	-0.19826865
19	0x3db745ec	0.089488834
20	0xbec4e1ca	-0.38453513
21	0xbc9c575b	-0.019084623
22	0x3c2356af	0.009969397
23	0xbdd63ad0	-0.10460436
24	0xbe8f8049	-0.2802756
25	0xbe6f5a3c	-0.23374265
26	0x3e131cda	0.14366475
27	0x3d0d045a	0.034427978
28	0xbe145dc8	-0.144889
29	0x3dbfdaf8	0.09367937
30	0x3e65c84d	0.2243969
31	0x3d6d2c25	0.057903428
32	0xbc2a227f	-0.010384201
33	0xbe3a8cee	-0.18217823
34	0xbe70a194	-0.23499137
35	0xbdf27323	-0.11838367
36	0x3d476412	0.04867942
37	0x3d810f3b	0.06301733
38	0x3d746640	0.059667826
39	0x3e95fdd0	0.29295206
40	0xbc32e0a5	-0.010917817
41	0x3d5fc196	0.054627977
42	0x3e90f52f	0.2831206
43	0x3da780ed	0.081788875
44	0x3e2ab1b1	0.16669346
45	0xbe3ee081	-0.18640329
46	0x3d8be64c	0.06831035
47	0x3ed0e8d3	0.4080263
48	0xbe5c8709	-0.21535887
49	0x3ead0a83	0.33797082
50	0xbe22a5f4	-0.15883619
51	0x3e1aedfd	0.15129848
52	0xbf1a03a0	-0.6016178
53	0xbd97a17c	-0.074038476
54	0xbe885a64	-0.26631463
55	0xbe745cdf	-0.23863553
56	0xbe77f331	-0.24213864
57	0xbe90db10	-0.2829213
58	0x3e144a7f	0.14481543
59	0xbf183774	-0.59459615
60	0xbebbbd8e	-0.36668056
61	0x3ea44f09	0.3209155
62	0x3e9c8666	0.30571288
63	0x3ea748d8	0.32672763
64	0xbe8edc5b	-0.27902493
65	0xbe195f86	-0.14977846
66	0xbea29d51	-0.31760648
67	0xbe8169c0	-0.25275993
68	0xbe97b4f1	-0.29630235
69	0xbdda15ff	-0.10648727
70	0x3bf37d20	0.0074306875
71	0xbd9dfadd	-0.07713864
72	0xbbf0174b	-0.0073269955
73	0xbe4230fc	-0.18963999
74	0xbe1285bb	-0.14308827
75	0x3d43b0ec	0.047776148
76	0x3e247464	0.16060024
77	0xbdf017ae	-0.117232665
78	0xbde3dc67	-0.11126023
79	0x3eb510bf	0.3536434
80	0xbe22afbb	-0.15887348
81	0xbd80c67f	-0.0628786
82	0xbec79841	-0.38983348
83	0xbc9d54ad	-0.019205416
84	0xbc703fbf	-0.014663636
85	0xbd9bcceb	-0.076074444
86	0xbe49ab34	-0.19694215
87	0x3d82efcf	0.06393396
88	0x3e8f9019	0.28039625
89	0x3e35ad1e	0.1774182
90	0x3e24f7df	0.1611018
91	0x3d585515	0.052815516
92	0x3eff9170	0.49915648
93	0x3dc64be3	0.09682443
94	0x3e6720f9	0.22571172
95	0x3e0ab4b4	0.13545495
96	0x3e7df415	0.24800141
97	0xbd32e5aa	-0.043676056
98	0xbec76fee	-0.38952583
99	0xbf25f65a	-0.6482903
100	0x3dc6174b	0.096724115
101	0xbd8b2601	-0.06794358
102	0x3d829c67	0.06377488
103	0xbde76cac	-0.113000244
104	0xbde3dc2a	-0.11125977
105	0x3f0ef132	0.55836785
106	0x3e45b4f6	0.19307312
107	0x3df420f2	0.11920346
108	0xbe5fcd53	-0.21855669
109	0xbeafcd9e	-0.3433656
110	0x3e7469e8	0.23868525
111	0xbe82a5a6	-0.25517005
112	0xbe47a4e6	-0.19496498
113	0xbd02d3c5	-0.03194024
114	0xbe2dbc20	-0.16966295
115	0xbdb3bc34	-0.08776131
116	0x3e111f36	0.14172062
117	0x3dfb85ad	0.12281356
118	0xbd9299d8	-0.071582496
119	0x3d23ea33	0.04001827
120	0x3e739596	0.23787531
121	0xbb575aa2	-0.0032860418
122	0x3cd90e1d	0.026495988
123	0xbec5cd48	-0.3863318
124	0x3c2ff0a6	0.010738527
125	0x3e87ed29	0.26548126
126	0x3e2ee33f	0.17078875
127	0x3e5ac509	0.21364225
128	0xbea22c47	-0.31674406
129	0x3ea46829	0.32110718
130	0x3ca96a91	0.020680698
131	0x3ca70caf	0.02039179
132	0xbef3705c	-0.4754666
133	0xbdd70a05	-0.10499958
134	0xbe00bb6d	-0.12571497
135	0xbea1cbc0	-0.3160076
136	0xbe5601df	-0.20899151
137	0x3e0fea79	0.14054288
138	0xbd6c1e67	-0.05764618
139	0xbf0f3340	-0.55937576
140	0xbda94eec	-0.08267006
141	0x3e6a635e	0.22889468
142	0xbd18ed3e	-0.037335627
143	0xbf3a6006	-0.7280277
144	0x3e2c615c	0.16834015
145	0xbe3b5480	-0.18293953
146	0x3dfc74ae	0.123269424
147	0xbcd3e15b	-0.025864294
148	0x3e35a1d4	0.17737514
149	0xbdd34e75	-0.10317699
150	0x3e022599	0.12709655
151	0x3e16f1f4	0.14740735
152	0x3d96b74a	0.07359178
153	0xbd65ee33	-0.056135368
154	0x3d8cb275	0.068699755
155	0xbc1b0849	-0.009462425
156	0x3e47899b	0.19486086
157	0xb93f2ace	-0.00018231125
158	0xbc38fe28	-0.011291064
159	0xbd4129e5	-0.047159094
160	0x3eec51b5	0.46156088
161	0x3ec7565c	0.38933074
162	0x3e17ce69	0.14824833
163	0x3eb0aeb7	0.34508297
164	0xbd2a8a74	-0.041635945
165	0x3de1451a	0.10999508
166	0x3e2431f9	0.16034688
167	0xbe49eefd	-0.19720073
168	0xbee3b0a5	-0.44470707
169	0xbe9819ec	-0.29707277
170	0xbe602fad	-0.21893187
171	0xbda7b23a	-0.08188291
172	0xbf20657c	-0.6265485
173	0xbf0b6c66	-0.5446228
174	0xbe528230	-0.20557475
175	0xbe7d5f0e	-0.24743292
176	0xbeba72eb	-0.364158
177	0xbeb703d0	-0.35745096
178	0xbebefab9	-0.3730066
179	0xbe5bbb59	-0.21458186
180	0x3c73ed8f	0.014888181
181	0x3cd30887	0.025760902
182	0x3e1e602b	0.15466373
183	0x3eab6777	0.33477375
184	0x3dfa1503	0.12211039
185	0x3e5e3d0e	0.21702978
186	0x3e93f7ad	0.288999
187	0x3e46d302	0.1941643
188	0x3e1889bb	0.1489629
189	0x3e59f184	0.21283537
190	0xbd2aee66	-0.04173126
191	0x3b1f2b52	0.0024287296
192	0xbd20074c	-0.03906946
193	0xbea43faf	-0.32079837
194	0x3d01d06e	0.031692915
195	0xbe1b0e06	-0.15142068
196	0xbe467d8e	-0.19383833
197	0x3ed909c9	0.42390278
198	0x3d95f382	0.07321836
199	0x3d3d75c3	0.046254884
200	0x3e4f4035	0.20239337
201	0x3ebe167a	0.37126523
202	0x3da3e61c	0.08002874
203	0x3d608043	0.05480982
204	0xbdf96caa	-0.12178929
205	0x3e5ca653	0.21547823
206	0x3e0022c2	0.12513259
207	0xbe068d15	-0.13139756
208	0x3dd2cedd	0.10293362
209	0xbe173052	-0.14764526
210	0xbdcb6e6f	-0.09933173
211	0xbe8cd5ba	-0.2750681
212	0x3e3a2cab	0.18181102
213	0x3e96f921	0.29486945
214	0x3e6b0dcc	0.22954482
215	0xbe4cfd3c	-0.20018476
216	0xbe1b8b7c	-0.15189928
217	0x3c811a47	0.0157596
218	0x3e47aaf7	0.19498812
219	0xbde5d1c0	-0.11221647
220	0xbe863f53	-0.26220188
221	0xbe270c21	-0.1631322
222	0xbda494ce	-0.08036195
223	0xbdcb0fd3	-0.099151276
224	0x3eb32d15	0.34995332
225	0xbccb73d3	-0.024835503
226	0x3e4f00ec	0.20215195
227	0x3e1fea72	0.15616778
228	0x3dc018c3	0.09379723
229	0xbe1210aa	-0.1426417
230	0x3ed1d59b	0.4098328
231	0x3e457aac	0.19285077
232	0xbe8f4314	-0.27980864
233	0xbe59379e	-0.21212623
234	0xbd32f441	-0.04368997
235	0xbe84bdf4	-0.25926173
236	0xbe70993a	-0.23495951
237	0xbdcb9e33	-0.099422835
238	0xbe21e308	-0.15809262
239	0xbe8e5cd1	-0.27805188
240	0xbdc72fdc	-0.09725925
241	0xbe9f8415	-0.31155458
242	0x3e9f4010	0.31103563
243	0xbac83ae4	-0.001527634
244	0xbeddae3c	-0.43296993
245	0xbeb5377b	-0.3539389
246	0xbe450004	-0.19238287
247	0xbe0ccc4a	-0.13749805
248	0xbe89c10e	-0.26905102
249	0xbe159f31	-0.14611508
250	0xbcb1bdae	-0.021696892
251	0xbe97495f	-0.29548165
252	0xbf1a4191	-0.60256296
253	0x3db6cc6d	0.0892571
254	0x3e048823	0.12942557
255	0xbf13d0a5	-0.5774024

fc1.bias f4 [120]
0	0x3e63af14	0.22234756
1	0x3ea8f29c	0.32997596
2	0x3e6e3e5d	0.23265977
3	0xbda9e448	-0.08295494
4	0xbd818394	-0.06323925
5	0x3e097848	0.1342479
6	0xbd0bcb60	-0.0341295
7	0xbe144cf7	-0.14482485
8	0xbe03d7c6	-0.1287528
9	0x3ea8e3a1	0.32986167
10	0xbd558211	-0.052125994
11	0x3e912297	0.28346702
12	0x3dbd340b	0.09238442
13	0xbe023fc4	-0.12719637
14	0x3e061a34	0.13095933
15	0xbdcf20fb	-0.101137124
16	0xbcb03e14	-0.021513976
17	0xbdd462a1	-0.103703745
18	0xbe6edfc9	-0.23327555
19	0xbdf7f848	-0.12107903
20	0x3e4739e5	0.19455679
21	0xbe8f561a	-0.27995378
22	0xbdeafdcc	-0.11474189
23	0xbd3d7959	-0.046258304
24	0x3e067f00	0.13134384
25	0xbd3482a8	-0.044069916
26	0x3b855fce	0.0040702587
27	0xbcb56cec	-0.022146665
28	0xbda127fe	-0.07868956
29	0xbd81a278	-0.063298166
30	0x3e4455c2	0.19173339
31	0xbdc68db5	-0.09694997
32	0x3dd5f4e9	0.104471035
33	0xbe06b6c9	-0.13155665
34	0xbea67a10	-0.32515
35	0xbe08d02b	-0.1336066
36	0xbd6fc06a	-0.05853311
37	0x3cd51e9e	0.026015576
38	0xbc815dfd	-0.015791887
39	0xbd98345b	-0.07431861
40	0x3e8e84ea	0.2783578
41	0xbd276dd8	-0.04087624
42	0xbd9ed0f5	-0.07754699
43	0xbd8cd376	-0.068762705
44	0xbcd6300d	-0.02614596
45	0x3e56e205	0.20984657
46	0x3e2c6b90	0.16837907
47	0xbe001402	-0.12507632
48	0xbe9d3b9f	-0.3070955
49	0xbdbd029f	-0.092290156
50	0x3e6a9424	0.22908074
51	0x3a008f56	0.0004904171
52	0xbdbb3397	-0.09140699
53	0xbe0d93cb	-0.1382591
54	0x3ec2692a	0.3797086
55	0xbe8c17c6	-0.27361888
56	0x3ded953d	0.116007306
57	0xbe873b0d	-0.2641224
58	0xbe2303fc	-0.15919489
59	0xbe217725	-0.15768106
60	0xbe4b8a93	-0.1987708
61	0xbecc6ff4	-0.39929163
62	0x3dfabd48	0.12243134
63	0x3e8fd427	0.28091547
64	0x3bbe8c62	0.005815075
65	0x3e0b8ccb	0.13627927
66	0xbd373a9d	-0.044733632
67	0x3c08c437	0.0083475625
68	0xbca614a2	-0.02027351
69	0xbe5269d4	-0.20548183
70	0x3e7de7e7	0.24795495
71	0x3c382e3e	0.011241494
72	0xbe933985	-0.2875482
73	0x3e94ce8b	0.2906383
74	0xbb61bc17	-0.0034444386
75	0xbe33d2d1	-0.17560889
76	0x3dbb02a7	0.09131365
77	0xbbd7d428	-0.0065865703
78	0xbd894211	-0.06702054
79	0xbe1b6c4f	-0.15178035
80	0xbda2fb90	-0.07958138
81	0xbecae3c6	-0.39626902
82	0xbd99827e	-0.074955925
83	0xbcbc9e92	-0.023024831
84	0xbe3d31cd	-0.18476029
85	0xbe8e7fb2	-0.278318
86	0xbe6a4e20	-0.22881365
87	0xbdad5843	-0.084641
88	0xbce4422b	-0.027863583
89	0x3e2bbc25	0.1677099
90	0xbd9f3153	-0.0777308
91	0xbdf441aa	-0.11926587
92	0xbec0e5f7	-0.3767545
93	0xbdd4003c	-0.10351607
94	0xbdc0f8e1	-0.0942247
95	0x3e587e23	0.21141867
96	0x3cc80769	0.024417596
97	0xbe8d5875	-0.2760655
98	0x3e09352c	0.1339919
99	0xbde4401f	-0.11145043
100	0x3f104a1f	0.563631
101	0xbb143494	-0.0022614347
102	0x3e31c1d4	0.17359096
103	0xbe2bd753	-0.16781358
104	0x3d91bb00	0.071157455
105	0xbe607892	-0.21920994
106	0x3e2e0a19	0.1699604
107	0x3e39a508	0.1812936
108	0x3ed8c960	0.42341137
109	0xbea649c8	-0.32478166
110	0x3e0ca2d6	0.13733992
111	0xbd7e5849	-0.062095914
112	0xbd99968b	-0.07499417
113	0xbc963a53	-0.018338358
114	0xbd9f3dd1	-0.077754624
115	0x3d99d7bc	0.07511851
116	0x3edeb71d	0.4349908
117	0xbde3ec21	-0.111290224
118	0xbc9ec367	-0.019380284
119	0xbe0bc824	-0.13650566

fc2.weight f4 [84, 120]
0	0x3d02131e	0.031756513
1	0xbe81c02f	-0.25341937
2	0xbe38ff15	-0.18066056
3	0xbebad588	-0.36491036
4	0xbef1eb50	-0.47249842
5	0xbac3c893	-0.0014937095
6	0xbd327ae9	-0.043574248
7	0x3d9f56b0	0.07780206
8	0xbd50a702	-0.05094052
9	0xbe5db881	-0.21652414
10	0x3dccdb0d	0.10002718
11	0xbe736db6	-0.2377232
12	0x3e4eaee1	0.20183899
13	0xbda838e4	-0.08213976
14	0x3bc24167	0.0059282067
15	0xbd218bb8	-0.039439887
16	0x3b87f290	0.0041487888
17	0xbd8e54a6	-0.06949739
18	0x3bab6d2a	0.005231519
19	0xbca5b8fa	-0.020229805
20	0x3db2a33d	0.087225415
21	0xbcfadf4f	-0.03062406
22	0x3e05180a	0.12997451
23	0xbbb1b7bd	-0.0054235146
24	0x3e78bade	0.24290034
25	0xbce9f4b4	-0.028559066
26	0xbe0ec54a	-0.13942447
27	0x3e22060c	0.15822619
28	0xbd569d15	-0.0523959
29	0x3d8169f5	0.06319038
30	0x3d6a0685	0.057135124
31	0xbd47f6f9	-0.048819516
32	0xbe3442e6	-0.17603645
33	0xbc8330a1	-0.016014399
34	0x3d3b481e	0.045723073
35	0x3e64c6d6	0.22341475
36	0x3d17ed6d	0.03709166
37	0x3daf512d	0.08560405
38	0x3dfacd53	0.12246194
39	0xbe90889f	-0.28229234
40	0x3d21cd83	0.039502632
41	0x3d88f105	0.06686596
42	0xbce80afe	-0.028325554
43	0x3d5d8550	0.054082215
44	0xbe0546ee	-0.13015339
45	0x3db5bfab	0.088744484
46	0xbdacebe2	-0.084434286
47	0xbd96730b	-0.073461615
48	0xbd372097	-0.044708814
49	0xbd3d345f	-0.046192523
50	0x3dd16e4f	0.10226118
51	0x3dafbf57	0.08581417
52	0xbd6b2589	-0.057408843
53	0xbea1b0e2	-0.31580263
54	0xbd28341f	-0.04106533
55	0x3e226955	0.15860493
56	0xbdb8ed60	-0.09029651
57	0x3e3c803b	0.18408291
58	0xbe0cfd97	-0.13768612
59	0xbd7943ad	-0.060855556
60	0xbe8d6cea	-0.27622157
61	0x3e2ad82c	0.16684026
62	0xbd4182a2	-0.04724372
63	0xbc6146b8	-0.013749771
64	0xbedafae2	-0.42769533
65	0xbce1755a	-0.027521778
66	0xbded5cad	-0.11589942
67	0xbe936266	-0.2878601
68	0xbdb8a372	-0.0901555
69	0xbe094f63	-0.1340919
70	0xbe242e7e	-0.1603336
71	0xbcfaffc2	-0.030639533
72	0x3e0459da	0.129249
73	0xbe7b6de1	-0.24553634
74	0xbe71523a	-0.23566523
75	0xbc4378de	-0.011930672
76	0x3d12479c	0.035712823
77	0x3e9a93f1	0.30190995
78	0x3daa21d3	0.08307233
79	0xbccda1e5	-0.025101611
80	0xbd222ca3	-0.03959335
81	0x3d4cd6bc	0.050009474
82	0x3d0d29d7	0.03446373
83	0xbe3cffa1	-0.1845689
84	0x3e5784f9	0.21046819
85	0x3dd445c2	0.10364868
86	0x3c626f82	0.013820531
87	0x3c5346dd	0.012895313
88	0xbd82e351	-0.063910134
89	0x3e67d249	0.22638811
90	0x3e0f18d5	0.13974316
91	0x3e147e89	0.14501394
92	0x3d2a9c1a	0.041652776
93	0xbece3fe3	-0.40283117
94	0xbd924924	-0.07142857
95	0xbf04e338	-0.5190921
96	0xbeae74dc	-0.34073532
97	0xbdb2fcb8	-0.087396085
98	0xbd52400e	-0.05133062
99	0xbe343fbb	-0.17602436
100	0xbea0888a	-0.3135417
101	0x3d71d7a0	0.059043527
102	0x3b1493df	0.0022671146
103	0xbe4e5c7e	-0.2015247
104	0xbe15e233	-0.1463707
105	0xbe53275c	-0.20620483
106	0xbbc70725	-0.0060738497
107	0x3c81b9e2	0.015835706
108	0x3bfc97f8	0.007708546
109	0x3e6407c6	0.2226859
110	0x3b8aefb4	0.0042400006
111	0x3d881b6c	0.06645855
112	0xbec9ecd7	-0.39438507
113	0x3e4b9df7	0.19884478
114	0xbdbc1153	-0.09182992
115	0xbdd1fbf4	-0.10253134
116	0xbd1c3af0	-0.038142145
117	0xbd206a10	-0.03916365
118	0x3dbb8851	0.0915686
119	0x3d947b86	0.07250123
120	0x3d839c0e	0.064262494
121	0xbe090390	-0.13380265
122	0xbe7dcaf7	-0.24784456
123	0x3eb4df7d	0.35326758
124	0x3d9363c7	0.071967654
125	0xbe80fb89	-0.25191906
126	0xbcbbc2bd	-0.022920007
127	0xbe4a4d0b	-0.19755952
128	0x3d9edaf8	0.07756609
129	0xbdc6c448	-0.097054064
130	0x3d53525c	0.051592216
131	0xbeb87471	-0.36026338
132	0xbeab3152	-0.33436066
133	0x3e18795b	0.14890043
134	0x3d9a1434	0.07523385
135	0xbdc331d2	-0.09530987
136	0xbda864cb	-0.0822235
137	0xbdc51704	-0.096235305
138	0x3d42d353	0.047564816
139	0x3c7d0938	0.015444092
140	0x3bc841a3	0.00611134
141	0xbe8bfe83	-0.27342615
142	0x3bf7dbbc	0.007564036
143	0xbc91b299	-0.017785357
144	0x3daf2690	0.08552277
145	0x3a398880	0.000707753
146	0x3cfb3513	0.030664956
147	0xbe18293a	-0.14859477
148	0xbce8fe2c	-0.028441511
149	0xbcbfa2d8	-0.02339308
150	0x3db58568	0.08863336
151	0x3bdd1686	0.00674707
152	0xbcd4e76c	-0.025989257
153	0xbe4b5107	-0.19855128
154	0x3d670eec	0.056410715
155	0xbe61892a	-0.2202498
156	0x3d2f9398	0.042865366
157	0x3cdf91cb	0.0272912
158	0xbe4d5001	-0.2005005
159	0x3e19328a	0.14960685
160	0x3e9872da	0.29775125
161	0xbef87497	-0.4852645
162	0xbd49a3fb	-0.04922865
163	0x3c93fd07	0.018064989
164	0x3e6f7c85	0.23387344
165	0xbd0b8f63	-0.03407229
166	0x3d8db1a2	0.069186464
167	0xbace84c8	-0.0015756125
168	0x3da5306d	0.08065877
169	0xbd21cf31	-0.039504234
170	0xbe1459ec	-0.14487427
171	0xbd9471b2	-0.07248248
172	0x3bfcc626	0.007714051
173	0xbe30ae36	-0.17253956
174	0xbe431c44	-0.19053751
175	0x3dae9c5b	0.08525916
176	0x3e2f9604	0.1714707
177	0xbe9e3dd6	-0.30906552
178	0x3db1fcc6	0.08690791
179	0x3e5f6528	0.21815932
180	0x3d934019	0.0718996
181	0x3ea2ee04	0.31822217
182	0x3cb51346	0.022103917
183	0xbd845c64	-0.064629346
184	0xbd5f4d84	-0.054517284
185	0x3d1649cb	0.03669147
186	0xbda176d8	-0.07883996
187	0x3cc44131	0.023956867
188	0x3d6e0cec	0.058117792
189	0xbe113a5c	-0.14182419
190	0xbb1787f4	-0.0023121806
191	0xbd8dd06b	-0.06924518
192	0xbe97bea4	-0.29637635
193	0x3e0701b0	0.13184237
194	0xbd89f8f4	-0.06736937
195	0x3c21687e	0.009851573
196	0xbdf8a722	-0.12141253
197	0xbdb0b53a	-0.08628316
198	0xbb9903e7	-0.0046696546
199	0xbe12bcc9	-0.14329828
200	0x3da2f7c7	0.07957416
201	0x3bfb0b16	0.0076612337
202	0xbe271d5f	-0.16319798
203	0x3e221d67	0.15831529
204	0xbc6f6cfd	-0.014613387
205	0xbdf46264	-0.11932829
206	0x3e59496d	0.21219416
207	0xbd3ad2a1	-0.045611028
208	0xbcd78cdc	-0.026312284
209	0xbd880940	-0.06642389
210	0xbdccb448	-0.099953234
211	0x3e9057d3	0.28192005
212	0x3e0ea432	0.13929823
213	0x3f07fa7f	0.531166
214	0x3d35734d	0.044299413
215	0x3e340cad	0.1758296
216	0xbe5ade1c	-0.2137379
217	0xbd1f57b0	-0.038901985
218	0xbe95ed07	-0.292824
219	0xbe9bc451	-0.30423215
220	0xbc698172	-0.014252054
221	0xbd52bea0	-0.051451325
222	0xbd3ab13f	-0.04557919
223	0xbcba05b1	-0.022707792
224	0x3db2c107	0.08728223
225	0x3dbe53ab	0.09293302
226	0x3df03d06	0.11730389
227	0xbda07a8a	-0.078358725
228	0xbe6c2b8c	-0.23063487
229	0xbea530c2	-0.32263762
230	0x3e056a58	0.13028848
231	0x3db0dcb7	0.08635848
232	0x3f0af419	0.54278713
233	0xbe466f87	-0.19378482
234	0xbbabd846	-0.0052442877
235	0x3d70402c	0.05865495
236	0x3d2fc189	0.04290918
237	0x3deaaffd	0.11459348
238	0xbdaa243f	-0.08307695
239	0xbd3b8e25	-0.045789856
240	0x3db37704	0.08762935
241	0x3c9354be	0.017984744
242	0x3dfd3a61	0.123646505
243	0xbd755c78	-0.05990264
244	0xbd73ff30	-0.059569538
245	0xbc88a93e	-0.016682263
246	0x3d06d230	0.032915294
247	0x3e0de43c	0.13856596
248	0x3e6b6105	0.22986229
249	0xbe011d67	-0.12608872
250	0x3dcd1a28	0.100147545
251	0xbc7c89df	-0.01541373
252	0xbe5e7a8f	-0.2172644
253	0xbab73726	-0.0013978228
254	0xbb4c5038	-0.0031175744
255	0x3c24a6e0	0.010049552

fc2.bias f4 [84]
0	0xbc0a88f0	-0.0084555
1	0xbe226205	-0.15857704
2	0x3d72eec5	0.05930974
3	0xbec49801	-0.3839722
4	0xbf245113	-0.6418621
5	0x3f13ef80	0.57787323
6	0x3e8ba84f	0.27276847
7	0x3c9fa684	0.01948858
8	0x3d8a0c3e	0.06740616
9	0x3eb366d5	0.35039392
10	0xbdf83099	-0.12118644
11	0x3edb5374	0.42837107
12	0xbe8e125c	-0.27748382
13	0xbe5f39e5	-0.21799429
14	0xbe834940	-0.25641823
15	0xbedef84f	-0.4354882
16	0xbe1fd20d	-0.15607472
17	0xbe844733	-0.2583557
18	0xbe6cacb4	-0.23112756
19	0xbdf448b6	-0.11927931
20	0x3cf5f43a	0.030023683
21	0x3d30a9c6	0.04313066
22	0x3ebb37d8	0.36566043
23	0xbde3e4e2	-0.1112764
24	0xbe9cf677	-0.30656788
25	0xbd9cbcfa	-0.07653232
26	0xbd126877	-0.035744157
27	0xbea28bfc	-0.31747425
28	0xbe2a730a	-0.16645446
29	0x3f28739c	0.65801406
30	0xbf10b7da	-0.56530535
31	0xbe99dbf5	-0.30050626
32	0x3e8ea5ed	0.27860966
33	0xbe3dc296	-0.1853126
34	0xbd30e245	-0.043184537
35	0xbe5f5d85	-0.21813019
36	0x3e6684b6	0.22511563
37	0xbecd1136	-0.40052193
38	0x3ea1fb07	0.3163683
39	0xbe3b90f6	-0.18317017
40	0xbebacb92	-0.36483437
41	0xbd3b1838	-0.045677394
42	0xbddd4505	-0.1080418
43	0xbea17922	-0.3153773
44	0xbd9d4b72	-0.07680406
45	0x3e49b19b	0.19696657
46	0xbe5356d8	-0.20638597
47	0xbe229e55	-0.15880711
48	0x3e1a741e	0.15083358
49	0x3e38e2f6	0.18055329
50	0x3eb904ca	0.36136466
51	0xbe3b918d	-0.18317242
52	0x3e968752	0.29400116
53	0xbe14a0f8	-0.1451453
54	0xbed20eb8	-0.41026855
55	0xbeb3f141	-0.35145
56	0xbe2acee4	-0.16680485
57	0xbdaf3ec3	-0.08556893
58	0xbeb8eb1c	-0.36116874
59	0xbc62983f	-0.013830244
60	0xbea62742	-0.32451826
61	0xbc10ccb8	-0.008837871
62	0x3ed36df9	0.4129484
63	0xbe4fb473	-0.2028368
64	0xbef04c96	-0.4693343
65	0x3deaca24	0.114643365
66	0xbe3e9263	-0.1861053
67	0xbd63ad9a	-0.05558548
68	0xbdc8a026	-0.09796171
69	0xbe5eba24	-0.21750695
70	0xbe45a4a9	-0.19301094
71	0xbe32ac9a	-0.17448655
72	0xbd664936	-0.056222163
73	0x3d800cbc	0.06252429
74	0xbe3fef46	-0.1874362
75	0x3cdca44d	0.026933813
76	0x3e801fa2	0.25024134
77	0xbdbfb8c7	-0.09361415
78	0xbd615d99	-0.055020902
79	0xbe9c89b5	-0.30573812
80	0xbee01311	-0.43764547
81	0x3e37f090	0.17962861
82	0xbe0dfb05	-0.13865288
83	0x3e9003bb	0.28127846

fc3.weight f4 [10, 84]
0	0xbf4d8006	-0.80273473
1	0xbe4e029a	-0.2011818
2	0xbe308fb3	-0.17242317
3	0xbf088500	-0.5332794
4	0xbf549513	-0.8303997
5	0xbe89de54	-0.26927435
6	0xbec1ac45	-0.37826744
7	0x3dbb70ef	0.091524
8	0x3d207bcd	0.039180566
9	0xbe30a57a	-0.17250624
10	0x3e0d22d1	0.13782813
11	0x3d223c5d	0.03960835
12	0xbbb90474	-0.005646283
13	0xbaa41f12	-0.0012521467
14	0xbe8f89ec	-0.28034914
15	0xbd7efd4e	-0.06225329
16	0xbec324fe	-0.3811416
17	0xbde323a7	-0.110907845
18	0xbe51b475	-0.20478995
19	0xbe23f72d	-0.16012259
20	0xbd4246b1	-0.047430698
21	0x3b40dd82	0.0029428904
22	0xbc828a5e	-0.01593512
23	0xbe06249d	-0.13099904
24	0xbf28722e	-0.65799224
25	0xbe93f87e	-0.28900522
26	0xbe889233	-0.2667404
27	0xbda36b44	-0.07979444
28	0x3cde625a	0.027146507
29	0xbe2b05a9	-0.16701378
30	0xbe83cc4c	-0.25741804
31	0xbe3b6452	-0.18299988
32	0xbe043ce5	-0.12913854
33	0x3d89d7ac	0.06730589
34	0xbd984f7d	-0.07437036
35	0xbe99b64c	-0.30021894
36	0xbeb9820f	-0.3623204
37	0xbe9a4d81	-0.30137256
38	0x3dac96f1	0.08427227
39	0x3de7dc9a	0.11321373
40	0xbd76d682	-0.060263164
41	0xbeb8589f	-0.36005113
42	0x3dc702c8	0.09717327
43	0xbed9262a	-0.4241193
44	0xbe153729	-0.14571823
45	0xbe537190	-0.2064879
46	0xbea186b3	-0.3154808
47	0x3ca0b184	0.019615896
48	0xbdbadec2	-0.09124519
49	0xbd54c5cf	-0.051946457
50	0x3c924e9e	0.017859753
51	0xbe8e69a5	-0.27814975
52	0x3e051c6d	0.12999125
53	0xbeceac31	-0.40365747
54	0xbe6a3685	-0.2287236
55	0xbf0f3b77	-0.5595011
56	0xbec26812	-0.37970024
57	0xbeae8e8b	-0.34093127
58	0xbefb2eec	-0.49059236
59	0xbc09c89f	-0.008409648
60	0xbd7b8ab5	-0.06141158
61	0xbebee171	-0.37281373
62	0x3e198437	0.14991842
63	0xbe39582d	-0.18100043
64	0x3c5cd9ce	0.013479663
65	0x3d6a034f	0.05713206
66	0xbeba27eb	-0.3635858
67	0xbe7b8293	-0.24561529
68	0xbea8d0f3	-0.32971916
69	0xbf0b5ea9	-0.54441315
70	0xbe9e4903	-0.3091508
71	0xbd0326a6	-0.03201928
72	0xbe752016	-0.23938021
73	0xbccd0ac2	-0.025029544
74	0xbe1d3412	-0.15351894
75	0xbe378f79	-0.17925824
76	0x3e2783a9	0.16358818
77	0xbe1c4ad4	-0.1526292
78	0xbd5336ec	-0.05156605
79	0xbea3bdcc	-0.3198074
80	0xbe07424d	-0.13208885
81	0xbec1bb5e	-0.37838262
82	0xbdbd4a60	-0.092427015
83	0x3d65d662	0.056112655
84	0xbf4ce9d0	-0.8004427
85	0xbece0f17	-0.40245888
86	0x3e1641ba	0.1467351
87	0xbde3d63b	-0.111248456
88	0xbee7b7ce	-0.4525742
89	0xbf06d029	-0.5266138
90	0xbedf4168	-0.43604589
91	0xbea93635	-0.3304917
92	0xbc855f60	-0.01628083
93	0x3e9bd25c	0.3043393
94	0xbf3135de	-0.6922282
95	0xbdec65a0	-0.11542821
96	0xbe1e463b	-0.15456478
97	0xbf4ee06c	-0.8081119
98	0x3e26ad3f	0.16277026
99	0xbf80c8ec	-1.0061316
100	0xbe64db03	-0.22349171
101	0xbed83851	-0.42230466
102	0x3dabdd5e	0.08391832
103	0xbe3fb4ab	-0.18721263
104	0xbf3b9e07	-0.73288006
105	0xbe2cbee3	-0.16869693
106	0xbf1dc2f2	-0.6162559
107	0x3deacdd3	0.11465039
108	0xbe6aad1d	-0.229176
109	0xbf1b441b	-0.60650796
110	0xbe334856	-0.17508063
111	0xbd1daecf	-0.03849679
112	0xbd4a8c90	-0.049450457
113	0xbf10b7de	-0.5653056
114	0x3d322d59	0.04350028
115	0xbf188cf8	-0.595901
116	0xbf89dfc0	-1.0771408
117	0xbeca798b	-0.39545855
118	0xbe1c6386	-0.1527234
119	0xbdf9fb5b	-0.122061454
120	0xbe50608b	-0.20349328
121	0x3a99b1e3	0.0011725988
122	0x3df83257	0.121189766
123	0x3dae499d	0.08510134
124	0xbf391c00	-0.7230835
125	0xbf6fd104	-0.9367831
126	0x3e384ef2	0.17998865
127	0xbf18f6ed	-0.5975178
128	0xbf2d9f13	-0.67820853
129	0xbf6dfdfc	-0.92965674
130	0xbe38e7de	-0.180572
131	0xbed0e130	-0.40796804
132	0xbf275186	-0.6535877
133	0x3e28640b	0.16444413
134	0x3e382d8b	0.17986123
135	0x3d0678ad	0.03282993
136	0xbf1edccb	-0.62055653
137	0xbe572173	-0.21008854
138	0xbf28ac59	-0.6588798
139	0xbf303f37	-0.6884646
140	0xbf29edb5	-0.6637834
141	0xbea36bf0	-0.31918287
142	0xbeaf32e0	-0.34218502
143	0xbed79ec7	-0.42113325
144	0xbf864038	-1.0488348
145	0xbedfca20	-0.43708897
146	0xbecaca55	-0.39607492
147	0x3d0d2eba	0.03446839
148	0xbf4765e9	-0.7788988
149	0xbf1a0ec1	-0.6017876
150	0xbfce7286	-1.61287
151	0xbebd0778	-0.3691976
152	0x3c7e1907	0.015508897
153	0xbf3a96b3	-0.728862
154	0xbbe18bdf	-0.006883129
155	0xbc933b81	-0.01797271
156	0x3e614975	0.22000678
157	0xbe5de8ab	-0.21670787
158	0xbd4e8e57	-0.050428715
159	0xbf0e36d6	-0.55552423
160	0x3dbda010	0.09259045
161	0xbee55940	-0.44794655
162	0xbd02e7b8	-0.031959265
163	0xbff011c1	-1.8755418
164	0x3e30d64f	0.17269252
165	0xbec9f655	-0.3944575
166	0xbf28eefb	-0.65989655
167	0xbc8e45e7	-0.017367316
168	0xbeb5b33c	-0.35488307
169	0xbf1f9d95	-0.62349826
170	0xbd1757e7	-0.036949065
171	0xbf067036	-0.5251497
172	0xbedc2d3d	-0.43003264
173	0x3dbe8f85	0.09304718
174	0xbf059fc2	-0.52196896
175	0xbec00c28	-0.37509274
176	0x3bded522	0.0068003098
177	0xbe0b79d7	-0.13620697
178	0x3e03a96b	0.12857597
179	0xbc0d366d	-0.008618933
180	0xbe1a7475	-0.15083487
181	0xbdb2cb96	-0.08730237
182	0xbe355b44	-0.17710596
183	0xbead6a80	-0.33870316
184	0xbe7d38c1	-0.24728681
185	0xbea6c947	-0.32575437
186	0xbf004dbe	-0.50118625
187	0xbd3ed3fa	-0.046588875
188	0xbc48dc54	-0.012259562
189	0xbec6db54	-0.3883921
190	0x3e1d603a	0.15368739
191	0xbd44e2f8	-0.048068017
192	0xbf0ac425	-0.5420554
193	0x3e1c102f	0.15240549
194	0xbdc0535b	-0.09390899
195	0xbe520feb	-0.20513885
196	0xbdb74832	-0.08949317
197	0x3df7e302	0.12103845
198	0xbf4ac66e	-0.7920903
199	0xbe67626e	-0.22596142
200	0xbe9c4505	-0.30521408
201	0x3e206998	0.15665281
202	0xbda43b6f	-0.080191486
203	0xbf39d6f0	-0.72593594
204	0x3dfa88d8	0.12233132
205	0xbdfb4b75	-0.12270252
206	0x3dff7c95	0.12474934
207	0x3d895ec8	0.06707531
208	0xbe507ed0	-0.20360875
209	0xbe85637f	-0.26052472
210	0xbd80e2cd	-0.06293259
211	0xbf15fa61	-0.5858517
212	0x3d835e12	0.06414427
213	0xbdeb32b8	-0.11484283
214	0xbd9a3358	-0.07529324
215	0xbe5333bf	-0.20625208
216	0xbe6aa087	-0.22912799
217	0xbdcd8ef7	-0.10037034
218	0xbc330ec6	-0.010928815
219	0xbda61417	-0.081093006
220	0x3dc22949	0.09480531
221	0xbdd0766d	-0.10178838
222	0xbc9cd86e	-0.01914617
223	0xbef6d41f	-0.4820871
224	0xbebe3050	-0.37146235
225	0xbd196a64	-0.037454978
226	0xbf06fa68	-0.5272584
227	0xbea34eb7	-0.31895992
228	0xbec697e7	-0.38787767
229	0xbf1d5223	-0.61453456
230	0xbd3c5f1c	-0.04598914
231	0xbdb4a592	-0.088206425
232	0xbe872d3a	-0.26401693
233	0x3d265275	0.04060598
234	0xbebe2618	-0.37138438
235	0xbe745d78	-0.2386378
236	0xbea7de19	-0.32786635
237	0xbf4fce69	-0.8117433
238	0xbe9a57c4	-0.30145085
239	0xbdd69a23	-0.10478618
240	0xbe116d09	-0.1420175
241	0xbe356b11	-0.17716624
242	0xbdb9bd2c	-0.09069285
243	0xbedb763c	-0.42863643
244	0xbecf80dc	-0.40528
245	0xbcc71cea	-0.02430578
246	0xbe0b174f	-0.1358311
247	0xbe180bea	-0.14848295
248	0xbe4d9548	-0.20076478
249	0x3df045d6	0.1173207
250	0xbf4e3036	-0.80542314
251	0xbeb7a6da	-0.35869485
252	0xbf808f7a	-1.0043786
253	0xbdd8940d	-0.105751134
254	0xbeadd60f	-0.33952376
255	0xbe9368f6	-0.28791016

fc3.bias f4 [10]
0	0xbdb5a241	-0.08868838
1	0xbea626f1	-0.32451585
2	0xbc068240	-0.008209765
3	0x3dce233f	0.100653164
4	0xbe4b048e	-0.19825956
5	0xbde780c4	-0.11303857
6	0x3e27b0fc	0.16376108
7	0xba8076a6	-0.0009800985
8	0x3ec0edc9	0.37681416
9	0xbe7dd5d1	-0.24788596
