fashionmnist_net_adam_10.pth (torch, 181139 bytes, 10 tensors)

conv1.weight f4 [6, 1, 5, 5]
00000000: f025 5f3b f378 213e d953 073e da83 d53d
00000010: 4a3e 3abc d2ff a03c cca0 b33d 3ea9 c93d
00000020: 8adc 673d 199a 1a3e 8408 d4bc 584d 0ebe
00000030: eaf0 12be bb64 9cbd cff2 3fbd 567f 663c
00000040: 8345 3bbe a248 01bf af99 12be 799f 8abd
00000050: 09ff 1d3c da2d 903d 9ab2 5a3c e918 52bd
00000060: 51fc 91bd 397e 9a3c 5605 253d 61b6 0abd
00000070: 814b 19ba 05f4 973d 90f2 e3bc d166 923d
00000080: ffd8 ab3d ef6d 6dbd 4194 043d d16f 90bd
00000090: 6a29 cfbc 05e0 b23e b911 cebd 5699 25be
000000a0: 9405 3bbd 1a37 d33c 4560 9c3e b2bd 8ebd
000000b0: 94a2 acbe 2190 1e3d c366 a53d 790e 5b3d
000000c0: dad3 13be d4b1 05bd 1553 273d 9352 18be
000000d0: 9e33 d43c 4533 863d cb12 9b3d e264 99be
000000e0: 97b8 71be d9b8 453c ab22 963d 5815 023e
000000f0: dd60 36be 39fe b4bd f829 46bd e6cd e33d
00000100: 87c1 f63c 581a 3bbd 80ea 9f3c 602c b7bc
00000110: 5b24 583d d5c1 9a3d e48e 833d d448 86bd
00000120: 5d09 303c 8468 9bbd d84d 6c3c fe42 30bd
00000130: 43e9 9abd 6fae 98bd bf0d 68bd 9601 05bd
00000140: acda 35bd adf6 1abe bf7e b1be 54f1 47be
00000150: 0899 eabd 325b b13b 04a3 c5bd 7b12 c7be
00000160: 9929 4bbe e5d9 47bd dcd6 d43c 8a11 07bd
00000170: 2ffc 35bd 89f7 0abd 0a59 153d fa19 743c
00000180: 6779 e5bc f4f6 87bd 2788 92bc cf88 88bc
00000190: eb57 b9bd 0b79 c5be 5a49 f4be f410 bbbe
000001a0: d19b 08be 0d5d 4e3c a4fc 4dbd c236 a3bd
000001b0: 431d 58bd d306 c1ba 80fb 3f3c 7811 e6bc
000001c0: d4d8 063d f576 ff3b fc6a 12bd 7add b3bd
000001d0: 859c 123e ae1b 8d3d 8071 413d 77b6 e5bc
000001e0: db41 153d 1e9d f0bb df46 9c3b cdd8 94bc
000001f0: f407 f5bb f2a3 1cbe 7c1c 033d ecc7 ed3b
00000200: 1d4c 443b a06a 86bc 33d8 28bc 89fc 073e
00000210: e14c 8ebc 883f 2d3e cf6e de3c 87da 61bd
00000220: 03a6 8ebd c56e 6d3d ce88 783e 61a3 153e
00000230: 6eb6 023d bb96 163c 23f3 69bd 8ba7 143e
00000240: de92 063e d574 a5bd 7861 9d3c ed8e a7bc
00000250: 8e9c 29be 80bd 3fbd
0.0034049712 0.15768795 0.13215579 0.10425539 -0.01136739 0.019653235 0.08770904 0.098467335
0.056606807 0.15097846 -0.025882967 -0.13896692 -0.14349714 -0.076364 -0.04686242 0.014068445
-0.18288235 -0.50501454 -0.14316438 -0.06768698 0.009643325 0.070399955 0.013348246 -0.051293287
-0.07128204 0.018859016 0.040288292 -0.033865336 -0.0005847738 0.0741959 -0.027825624 0.07148517
0.08390998 -0.05796617 0.03236795 -0.07052577 -0.025288302 0.34936538 -0.10061974 -0.16171774
-0.045659617 0.02578311 0.30542198 -0.06969775 -0.33717787 0.03871167 0.08076241 0.0534806
-0.14436284 -0.032640293 0.040850718 -0.1487525 0.02590352 0.06552748 0.07571944 -0.2995978
-0.23605572 0.012067997 0.07330831 0.12703454 -0.17810388 -0.088375516 -0.04837987 0.111232564
0.030121578 -0.04567942 0.019520998 -0.022360027 0.052769046 0.07556502 0.064237386 -0.065568596
0.01074442 -0.07588294 0.014422856 -0.04303264 -0.075640224 -0.074551456 -0.056653734 -0.032472216
-0.044397995 -0.15133162 -0.34667012 -0.19525653 -0.1145497 0.0054124827 -0.096502334 -0.38881287
-0.19840087 -0.048791785 0.02598136 -0.03297571 -0.044429954 -0.033927474 0.036461867 0.014898771
-0.02801199 -0.066388994 -0.017887188 -0.016666798 -0.09049972 -0.3856891 -0.47712213 -0.36536372
-0.13340689 0.012595427 -0.050289765 -0.079694286 -0.05276228 -0.0014726765 0.011717677 -0.028084502
0.032921627 0.007796163 -0.03574656 -0.08782478 0.1431752 0.06890045 0.047227383 -0.028041108
0.036439758 -0.0073429486 0.0047691907 -0.018169785 -0.0074777547 -0.15296915 0.032009587 0.0072564986
0.0029952594 -0.016408265 -0.010305452 0.13279928 -0.017370643 0.16918766 0.027152447 -0.055140045
-0.06965258 0.057966966 0.24270937 0.14613105 0.03191226 0.00919121 -0.05711664 0.14517038
0.13141963 -0.080789246 0.019211516 -0.020453895 -0.16563627 -0.04681158

conv1.bias f4 [6]
00000000: 7932 31bf be71 61bd bf80 c3be e020 b7bf
00000010: 5b02 a7bf 3520 a5be
-0.6921764 -0.055040114 -0.38184163 -1.4306908 -1.3047594 -0.32251135

conv2.weight f4 [16, 6, 5, 5]
00000000: 55e3 2abe ec10 f83d d3b1 123f 8da2 cb3e
00000010: 63dc 983e d098 e3bc e786 42bd 746b 9c3e
00000020: d17b d43e 37b6 5ebe 00f4 853e 1238 babe
00000030: 3fe8 c1be 3cb4 5cbd 7471 4cbf 58ec ac3e
00000040: 222d 903d 703d c83e d729 35bf 2a30 73be
00000050: f8d6 9b3e 4c7f 31bc db46 14bf 1d69 16be
00000060: ec38 c0bd 57f2 e5bc ace4 39be cbf8 22be
00000070: 5624 cfbd 96ac 7ebd 223c 88be 22dc e9be
00000080: 94dd 15bf 3271 e5be 2a99 b6bd d052 7cbd
00000090: 158d 8bbe 1a38 2fbf d9db b1be 9af4 89bd
000000a0: 156c 9e3e 8990 2ebe 4094 1ebf e372 243e
000000b0: 5bf7 4f3e f9bb d1be 770e 4bbf 73ad 74be
000000c0: e801 733e 5b20 363e 46ba 0abe a9d2 38be
000000d0: 8377 0fbe f2d6 5bbe 7386 663e 306b b93d
000000e0: 9a70 debd 0b14 0fbe c3e0 20be 1c59 b6be
000000f0: 1a3b 553e 630b 173d 65ff 533d d1ed e9be
00000100: 895d 1bbf 36bd 093e e84f 233e ac33 6f3e
00000110: d343 abbe 53ea 12bf 4c3d 6a3e 3b13 e43e
00000120: 963f 893e 9495 bbbd 1c8b c2be 8095 b5bc
00000130: ac24 acbe 31a0 5dbe f1dc 813e a810 bd3e
00000140: 7e2c 8c3d d0dd 8dbe b47a 0dbe d0c8 4cbe
00000150: 5a52 9ebd 34dd 083e a0c1 30be af5e 9a3c
00000160: 9cf2 9ebc 76d5 b0be 0bcc 9a3e 0bc3 99be
00000170: 9f1f fcbc 2c37 6b3e 6611 b2bd 55ab 823e
00000180: ac20 dbbe cc45 34bf 18db 3dbf 3246 aa3e
00000190: 07b0 3fbd 4da4 6d3e b49b c43e fee4 043f
000001a0: 12ad 44bd 89cf 6ebd 3999 b2be c8b1 573b
000001b0: c4e0 08bd d780 0b3d 66ec 69bd f24b a6be
000001c0: bad7 13bf 3297 d2be 7609 53be f88f 983e
000001d0: c58e abbe d4fa 51bf 7e3a edbe 551f e3bd
000001e0: b3c1 873e 97e5 2abf 8680 15bf a1d0 05be
000001f0: 7c48 f83d 4b64 a1bd 04ed 1abd c881 38bd
00000200: e116 0dbc 13e8 603e 28b8 f3bd 5f83 c0bd
00000210: ca30 893d 9bab 96be 049e 10bd d931 b33c
00000220: 2199 693d 9703 0ebe b1c0 6cbd 85ba 39bd
00000230: 16e5 af3d e763 c2bd 6b90 eb3d a417 0bbd
00000240: 310f 723c fc22 343e d201 6c3e 4315 a73d
00000250: 4b54 debd b7ff 06be a5de 923e 2b69 1cbf
00000260: 0a26 e0bd 9632 e63e b6f9 323d 9161 db3e
00000270: 980c f23d 6c82 b5bd 7e78 d73e 477c 073e
00000280: caed 17bd eaeb 353e 16a4 3abf 8dfc d7be
00000290: 1eed d5bd 2f6e c6bd ca9c b83d 6505 e73d
000002a0: 606b adbd ee5f da3d 26ab 463e 7c6a bebd
000002b0: a298 383d 5f24 353e 3d0e 883e 6c67 f0be
000002c0: d70c 6abe 2ee7 0bbd fd85 45be 2e17 1b3d
000002d0: 0228 1a3e 3192 f63d 11e0 9d3e 0cd8 c83d
000002e0: 429a 1c3e 36e3 063f 3bae 1a3d 6e4d 773e
000002f0: f224 8bbc 9bc0 08be 3695 ba3e a6d9 e2bd
00000300: 0079 4d3e 942b be3c 3e2e 88bd abdb d13d
00000310: 2864 503d 4ebd 493e c9e1 8c3e 0e19 223e
00000320: 397a 6d3d 9849 03be aa64 34be 94d8 1fbe
00000330: c3af 8e3d 39cf d13d 8ca8 2a3e 1d61 bfbe
00000340: f530 aa3d 6417 b13e b05f 043e 6b93 873e
00000350: aa9e 18be f19f 09bf 1a6b a43e 5cfe 373d
00000360: 0e82 e1bc ddfe 8f3e 053d f4be 0d34 df3d
00000370: 3830 a63c d47c 48bd d4d5 b63e 6786 103e
00000380: ff51 dcbe 6818 bb3e 160b 193e ec8f 863d
00000390: 9500 313e 240f 183b bc69 7d3e f0fd 81be
000003a0: b798 22be 8ec1 b03e cdae e83d 1364 c33e
000003b0: 5101 26be 73bb 33bf aee4 eb3d 1cda 053e
000003c0: 2b32 12bd 97c9 943e 6f10 45bf 2ef0 c8be
000003d0: 6ef8 d13c b605 c93d ba41 c13e 9010 16bc
000003e0: c52b 553c 6c02 513d a323 adbd 2045 7d3e
000003f0: 3bde fd3e 94f7 46bd 15a6 4ebe 69a9 0f3d
-0.16688283 0.121126026 0.5730259 0.39772454 0.29855642 -0.027782828 -0.047491934 0.3055073
0.41500714 -0.21749197 0.2616272 -0.36370903 -0.37872502 -0.053882822 -0.79860616 0.33774066
0.070398584 0.39109373 -0.7076697 -0.23748842 0.30437446 -0.010833573 -0.57920617 -0.14688535
-0.09385857 -0.028069658 -0.18153638 -0.1591522 -0.101143524 -0.06217631 -0.26608378 -0.4567576
-0.58541226 -0.44812924 -0.089159325 -0.061602414 -0.27256075 -0.6844498 -0.34738043 -0.06736107
0.30941835 -0.17047323 -0.6194496 0.16059451 0.20309202 -0.40963724 -0.79318947 -0.2389429
0.23731196 0.1778578 -0.1354762 -0.1804911 -0.14010434 -0.21468714 0.22512226 0.090536475
-0.10861321 -0.1397249 -0.1571074 -0.3561486 0.20823327 0.036876094 0.051757235 -0.45689252
-0.606896 0.13451084 0.1594845 0.23359555 -0.33450183 -0.573888 0.22874945 0.44545922
0.26806325 -0.09159389 -0.37996757 -0.022166014 -0.33621728 -0.2164314 0.25363877 0.3692677
0.06844424 -0.27708292 -0.13816339 -0.19998479 -0.07730551 0.13365632 -0.17261362 0.018843977
-0.019402795 -0.34537858 0.30233797 -0.30031618 -0.030776797 0.22970265 -0.08694725 0.2552134
-0.42798364 -0.70419 -0.74162436 0.3325668 -0.046798732 0.23207207 0.38400042 0.51911914
-0.048016615 -0.05830339 -0.34882525 0.0032912362 -0.03341748 0.034058418 -0.057110213 -0.32479817
-0.5775105 -0.41130978 -0.20609078 0.2979734 -0.33507362 -0.8202336 -0.46333688 -0.110899605
0.26514968 -0.66756576 -0.58399236 -0.13067867 0.121232 -0.078804575 -0.037823692 -0.045045644
-0.008611412 0.2196353 -0.119003594 -0.09400057 0.06698759 -0.294278 -0.035306945 0.021874355
0.0570308 -0.13868557 -0.057800952 -0.045343895 0.085886165 -0.09491711 0.11502155 -0.033958092
0.01477413 0.1759147 0.2304757 0.08158352 -0.10855921 -0.13183485 0.2868549 -0.61097974
-0.109447554 0.4496047 0.043695174 0.42847875 0.11818808 -0.088627666 0.42084116 0.13231002
-0.037092008 0.17765775 -0.72906625 -0.42184868 -0.10445617 -0.096889846 0.0901428 0.11280326
-0.08467746 0.106628284 0.19401225 -0.09297654 0.045067437 0.17689656 0.26573363 -0.46953905
-0.2285646 -0.034156017 -0.19289394 0.037863903 0.15054324 0.120396025 0.30835012 0.09806833
0.1529322 0.52690446 0.037763815 0.24150631 -0.01698539 -0.13354723 0.36441964 -0.110766694
0.20065689 0.023214139 -0.06649445 0.102469765 0.050876766 0.1970112 0.2751601 0.1582987
0.05797789 -0.12821043 -0.17616525 -0.15609962 0.06967118 0.10244603 0.16665858 -0.3737878
0.08310119 0.34588158 0.12927127 0.26479658 -0.14904276 -0.53759676 0.32112962 0.04492031
-0.027527835 0.28124133 -0.47702804 0.108986 0.020286664 -0.04894717 0.35710013 0.1411377
-0.43031308 0.36542058 0.14945635 0.0657042 0.17285378 0.0023202384 0.24747366 -0.2538905
-0.15878569 0.3452267 0.113614656 0.38162288 -0.1621144 -0.702079 0.115182266 0.13071483
-0.035692375 0.2906005 -0.769782 -0.39245743 0.025631156 0.098155424 0.37745458 -0.009159222
0.013010924 0.0510277 -0.08454063 0.247334 0.4958361 -0.048575953 -0.20180543 0.03507367

conv2.bias f4 [16]
00000000: be50 f63d aff1 66bf fbb5 85bd e751 963e
00000010: fd0c aabd 5348 56bd b6e4 a73c 11b0 83be
00000020: b512 e4be ac36 963e add5 92bd 8b59 b0bc
00000030: 2307 453d 23dd 0c3d 755b 45be 987e 9d3d
0.12027119 -0.9021253 -0.06528851 0.29359362 -0.083032586 -0.052315067 0.0204948 -0.25720266
-0.44545522 0.29338586 -0.07169662 -0.021527072 0.04810251 0.03439058 -0.1927317 0.076901615

fc1.weight f4 [120, 256]
00000000: b9c5 343e 204a 34bf c581 bbbc 7c62 523e
00000010: d5c0 22be 665a 66be 7f96 05be 7434 5c3e
00000020: d3fc 773e d7e3 d73d e5ff 763e 0dd4 8dbd
00000030: 098d 223e e230 f53d e26b 153e 6f3b 0cbe
00000040: 2138 35bf 50af 48be 2954 cfbe d82d 89be
00000050: 4694 98be ad6b a7be 04e2 c5bd 2598 a2be
00000060: 4736 a8be 617b d5be f357 17be 8e45 84be
00000070: 408b 06bd e14b 12bf 3319 3bbe 9096 d5be
00000080: 9159 a1bc 4098 0ebd 1ed3 953c c730 3f3d
00000090: c485 5dbd f9f3 debb d40d ee3c 1fbf f83c
000000a0: 6492 4e3d 0822 05bd 205b 22bd c2a7 423c
000000b0: e994 853d 9565 77bd 6b68 9dbc b82e fabb
000000c0: 117d bb3d a584 10bf 0a52 12bf 9bc8 97bd
000000d0: e5cb 8f3e dc49 15bf 07dc d6be c9da babe
000000e0: d4ed 623e 0d06 acbc 99f4 9cbc f9b6 a4bd
000000f0: 3500 583e 34f8 68be 1982 833e e9c2 b73e
00000100: 0c41 69be 6f5a 2f3d 876e c23d 2586 803e
00000110: c2dd 343e 1a7b 403d d6bd 7ebe ecfe 183e
00000120: 0684 9e3d e668 663d 1cdb 223e f91e 9bbe
00000130: 3635 37bd a036 ac3e 32f3 a9be 5040 67bd
00000140: 8d30 5ebd b668 853e 989e a4bd 1fd5 ea3e
00000150: 6264 08be abcf 68bd f74b 25bc 976f 853e
00000160: d9a0 a3be be1a 0ebe 0e79 8e3d 0c8f 53be
00000170: 58a9 103e 6d12 6a3e e73a 5f3e e4bd 29be
00000180: ecef a83d 2b2d 28bf 86cd 25bf fab3 43bd
00000190: f6fc aa3e 123d aa3e 3789 f73d c723 493e
000001a0: 7d77 1d3e 2878 b23e 9775 cf3d 506a 023e
000001b0: d22c ea3e fec9 c63e 8a3c b2bd f674 d53e
000001c0: fc27 e0be 3a2d 73be 2e65 823e 5a8d a63d
000001d0: b605 273e 5f5a 94be 0235 363e 19ac aebd
000001e0: 2425 5c3e 7085 37bf 5210 38be 8869 49bd
000001f0: b35e d4be b564 cd3d 3f38 a9be f213 dfb9
00000200: bbb0 87be 297c 13be ad1c 19bf 29e7 a1be
00000210: 2742 48bf 848c cdbe 52e7 afbe f126 9abc
00000220: 375c 67be 1965 aebc 7974 f33d 6246 d23e
00000230: 1fe3 fa3d 9965 b9be 01c7 83be fd9f bb3b
00000240: 08a7 dabe a369 83bf 2c8a 3ebf 8e2b c9be
00000250: 4afe cfbe 3e47 7cbe bea4 84bd 99af 353c
00000260: 5553 8abd 113b c93e ff7b 7e3e 9514 6bbe
00000270: 48f2 1f3f 51d3 c13e 6ba8 9b3e 40a2 b53e
00000280: f1df 3b3e 7b1c ab3e cbb7 2d3d 7359 713d
00000290: a97e 043f 2146 fc3e 40c7 18be 08d2 003e
000002a0: 25d2 0b3d a649 0e3e 5f42 d2bc 8aec ccbc
000002b0: a7f9 5e3e 0cea da3d 74de 04bf 2b4b 76be
000002c0: 4cee 0d3f 3fc4 2c3f b03b 343f 5d60 d63e
000002d0: 5ce3 10bf 54f6 483f 3050 cd3e 34c3 7dbd
000002e0: cb16 89be ea0c adba 8585 633b b29c 42be
000002f0: f10e b0bd f015 98be 99dd abbe 4bf2 32be
00000300: 138f 48be 1df3 a03e 3e42 363e ed26 4e3d
00000310: cb72 c13d 03cd e83d 6820 2abd 3eb5 06bf
00000320: c969 ca3e 6298 403e 1d17 943e 1963 9fbe
00000330: 01e1 6d3e ba1b 373d 573f 3e3e 8adb 163c
00000340: 6984 503d ab54 13bf ff1b f2be 99dd e2be
00000350: 9c22 a43d 6562 993e c191 fa3d 9d4d 5bbe
00000360: c3bf 4c3f cb0f 0e3f ac08 cd3e 36b9 a2bd
00000370: a12b 8a3f 484c 493f d998 2c3f 7876 c73e
00000380: 3a7d 7e3e 77b3 d6bb 0a2d 86be d79a 393e
00000390: d165 98be c93a 193e ce24 b0bc 5321 fbbe
000003a0: 78b6 4abe b656 25be 977b 763d 2416 30be
000003b0: 51c9 0ebf 8f96 103e a267 6f3e 2a0c a5bd
000003c0: 1da3 24bd 7f6a 903d 7ee3 583e 6bbe 83bd
000003d0: ca98 c7bd 5548 c1be 7c86 8dbe cd52 0b3f
000003e0: 117f 9dbe 6dc6 f138 d4d2 84bd 123b fe3e
000003f0: 4ee6 6abe fe5e b63d be1e 28be e3e6 07bd
0.1765355 -0.70425606 -0.022889027 0.20545381 -0.15893872 -0.22495422 -0.13045691 0.21504384
0.24217539 0.10541504 0.24121054 -0.06925211 0.15874113 0.11972214 0.14591935 -0.13694547
-0.7078877 -0.19598126 -0.40493897 -0.26792789 -0.29800624 -0.32699338 -0.0966225 -0.31756702
-0.3285391 -0.41695693 -0.14779644 -0.25834316 -0.032847643 -0.5714703 -0.18271331 -0.41716433
-0.019696029 -0.034813166 0.018289145 0.046677377 -0.054082647 -0.006803986 0.029059328 0.030364571
0.050432578 -0.032503158 -0.039637685 0.011880817 0.06522543 -0.06039961 -0.01921483 -0.007634964
0.09154714 -0.564524 -0.5715643 -0.07411309 0.28085247 -0.58315825 -0.41964743 -0.36495045
0.22161037 -0.020998979 -0.019159602 -0.08042712 0.21093829 -0.22750932 0.25685194 0.35890892
-0.2277872 0.042810854 0.09493738 0.25102344 0.17662719 0.0469924 -0.24877104 0.14940995
0.07740025 0.056252383 0.15903896 -0.30297068 -0.04472848 0.33635426 -0.33193356 -0.056457818
-0.05424552 0.2605645 -0.08038062 0.45865723 -0.13319543 -0.056838673 -0.010088912 0.260617
-0.31958655 -0.13877389 0.06956683 -0.20660037 0.141271 0.22858591 0.21799813 -0.16576344
0.082488865 -0.6569392 -0.6476673 -0.04777906 0.3339612 0.33249718 0.120867185 0.19642554
0.15377612 0.34857297 0.1012985 0.12735868 0.4573732 0.38825983 -0.08702953 0.41690797
-0.43780506 -0.23747721 0.2546782 0.081324294 0.16310772 -0.28975198 0.17793658 -0.08528919
0.21498543 -0.71687984 -0.17974976 -0.049172908 -0.414785 0.10028974 -0.33050725 -0.00042548735
-0.26502022 -0.14402832 -0.5980938 -0.31621674 -0.7822594 -0.40146267 -0.3435617 -0.018817397
-0.22593771 -0.021288441 0.1188745 0.41069323 0.12250351 -0.36210325 -0.25737765 0.005725859
-0.4270556 -1.0266613 -0.74429584 -0.39291042 -0.40623695 -0.24636552 -0.064767346 0.011089229
-0.067541756 0.39302877 0.24851988 -0.2295707 0.62479067 0.37856534 0.3040193 0.3547535
0.18347146 0.33420166 0.042411607 0.058923196 0.5175577 0.49272254 -0.14919758 0.1258012
0.034135956 0.13895282 -0.025666414 -0.025015134 0.21774922 0.10689172 -0.51901937 -0.24052112
0.5544174 0.6748695 0.70403576 0.41870394 -0.5659692 0.78500867 0.4010024 -0.06195374
-0.26775202 -0.0013202701 0.0034717035 -0.19005087 -0.085966 -0.29704237 -0.33567503 -0.1747524
-0.19585828 0.3143548 0.17798707 0.05033009 0.09445723 0.11367228 -0.04153481 -0.52620304
0.39533833 0.1880813 0.28923884 -0.31130293 0.23230363 0.044704176 0.1857885 0.009207616
0.050907526 -0.5755107 -0.47286984 -0.4430969 0.08014414 0.29957882 0.122348316 -0.21416326
0.79980105 0.5549285 0.4004568 -0.079454824 1.0794564 0.7863202 0.67420727 0.38957572
0.24852458 -0.0065521556 -0.26206237 0.18125473 -0.2976518 0.14963831 -0.021501925 -0.49048862
-0.19796169 -0.16146359 0.06017646 -0.17195946 -0.55775934 0.14119934 0.23379377 -0.08058961
-0.04019462 0.070515625 0.21180531 -0.06432804 -0.09745939 -0.37750497 -0.27641666 0.5442322
-0.30761006 0.00011528735 -0.06485525 0.49654442 -0.22939417 0.08904837 -0.16417977 -0.033179175

fc1.bias f4 [120]
00000000: 29c8 d4be 828a a13e 6d9f 08bf 2e73 59bf
00000010: dbab 0abe bf13 913c 023b 49bf 2efc ebbd
00000020: 2be5 043d 813b 4ebf 47ad d83d 5f7f 97bd
00000030: 6ca3 02be ca19 08bf efb1 8b3d 1c1e 93bf
00000040: d4b8 373e 9b25 7e3e 9648 663e e51d 8738
00000050: a246 2bbd 5309 73bd cb2b c2bd 7e56 f4ba
00000060: 449a 1cbf b1a4 42bf 31a4 92be 25aa 893e
00000070: 56d9 b2bd d042 4e3d 46e7 7bbe 5905 9dbd
00000080: e963 c8bd 6ee8 4f3e 8fda 0dbf 77cb 543a
00000090: d66b cfbe a78a bcbd 7e47 f3bd 2391 33bd
000000a0: 6c19 083d 69c2 c03e da3d 84be fee9 c8be
000000b0: 71c7 3abf 7adc f6bc bb2f c5bd ebc1 353e
000000c0: 1aaa 033e d9f4 133e 3465 3fbf c062 f9bd
000000d0: 4ac6 87bf 0b47 43bf 9ccf 17be 078b a0be
000000e0: 48c7 153e 697d c7be ea8c 05be 89d0 b5bd
000000f0: 1d5b 85bd 40d2 0abf 2d7d 16bd 2859 823e
00000100: d7fe f93d 6ba8 863d e198 cebe 033d 4bbf
00000110: fbf4 013f ec7f 1fbd c9e5 30bd 98ba b6bd
00000120: a9dd 3cbd bb3a da3e d7b4 663e 28c8 78be
00000130: db6c b63d fe58 333e f23a 0abf 3f25 ccbe
00000140: e2b5 453c c11d 06bf f75f c7be d515 5bbf
00000150: 53be 29bd 4c12 8c3e 7f73 ed3e 694f 96be
00000160: fa13 7bbe 602f bfbe a709 95bf 5406 6bbe
00000170: 4b20 80be 57c5 1cbf a2c4 673b c8ef c0be
00000180: f649 c0bd af45 2bbe 7225 f13e 5aed 64bf
00000190: eb8e 18bd 0e23 8b3e 9aaf 87be c090 a4bd
000001a0: 7960 c0bd aca2 5bbd a5d7 03bf 2618 f03e
000001b0: e38a 453b 46f1 d03d 5462 30bc fdbd 95bd
000001c0: c7f6 d13e a856 c8be 3e81 50bf 4c47 a1bd
000001d0: 0e88 2d3e 74e7 e33d 50de adbd c4d7 c13e
-0.4155896 0.31550986 -0.53368264 -0.84941375 -0.1354212 0.017709611 -0.78605664 -0.11522709
0.032445114 -0.80559546 0.10579925 -0.07397341 -0.12757653 -0.5316435 0.068210475 -1.1493564
0.179416 0.24819033 0.22488627 6.44287e-05 -0.041815408 -0.059335064 -0.09481009 -0.0018641499
-0.6117289 -0.7603255 -0.28640893 0.26887622 -0.0873286 0.050356686 -0.24599943 -0.076670356
-0.09784681 0.20303509 -0.5541162 0.0008117477 -0.4051196 -0.09206133 -0.118788704 -0.043839585
0.03322737 0.37648323 -0.2582844 -0.39241022 -0.72960573 -0.030134428 -0.096282445 0.17749755
0.12857857 0.1444887 -0.747638 -0.12177038 -1.0607388 -0.7628028 -0.1482529 -0.3135607
0.14626801 -0.38962868 -0.13042036 -0.088776655 -0.06511519 -0.54227066 -0.03674047 0.25458646
0.1220681 0.06575092 -0.40351012 -0.7938997 0.50764436 -0.038940355 -0.04318789 -0.08922309
-0.04610983 0.42622933 0.22529922 -0.24295104 0.08907481 0.17514417 -0.53996193 -0.39872167
0.01206729 -0.5238915 -0.38940403 -0.8558019 -0.041441273 0.2735771 0.4637718 -0.2935746
-0.24519339 -0.37340832 -1.1643571 -0.22951633 -0.25024638 -0.61238617 0.0035365005 -0.3768294
-0.09389107 -0.16725801 0.4709888 -0.8942467 -0.037245672 0.27175182 -0.2650116 -0.08035421
-0.09393401 -0.053621933 -0.5150092 0.46893424 0.0030142597 0.10202269 -0.010765631 -0.07311628
0.4100859 -0.39128613 -0.8144721 -0.07874927 0.16946432 0.111281306 -0.08489668 0.3785993

fc2.weight f4 [84, 120]
00000000: b6b7 e0bd 9e23 78be 4d7b 29be 3867 afbd
00000010: d410 323d b9a4 593e 0bc2 bcbe f043 113d
00000020: 05f5 f5bd a859 45bd 0740 9dbd 2bad b23e
00000030: a1a8 f93d c6bc 1c3e 69c0 203d bc2b 313d
00000040: 785e fe3c 4f2f 9f3c 2863 ec3b abb8 9fbe
00000050: 37b6 5abe 9076 9dbc 2425 dd3d 1090 713d
00000060: f1b0 973e 95dc dd3c 8389 073e 526c 873e
00000070: cfb0 423d 2b2f 1e3e b43d 333e 5d75 8cbd
00000080: d0bc b13d 172a b13c 4bf8 39bd 3afa 343d
00000090: 4275 5b3e 02e0 b8bd 912c d93e aceb a43b
000000a0: 291b bbbd ed8e 8f3d fa2d 043d cec7 07be
000000b0: d378 bd3e 0268 b43c baf0 af3c a3b7 3e3e
000000c0: 827e d4be 481f d23d f8b3 34be 368d f7bd
000000d0: cb10 893d 3de3 6d3e 9f46 2bbf 37e8 23bf
000000e0: e4f3 9c3e 641b 233f f508 f2bd 8695 efbd
000000f0: c263 3abc 7521 02be 3a57 fabc 8e0f 77be
00000100: 251c 713c 219e 53bf 875f 273e c4fc 8dbd
00000110: 26d3 803e 29af 2cbd 5c4c bd3d afc4 a93d
00000120: c734 bebb 52cb 403e 39cf df3e f03c 7cbe
00000130: 95b1 a73d 83e5 af3e 3784 783e e6ad 92be
00000140: ba0f ec3d e0c4 b5be fe7d 0d3e 4b8c 333e
00000150: f2b8 203e b757 7fbd 0eca 25bd 5b33 8a3d
00000160: 769b c6be 5a31 37bd 1f6e 47be 10ad 15be
00000170: df15 1abf 42e6 ae3e afd4 3c3d 9091 b0be
00000180: 5f6a 5b3d 86e7 1fbe aea0 953e 3042 be3d
00000190: b615 a0be 0ce4 873d 21e0 e2be 2916 60bf
000001a0: 7515 3abf 583e b03b 3a85 36be d6e1 37be
000001b0: 1168 3f3d 3e66 d4bd da88 c43d 1efd 6cbe
000001c0: 96dc 033f 4745 a0be 41e6 c9be 580b 0e3d
000001d0: f695 7cbe 0e0b 133e 3efe 3e3d d912 16bf
000001e0: d6e3 98bd 2680 ac3e d49d 8bbe 99ad ed3c
000001f0: 29c5 a6be d705 97be fa8e 2cbe a8b5 1c3e
00000200: 75db 91be 883e f43e e896 94bd ba65 743e
00000210: f9d1 833d a598 a2bd 6776 973e 5aa6 89be
00000220: 7422 0abf 7715 803e 19f2 73bd b9ef b73e
00000230: 16ce 4d3e 9ca2 c5bc 4d29 adbc 6434 413d
00000240: 36d4 d8be 3816 13bf fd26 333e f6c6 20be
00000250: d4ff 70bd 5dc7 ee3e f7f4 583c a3bb 49be
00000260: 4c73 21be 7672 71bd fdc4 3b3e 686b 7b3e
00000270: 6c42 0d3f 8b42 abbd b628 963d b6f1 9d3d
00000280: 657f a6bd f946 a6be eb96 eabc 9e1b 903c
00000290: 0952 1d3e d99a 3fbd 6085 7fbd 0dde 52be
000002a0: 1429 3ebd 6ba1 103d 20a1 a1be e82b 11bf
000002b0: 2f8d 3d3d 5fde 743d 376a 9e3e bdd4 613e
000002c0: b810 96be 47f5 273e 4c13 b63d 3c49 c13a
000002d0: f40b ddbc 8957 bf3e 345f 663d 6dd6 1dbe
000002e0: a434 13bf 5180 533e e574 113e 9989 c23e
000002f0: d51e b43e 2e58 a03d c91a aa3e da93 96bd
00000300: ad4e e73d 8481 3cbd 097a 6f3d cd81 c1bd
00000310: c07e d8bd 1f02 e43d 7df1 503c 8182 b63d
00000320: 9516 0bbf eb4b 39be 5665 3e3e 6eea 563e
00000330: abf9 0b3f 822b 803e 6114 6cbe 212d 743b
00000340: d2c7 9e3e baf0 90bd 9fcf a23b d128 31be
00000350: caee 8a3e 42ba d43e 9770 29bd 150e 13bf
00000360: 355f 8ebe dc85 58be b061 723d 58a4 41be
00000370: 8dff 093e 4c8f 573e 7ab3 66be 437c 26be
00000380: 6e6a 8b3d 47fb 42bd d22e 2cbe d2d3 d2be
00000390: f915 153e e8eb ebbc 02c1 4fbe cfbd 8bbe
000003a0: 514f abbd 29f6 08be 97d3 993e dbeb b1bd
000003b0: 06b0 f7bd d5c0 393d 7842 903d cc56 27be
000003c0: 761d c4be 86dd 09bf 136c abbc 02ea e93d
000003d0: fa98 22bf 21d5 263e 87b2 eebd 855c a7bd
000003e0: bf08 5a3e 774c 4bbd cbfe eabd a452 bf3d
000003f0: de5e 483d 060a 063e 2280 08bf 408d c03e
-0.1097254 -0.24232337 -0.16550942 -0.08564609 0.04347308 0.21254243 -0.36866793 0.03546518
-0.120096244 -0.048181206 -0.07678228 0.34897742 0.121903665 0.15306386 0.039245997 0.0432546
0.031050906 0.019431738 0.007213969 -0.31195578 -0.21358572 -0.019221574 0.107981 0.05897528
0.29627183 0.02708272 0.1323605 0.2644983 0.0475319 0.1544768 0.17504007 -0.06858323
0.08678591 0.021626515 -0.045402806 0.044183947 0.21431449 -0.09027101 0.42416814 0.005032977
-0.0913604 0.07009683 0.03227041 -0.13259813 0.37006244 0.022022251 0.021477092 0.1862474
-0.41502768 0.10259873 -0.17646778 -0.12087481 0.06692656 0.23231216 -0.66904634 -0.64026207
0.30654824 0.6371367 -0.11818115 -0.11698441 -0.011376323 -0.12708075 -0.030559171 -0.24127027
0.014716183 -0.8266316 0.16345035 -0.06932977 0.25161093 -0.042159233 0.0924308 0.082894675
-0.0058046314 0.1882756 0.43712786 -0.24632621 0.08188168 0.3435479 0.24269186 -0.286483
0.11526437 -0.35501766 0.13817593 0.17533986 0.15695551 -0.06233951 -0.040475897 0.067480765
-0.38790482 -0.0447248 -0.19475602 -0.146168 -0.6018962 0.34160048 0.04610127 -0.34486055
0.05356824 -0.15615663 0.2922415 0.09289968 -0.31266564 0.06635293 -0.44311622 -0.87533814
-0.7268899 0.0053785257 -0.1782426 -0.17957243 0.046730105 -0.10371064 0.09596415 -0.23143432
0.5150846 -0.31302854 -0.39433482 0.034678787 -0.2466658 0.14359686 0.046629183 -0.5862251
-0.07465331 0.3369152 -0.2726885 0.029013442 -0.32572296 -0.29496643 -0.16851416 0.15303671
-0.28487745 0.47703958 -0.072553456 0.2386693 0.064365335 -0.07939271 0.2958252 -0.2688473
-0.5395882 0.25016376 -0.059557054 0.3592508 0.20098147 -0.02412539 -0.021137858 0.047169104
-0.42349404 -0.5745578 0.17495342 -0.15700898 -0.058837727 0.46636477 0.013241998 -0.19700484
-0.15766639 -0.05894705 0.18336864 0.24552691 0.55179477 -0.083623014 0.07331984 0.07712118
-0.08129767 -0.32476023 -0.028636416 0.017591294 0.15363325 -0.046778534 -0.062383056 -0.20592518
-0.046425894 0.03531019 -0.3156824 -0.5670762 0.04627722 0.059782382 0.3094041 0.2205381
-0.2930963 0.1640216 0.08890399 0.0014746557 -0.026983239 0.37371472 0.056243137 -0.15413828
-0.575022 0.20654418 0.14204748 0.37995604 0.35179773 0.07829319 0.3322356 -0.07352419
0.11294303 -0.046021953 0.05846599 -0.09448586 -0.10571051 0.11133217 0.012752888 0.089116104
-0.5433133 -0.18095367 0.18593344 0.20987865 0.5467784 0.25033194 -0.23054649 0.0037258344
0.31011826 -0.07077165 0.004968598 -0.17300726 0.27135307 0.41548353 -0.04136714 -0.5744336
-0.27807012 -0.21144813 0.059175193 -0.18910348 0.13476391 0.21050757 -0.22529402 -0.1625834
0.06807409 -0.047602918 -0.16814736 -0.4117723 0.14559163 -0.028799012 -0.2028847 -0.2729325
-0.08364738 -0.13375153 0.30044243 -0.08687564 -0.12094121 0.045349915 0.07043928 -0.16341704
-0.38303727 -0.5385364 -0.020925557 0.114215866 -0.63514674 0.1629224 -0.11655145 -0.081719436
0.21292399 -0.04963347 -0.11474379 0.09341934 0.048918597 0.13089761 -0.53320515 0.37607765

fc2.bias f4 [84]
00000000: e7b4 243e bb5a 05bf 9ff9 91bf 8de0 163e
00000010: 0113 b8be e506 f1bd 3fca 3a3e aaa2 82be
00000020: 5ae2 6f3e 8c97 7bbd afba 40be 2514 15bf
00000030: 225c 963d 9ce8 48bf d48b debc 7a68 a93e
00000040: 886a 3cbd e1b2 f1be 5fad 8ebe eca4 10be
00000050: 352e 11bf c5cc 903d fb22 41bf c7e5 70bf
00000060: e51b 14bf 5e4c d7be f3c6 433e b4d6 41bd
00000070: 70b1 12bf fd3f d1be 7df7 8dbd d802 a1be
00000080: 7334 a3be b374 98bf 36f0 ad3c 62cc b23e
00000090: c7d5 f33e 7811 36be 0656 6f3e 7494 44bf
000000a0: afe3 9ebe be7a 093f d615 b63e d289 c4bc
000000b0: 46cc d3bd d177 2ebf 62f7 ecbc d7ce e93e
000000c0: 565c 02be 7d5d 2e3e 43d7 63bd 1123 51be
000000d0: 2f56 92be a7a3 0f3e 2d1f b73e d193 00bf
000000e0: 681d 5abb 68c8 21bd 968e 41be 939b 06bf
000000f0: 1f12 12be 002a 53be b479 dfbe 0c72 d9be
00000100: 589c bdbd 7e44 b7be a770 30bf 0632 2a3b
00000110: 192f 2cbf ed61 fabe 9b0c d4bc 0ca0 9ebe
00000120: d3e4 dd3d 69d9 da3d 9d99 fabe 033e 2abe
00000130: 2e1d 78be 98b0 61be eb49 8bbe 2ef2 a03e
00000140: 059a 62be 853c 633e 61c0 32bf 9fdd 87bf
0.16084634 -0.5209157 -1.1404303 0.14734097 -0.35952 -0.11768893 0.18241213 -0.25514728
0.2342619 -0.061423823 -0.18821214 -0.58233863 0.07341792 -0.78479934 -0.027166285 0.33087522
-0.046000034 -0.47206786 -0.27866647 -0.14125413 -0.5671113 0.07070307 -0.75444 -0.9410061
-0.57855064 -0.4205045 0.19118862 -0.047323897 -0.57302 -0.40869132 -0.0693197 -0.31447482
-0.31875953 -1.1910614 0.021232706 0.34921557 0.47624037 -0.17780101 0.23372659 -0.7678902
-0.31033084 0.53702915 0.35563534 -0.0239915 -0.103416964 -0.68151575 -0.028926555 0.4566562
-0.12730536 0.1702785 -0.05562521 -0.20423533 -0.28581378 0.14027272 0.35765973 -0.5022555
-0.0033281688 -0.039497763 -0.18902048 -0.5258114 -0.14264725 -0.2062149 -0.4364754 -0.42469823
-0.09258336 -0.35794443 -0.68921894 0.0025969758 -0.67259365 -0.48902836 -0.025884917 -0.3098148
0.108346604 0.10685999 -0.48945323 -0.16625218 -0.24229881 -0.22040021 -0.27204832 0.31434768
-0.22129066 0.22191055 -0.69824797 -1.0614508

fc3.weight f4 [10, 84]
00000000: 2dc7 48bd 15f9 5abe 77da c2bf db92 83be
00000010: 2db0 03bf eb7e 42be a7c1 23be a44a 0dbe
00000020: c740 8fbe ffeb 08bf c4cb f5be d17a 0cbb
00000030: 0094 05bf b27a 97bf 4544 98be 4d97 303d
00000040: 7747 3a3c 4b94 fcbe a4f4 4bbe d6b7 56bf
00000050: 2613 2abe d973 57be 4366 e8be cd0c b6be
00000060: ba6e 8abd de4a 91be 6bfd bdbe efa5 f3bc
00000070: 427b a2be 8334 0fbf 7caa 9dbe 966d 05bf
00000080: 08e7 21be 069d c9be 0ca8 c7be a012 93bd
00000090: 2608 d7bd 8e88 4fbe 188d 20bd aa56 71bf
000000a0: a0e4 05bf cd2b c2be fd62 f8be 2d31 15bf
000000b0: b870 cebe 6d82 4fbf 5656 f63c 1cfe db3a
000000c0: d693 bdbe d018 70be 4a31 99bd 3474 c83d
000000d0: 006f 4ebf f283 c23d 517b 8bbe 7b90 cbbe
000000e0: 7896 903c ee50 23bc e621 f8be 7198 edbe
000000f0: db59 97be 116b aabc bcdb 44bf 9207 46be
00000100: 8755 653c 01ac f3be 953c e3be 19b7 463d
00000110: 8ab5 98be c309 20bf cde3 6cbe 8ede 09bf
00000120: 32d5 52be 38dc 4abe 384c 8cbe 72bd 11be
00000130: 4418 dbbe 31cb f3be 66d3 99be 652b 97be
00000140: 559a d2be d505 6fbd 6f80 c1be 85a3 febe
00000150: 49f2 55be 33c2 cabf 2b37 dabf 20a0 9cbf
00000160: 7e02 87bf eb2e d43d 0a83 9abd 360a 68bd
00000170: 3836 89bf 8126 90be 0e8f a6bf b590 48bf
00000180: 07ca 72bd 64f9 35be 735c 8cbd 28cf bd3c
00000190: 2da2 53bc c448 38bf c0ec 34bf 78e3 00bd
000001a0: 8f7d efbe 1d04 17bd f9c0 ddbf 64d9 2ebd
000001b0: c5ea 6fbf f980 76bd daad f5bd d7b4 0ebf
000001c0: b129 9bbf 535c 83be 8cce dabd de50 30bf
000001d0: 3ce1 1abd d876 38bf 446c 79bf 5157 f7be
000001e0: 8ab3 923d 3b5b 23c0 8cf2 98bb f9e2 c5be
000001f0: 2e01 95be f88a ed3c 1927 0abf 8352 bcbe
00000200: 7a7e 57bf a2a7 67bf 3d0b 34bf faaf 73be
00000210: 48fd 1d3c b250 48bf e661 b7bf 2305 5dbf
00000220: 6bc6 83bf 754e e1be 4205 9ebe 0b95 0ebf
00000230: a93e ffbe b8fa 92be 0fa1 ac3d a5eb aabf
00000240: 1449 8abf c449 14bf bde5 0abf d37b 61bf
00000250: 10d7 03bf 80a2 9cbe 64d6 6dbe 03e9 2fbe
00000260: 906a 90bf d9a1 d03d d8ba 15bf dac3 a3be
00000270: 4e50 f6be 7ca8 01be 4dff fcbd a041 8abf
00000280: 3fce 2dbf 9c78 6cbe 56a8 4ebf 9778 6a3e
00000290: 9991 58bf 36b7 803d 9096 b5bf 6a26 f1bd
000002a0: 823f 82be 92d9 13be abc2 0bbf ab59 7ebe
000002b0: 098b 62bf 58fc 2dbc 45a3 c6be 2c14 b2be
000002c0: d62f 5eba 2b98 6abe 571c 28bd 982b 15bd
000002d0: 2299 0bbf 71d7 43bf deed 1fbe ecbc aabe
000002e0: 21c3 b7be 1fa5 84bf a726 3fbf 2af7 90bf
000002f0: 00a3 8fbd ef24 d1be edd5 b5be 492d 74bf
00000300: 230a 28be 702d 9cbe b835 debd e680 96bc
00000310: e46c 03be 1456 38bf 4725 45be f57a ffbe
00000320: 3df8 fdbd 316a ffbe d5bb 5cbf d528 1cbf
00000330: f44d b1be 882e f8be b684 92bc 4ce8 95bf
00000340: 2c72 56bf 938b 533d fe92 91be 7b5f 22bf
00000350: 47a6 44bf 6a58 71bf c467 d83d be99 7bbb
00000360: 2538 2cbe 92be 0cbe 8dd3 47bd c77c 833d
00000370: 95bf 0bbf 0b26 9f3d 5565 25bd a2df e2be
00000380: abb9 a8be d7ec 423d 0f4b 2bbe 4a2f 33bf
00000390: 4618 45bf 1103 ebbe 320f 45bf f00b 55be
000003a0: 9744 d8be 4fdd 3cbf 72f3 c5be 2eda 8d3d
000003b0: 362e 50be 058f 01bf a8db 333b 6e71 cfbe
000003c0: c4fc e9be 4b74 ebbe ebff 89bf f740 1bbf
000003d0: eec9 253d 1da4 c7be e1a3 09be 68f5 103d
000003e0: c5d6 7fbd 99a4 a7be 8a03 46be 03e7 1dbf
000003f0: 8dfb c93d 0274 0dbf 6dbf b5bf a15b 17bf
-0.049018074 -0.2138408 -1.522292 -0.2569798 -0.514407 -0.18993728 -0.15991841 -0.13798004
-0.2797911 -0.534851 -0.48007023 -0.002143551 -0.52178955 -1.1834319 -0.29739586 0.04311304
0.011369578 -0.4933189 -0.19917542 -0.8387426 -0.16608867 -0.21040286 -0.4539052 -0.3555664
-0.06759401 -0.28377432 -0.37107405 -0.02974221 -0.31734663 -0.559395 -0.30794132 -0.5212034
-0.15810788 -0.39377612 -0.38995397 -0.07181287 -0.10499601 -0.20266935 -0.039197057 -0.94272864
-0.5230198 -0.37924042 -0.48513022 -0.5827816 -0.40320373 -0.8105839 0.030070465 0.0016784105
-0.37026852 -0.23446965 -0.07480104 0.09787789 -0.8063812 0.09497823 -0.2724252 -0.39758667
0.017649874 -0.009968026 -0.48463362 -0.46405366 -0.29560742 -0.020803006 -0.7689779 -0.19338825
0.013997442 -0.47592166 -0.44382158 0.04851446 -0.29826003 -0.62514895 -0.23133774 -0.53855217
-0.2058914 -0.1981057 -0.274019 -0.14232424 -0.4279195 -0.4761596 -0.30044097 -0.29525295
-0.4113337 -0.05835517 -0.377933 -0.4973413 -0.20893206 -1.5840515 -1.7048086 -1.2236366
-1.0547636 0.103605114 -0.07544525 -0.056650363 -1.0719671 -0.28154376 -1.3012407 -0.78345805
-0.0592747 -0.17770916 -0.06853571 0.023170069 -0.012917084 -0.7198603 -0.7067375 -0.03146693
-0.4677548 -0.036869157 -1.7324516 -0.04268779 -0.93717605 -0.06018159 -0.1199605 -0.5574469
-1.2122098 -0.25656375 -0.10683927 -0.68873394 -0.037812456 -0.7205634 -0.97430825 -0.48308805
0.071631506 -2.5524433 -0.0046675857 -0.3864973 -0.29102463 0.02899693 -0.5396591 -0.367817
-0.8417736 -0.9049016 -0.7032965 -0.23797598 0.0096429065 -0.7824813 -1.4326751 -0.86335963
-1.0294927 -0.4400517 -0.30863386 -0.5569617 -0.49852493 -0.28706908 0.08429157 -1.3353163
-1.0803552 -0.5792506 -0.542568 -0.88079566 -0.51500034 -0.30592728 -0.23226315 -0.1717873
-1.128252 0.1018712 -0.58488226 -0.3198536 -0.48108143 -0.12661928 -0.12353382 -1.0801277
-0.6789283 -0.23092884 -0.8072561 0.22897564 -0.84597164 0.06284945 -1.4186573 -0.11774905
-0.25439078 -0.14438465 -0.54593915 -0.24838893 -0.884934 -0.0106192455 -0.3879644 -0.34781015
-0.0008475756 -0.2290961 -0.041042652 -0.036418527 -0.5453054 -0.7650061 -0.15618083 -0.3334726
-0.3589106 -1.0362891 -0.74668354 -1.1325428 -0.07013512 -0.4084849 -0.35514775 -0.953816
-0.16410117 -0.30503416 -0.1085009 -0.01837201 -0.12834507 -0.72006345 -0.19252501 -0.49898496
-0.12400863 -0.49885705 -0.8622411 -0.60999805 -0.34629786 -0.48473 -0.017885547 -1.1711516
-0.8376796 0.05164678 -0.2843246 -0.6342694 -0.7681622 -0.94275534 0.10566667 -0.0038391198
-0.16818292 -0.13744572 -0.048785735 0.06420284 -0.54589206 0.07770928 -0.04037984 -0.44311243
-0.32954153 0.04758915 -0.16727851 -0.6999403 -0.76990163 -0.45900777 -0.7697631 -0.20805335
-0.4223983 -0.7377519 -0.38662297 0.0692638 -0.20330128 -0.50608855 0.0027444158 -0.40516227
-0.45700657 -0.45987162 -1.0781225 -0.60646003 0.04047578 -0.38992396 -0.13441421 0.035390288
-0.06246068 -0.32742766 -0.19337288 -0.6168062 0.09862433 -0.5525514 -1.4199044 -0.5912419

fc3.bias f4 [10]
00000000: c970 ff3b 93a1 bebe 293a 56bd 3fe2 953e
00000010: a2ae 71bd 9497 69be 4073 253e 8324 583e
00000020: d342 3dbd b7c2 07bf
0.0077954275 -0.37232646 -0.05230156 0.29274175 -0.059004433 -0.22811729 0.16157246 0.21107678
-0.046206307 -0.53031486
