fashionmnist_net_adam_4.pth (torch, 181139 bytes, 10 tensors)

conv1.weight f4 [6, 1, 5, 5]
0	0xbd7b47f3	-0.061347913
1	0x3d694757	0.0569528
2	0xbd1fa494	-0.038975313
3	0x3d91f177	0.07126134
4	0xbd02fde6	-0.031980418
5	0x3bfb1823	0.0076627894
6	0xbd007649	-0.031362806
7	0xbe5c7aa5	-0.2153116
8	0xbed562f8	-0.4167707
9	0xbe989bbb	-0.29806313
10	0xbcb07df5	-0.021544436
11	0xbd36208d	-0.044464637
12	0xbdbf3a10	-0.093372464
13	0xbea8f019	-0.3299568
14	0xbde78f8c	-0.11306676
15	0xba878439	-0.0010339088
16	0x3d4b615d	0.0496534
17	0x3d04c56b	0.032414835
18	0xbd464093	-0.048401427
19	0xbc81ed7a	-0.015860308
20	0x3cb5e9c7	0.0222062
21	0xbd9c4471	-0.07630242
22	0x3c423259	0.011852824
23	0xbb02079a	-0.0019840957
24	0x3e22e5dc	0.15907997
25	0x3c4b70da	0.012417043
26	0x3df514fb	0.11966892
27	0x3a620e0c	0.0008623309
28	0xbd3f5aa8	-0.046717316
29	0xbd4d05a3	-0.050054204
30	0xbc7e9ee0	-0.015540808
31	0x3dddeafb	0.108358346
32	0x3e7ea4c9	0.24867548
33	0xbea8db1b	-0.32979664
34	0xbcc2d728	-0.023784235
35	0xbd7035ed	-0.058645178
36	0x3dccee01	0.10006333
37	0x3ebf918f	0.3741574
38	0xbeb053f5	-0.34439054
39	0xbe0a8ba5	-0.13529833
40	0xbd73852d	-0.05945318
41	0x3e92f5bc	0.28703105
42	0x3d15d818	0.036583036
43	0xbe13f743	-0.14449792
44	0xbe7c7be8	-0.24656641
45	0x3d75c078	0.059998006
46	0x3d9dc5ec	0.07703766
47	0xbcc2fc38	-0.023801908
48	0x3dd3f83a	0.1035008
49	0xbd833480	-0.06406498
50	0xbd1758e6	-0.036950015
51	0x3e64e27f	0.22352026
52	0x3e18b63c	0.14913267
53	0x3e6a355d	0.22871919
54	0xbe8d86b8	-0.27641845
55	0xbe17d8ec	-0.14828843
56	0x3d40a426	0.047031544
57	0xbe5a86a2	-0.21340421
58	0x3dca79cf	0.098865144
59	0xbdc2b596	-0.09507291
60	0xbdeb2439	-0.11481518
61	0x3ccb9da2	0.024855439
62	0x3dd4c11c	0.10388395
63	0x3d53ba74	0.051691487
64	0x3df74728	0.12074119
65	0xbcc1e179	-0.023667084
66	0xbdf99737	-0.12187045
67	0xbd9a22f6	-0.075261995
68	0x3e3c9c2f	0.18418954
69	0x3e025a83	0.1272984
70	0x3d79adc9	0.06095675
71	0xbca9d3bf	-0.020730851
72	0x3e06f3d5	0.13178952
73	0xbcfbf685	-0.030757198
74	0x3d350801	0.044197086
75	0x3d8a4303	0.06751063
76	0x3e021216	0.12702212
77	0xbd13e5fc	-0.036108002
78	0x3d5ab1dd	0.05339228
79	0x3d8bfaac	0.06834921
80	0xbcb9c717	-0.022677941
81	0x3d1b0e69	0.03785554
82	0x3de82975	0.11336032
83	0x3e033333	0.128125
84	0x3c840eb6	0.016120296
85	0xbe7c46fc	-0.24636453
86	0xbeb01133	-0.34388122
87	0x3e87d663	0.26530752
88	0x3e1d20b0	0.153445
89	0x3ddf7e52	0.109127656
90	0xbe634878	-0.22195613
91	0xbedeb337	-0.43496105
92	0x3d802318	0.062566936
93	0x3e518477	0.20460688
94	0xbc314f30	-0.010822102
95	0xbe32ac5e	-0.17448565
96	0xbe5e38d1	-0.21701361
97	0xbd48e77b	-0.049048882
98	0x3e617bcb	0.2201988
99	0x3dfe4454	0.12415376
100	0xbccdf3ab	-0.025140604
101	0x3e13d8f6	0.14438233
102	0xbe8d1eae	-0.2756247
103	0x3dd1fe14	0.1025354
104	0x3e5d3bcf	0.21604846
105	0x3da50250	0.08057082
106	0xbe193e20	-0.14965105
107	0x3cfef614	0.031123199
108	0x3d09c978	0.0336394
109	0x3df25c00	0.11833954
110	0xbe4a8950	-0.19778943
111	0xbbdc1b96	-0.0067171557
112	0x3e2d660e	0.16933462
113	0x3e340c7c	0.17582887
114	0xbd8811b3	-0.06644001
115	0x3de5c642	0.11219455
116	0x3e53feed	0.20702715
117	0xbddbd2a5	-0.10733537
118	0x3e1b4d14	0.15166122
119	0xbe44c512	-0.19215801
120	0x3b6bff35	0.003601027
121	0x3c91dad4	0.01780454
122	0xbdde0e75	-0.10842601
123	0x3c05b9f5	0.008162011
124	0xbe5cbcac	-0.21556348
125	0xbbc49892	-0.005999633
126	0x3d9dcffa	0.07705684
127	0x3d5c2b51	0.053752247
128	0xbbc4d4bc	-0.006006805
129	0xbdda13ad	-0.10648284
130	0x3d2f6922	0.04282487
131	0x3db46dd4	0.088100106
132	0x3d280ae5	0.041026015
133	0x3cd274a7	0.02569039
134	0x3b01c486	0.0019800975
135	0x3daf8eef	0.08572184
136	0x3e0efb47	0.13963042
137	0x3bb4c6b5	0.005516852
138	0x3d3a43e5	0.045474906
139	0xbca65dec	-0.020308457
140	0x3d43eab6	0.04783126
141	0x3dfcac79	0.12337584
142	0x399ac8ac	0.0002952268
143	0x3d5a2e9a	0.0532671
144	0xbd37dc14	-0.044887617
145	0xbce6672d	-0.02812537
146	0x3e338a71	0.1753328
147	0x3dceda4d	0.10100231
148	0x3cc7b65c	0.024378948
149	0xbc94e2fc	-0.01817464

conv1.bias f4 [6]
0	0xbf74db13	-0.9564678
1	0xbcd3e825	-0.025867531
2	0xbed3f457	-0.41397354
3	0xbd5a8ae6	-0.05335512
4	0xbd012bcc	-0.03153591
5	0xbea3e6d0	-0.32012033

conv2.weight f4 [16, 6, 5, 5]
0	0xbd6f002c	-0.058349773
1	0xbdb57886	-0.08860879
2	0xbe0e26ee	-0.13882038
3	0xbbf369d8	-0.007428389
4	0x3e041ba0	0.12901163
5	0x3dcc9176	0.09988682
6	0x3e192629	0.14955963
7	0xbc5112a9	-0.012760797
8	0x3d98ef7e	0.074675545
9	0x3dcfe1bc	0.10150477
10	0x3e3430f7	0.17596804
11	0xbcec7758	-0.028865501
12	0xbd8803c1	-0.06641341
13	0x3ea18e64	0.31553948
14	0x3e961e32	0.29319912
15	0x3e6651fa	0.22492209
16	0xbca2128e	-0.019784238
17	0x3d7c2504	0.06155874
18	0x3ea3a4e5	0.31961742
19	0x3e318fb4	0.17339975
20	0x3bcc2418	0.0062298886
21	0xbde98c9f	-0.114037745
22	0xbe3ed05c	-0.1863417
23	0x3dee3f09	0.11633117
24	0x3e6a755f	0.22896336
25	0x3c89a362	0.01680154
26	0xbe03141a	-0.12800637
27	0xbeb53643	-0.3539296
28	0xbe9dd81a	-0.30828935
29	0xbc1cad40	-0.00956279
30	0x3a666ab5	0.00087897043
31	0xbe537a16	-0.20652041
32	0xbbbe2d82	-0.005803765
33	0xbd9eeb8e	-0.07759772
34	0x3dc3e947	0.095659785
35	0x3c821316	0.015878242
36	0xbd953c51	-0.07286895
37	0x3e0f51c0	0.13996029
38	0x3e3ce660	0.18447256
39	0x3d086d43	0.033307325
40	0xbeb4174d	-0.35174027
41	0xbdbe04cd	-0.092782594
42	0x3dea9820	0.11454797
43	0x3e3703e4	0.17872578
44	0xbd6b6bbb	-0.057475787
45	0xbe8aaee4	-0.27086556
46	0x3d306632	0.04306621
47	0xbbb419e1	-0.005496249
48	0x3b979cd0	0.004626848
49	0x3d9f867c	0.07789323
50	0xbf2efc27	-0.68353504
51	0xbed03f69	-0.40673378
52	0xbeb39dc8	-0.35081315
53	0xbf579f39	-0.8422733
54	0xbf315d30	-0.6928282
55	0xbe381a3e	-0.1797876
56	0xbe84f1d4	-0.2596575
57	0xbec3e0d5	-0.3825747
58	0xbebbe5d0	-0.3669877
59	0x3e1a1d14	0.15050155
60	0xbe6b2e80	-0.22966957
61	0xbb716f93	-0.0036840185
62	0xbef01e57	-0.46898147
63	0x3d387084	0.04502918
64	0xbdee332c	-0.11630854
65	0xbf0832d6	-0.5320257
66	0xbe682049	-0.22668566
67	0xbe0ca704	-0.13735586
68	0xbd31c464	-0.043400183
69	0x3e7834c7	0.24238883
70	0xbd8ce46e	-0.06879507
71	0xbe1aee1d	-0.15129896
72	0xbc6d86d3	-0.014497477
73	0x3d4a8478	0.04944274
74	0xbbda8922	-0.0066691795
75	0xbe6ce0b7	-0.23132597
76	0xbd9193ee	-0.071082935
77	0xbde3dcb0	-0.11126077
78	0xbe510b88	-0.20414555
79	0x3d266380	0.040622234
80	0xbe97449b	-0.2954453
81	0x3ddac0ea	0.10681327
82	0xbe038348	-0.12843049
83	0xbe5ea404	-0.21742254
84	0x3d8f8b8e	0.0700904
85	0x3bd275f4	0.0064227525
86	0x3e82e120	0.25562382
87	0xbc5a1d2a	-0.013312617
88	0xbe00ba7a	-0.12571135
89	0x3c3c8523	0.011506352
90	0xbc930e1f	-0.01795107
91	0x3dd781d7	0.10522812
92	0x3d9fb368	0.07797891
93	0xbe54d673	-0.20784931
94	0xbeb11b43	-0.34591112
95	0x3dbd21a2	0.092349306
96	0xbacf098d	-0.0015795693
97	0xbdb1a8e0	-0.086747885
98	0xbd7e2f25	-0.06205668
99	0xbf005017	-0.5012221
100	0x3d4a43dd	0.049381126
101	0xbcbd2534	-0.023089029
102	0x3d8a0bfd	0.06740568
103	0xbe751497	-0.23933636
104	0xbe0f6cd0	-0.14006352
105	0xbe8c244c	-0.27371442
106	0x3e03dacd	0.12876435
107	0xbddd96d4	-0.10819784
108	0xbd32d113	-0.04365642
109	0x3b93004b	0.004486119
110	0xbcb4abbb	-0.022054544
111	0xbb0a1193	-0.0021067604
112	0xbdcf3d2d	-0.1011909
113	0xbe5c0c79	-0.21489133
114	0xbe13ba63	-0.1442657
115	0x3d556675	0.052099664
116	0x3db11f8c	0.08648595
117	0xbe17b32e	-0.14814445
118	0xbe56620e	-0.20935842
119	0xbe156440	-0.14589024
120	0x3be1cb8a	0.006890719
121	0x3e14009a	0.14453354
122	0xbc7e436c	-0.015519004
123	0xbe51f682	-0.20504192
124	0xbe1392d7	-0.14411484
125	0xbeafb93e	-0.34321016
126	0xbf443ed1	-0.7665835
127	0xbef3cea0	-0.4761858
128	0xbf6344a5	-0.8877662
129	0xbf6d7f29	-0.92772156
130	0xbe844c92	-0.2583967
131	0xbf3a18cb	-0.7269408
132	0xbee926d4	-0.45537436
133	0xbf11d754	-0.5696919
134	0xbf1f6e2c	-0.62277484
135	0xbe09f40f	-0.13472007
136	0xbef3334b	-0.4750007
137	0xbe326dad	-0.1742465
138	0xbefc7433	-0.49307403
139	0xbe2c957c	-0.16853899
140	0xbed6262a	-0.41825992
141	0xbf116778	-0.56798506
142	0xbeb0903a	-0.34485036
143	0xbf05dda4	-0.5229132
144	0xbec98b0c	-0.39363897
145	0xbe74a8b8	-0.23892486
146	0xbee5f276	-0.44911546
147	0xbf001e5c	-0.50046325
148	0xbeee7120	-0.46570683
149	0xbed3d792	-0.41375405
150	0xbd7d8630	-0.06189555
151	0x3bad4be0	0.005288586
152	0x3e5536e5	0.20821722
153	0x3e0e78a8	0.13913214
154	0xbe0fbc3e	-0.14036652
155	0xbe49334f	-0.19648479
156	0xbe9e18a4	-0.30878174
157	0x3dbd24b0	0.09235513
158	0x3e539908	0.20663846
159	0xbcbbd1e3	-0.02292723
160	0x3cfbc9da	0.030735899
161	0xbd9fbf1f	-0.07800125
162	0x3e26cf9e	0.16290137
163	0x3e6dba50	0.23215604
164	0x3e2c6eaf	0.16839097
165	0x3eb8733f	0.36025426
166	0xbe27fd70	-0.16405272
167	0xbe62987f	-0.22128485
168	0x3e602a51	0.21891142
169	0x3e0019f5	0.12509902
170	0x3ee8eeac	0.45494592
171	0x3dcf631e	0.10126327
172	0xbe8618de	-0.26190847
173	0xbc9a90e6	-0.018867921
174	0x3d93d887	0.07219034
175	0x398fb8ef	0.00027412872
176	0xbd2bdede	-0.04196059
177	0x3d6b7854	0.0574878
178	0xbe8b9d3d	-0.272684
179	0xbe8c2530	-0.27372122
180	0xbe44d83f	-0.19223116
181	0xbd9c6e4e	-0.076382264
182	0x3e2884b4	0.16456872
183	0xbe1dbbd2	-0.15403679
184	0xbef1f747	-0.4725897
185	0xbdba5b1e	-0.090994105
186	0xbd4c7356	-0.04991468
187	0x3e7920dc	0.24328941
188	0x3e1d8064	0.15381008
189	0xbe2396ed	-0.15975542
190	0x3dcfdced	0.1014956
191	0xbdeaaf49	-0.11459214
192	0x3d56ef05	0.05247404
193	0x3d817b42	0.06322338
194	0xbdf76183	-0.12079146
195	0x3ddefe69	0.10888369
196	0x3e2a7746	0.16647062
197	0x3ddb5e67	0.10711365
198	0x3d549d45	0.051907796
199	0x3d6fd912	0.058556624
200	0x3c8171e5	0.01580138
201	0xbe7e0f26	-0.24810466
202	0xbde3d196	-0.1112396
203	0xbdcdca83	-0.10048392
204	0xbe89e407	-0.26931784
205	0xbe43c8b6	-0.19119534
206	0xbdf056be	-0.11735295
207	0x3d498865	0.04920234
208	0x3e8a668a	0.27031356
209	0xbc95c88d	-0.018284107
210	0xbd356740	-0.04428792
211	0xbcf4baf0	-0.029874295
212	0x3da8f205	0.082492866
213	0xbe2c4093	-0.16821508
214	0x3e888036	0.26660317
215	0x3d2445e2	0.040105708
216	0x3b8c93b8	0.0042900704
217	0x3c57c2fb	0.013169046
218	0xbd8a7e0f	-0.06762325
219	0xbd8a2bb6	-0.067466184
220	0x3eae0d5c	0.33994567
221	0xbc8e6060	-0.01737994
222	0xbcba1fa6	-0.02272017
223	0xbdc5b6b9	-0.09653992
224	0xbe9747ea	-0.29547054
225	0x3dc2fa1e	0.09520362
226	0xbed9b7b4	-0.42522967
227	0xbf078b95	-0.5294736
228	0xbd8a5888	-0.06755167
229	0x3e917422	0.28408915
230	0x3dd17639	0.10227627
231	0x3cbfb056	0.023399513
232	0xbeace756	-0.33770245
233	0xbe05f2af	-0.13080858
234	0x3e4732d5	0.19452985
235	0x3d709a6b	0.058741014
236	0x3e5823d4	0.21107417
237	0x3db32c7a	0.087487176
238	0xbf4f96c6	-0.81089437
239	0x3dfe2602	0.12409593
240	0x3d4d24a4	0.05008377
241	0x3e794347	0.2434207
242	0x3e677d13	0.22606306
243	0xbd8cd975	-0.06877414
244	0xbe8f4b3f	-0.27987096
245	0x3c825c51	0.01591316
246	0x3db11fb9	0.08648629
247	0x3df81b26	0.12114553
248	0x3deaef98	0.1147148
249	0xbe837146	-0.25672358
250	0xbebc9037	-0.36828777
251	0xbeac4710	-0.33647966
252	0x3d8a3b8f	0.06749641
253	0x3e2b51e8	0.16730464
254	0x3e118ec1	0.14214613
255	0x3cc4108c	0.023933671

conv2.bias f4 [16]
0	0x3d85eb18	0.06538981
1	0xbede6fde	-0.43444723
2	0x3dc20e51	0.09475387
3	0x3ef19b9f	0.47189042
4	0x3e5a9c82	0.21348765
5	0xbeb95001	-0.3619385
6	0x3ec41d3d	0.38303557
7	0xbe223328	-0.15839827
8	0xbe2a33ed	-0.1662137
9	0xbed978b2	-0.42474896
10	0x3e74db14	0.23911697
11	0x3e697212	0.2279742
12	0xbe7d4b31	-0.24735714
13	0xbe8a0a04	-0.26960766
14	0xbe39e62d	-0.18154211
15	0xbed004c5	-0.4062864

fc1.weight f4 [120, 256]
0	0x3d9b19ba	0.07573266
1	0x3e5b2fda	0.21404973
2	0xbe066dca	-0.13127819
3	0x3dc4090b	0.09572037
4	0x3e8b495f	0.27204415
5	0x3ee4bec9	0.44676808
6	0x3ded4840	0.11586046
7	0xbd943797	-0.072371654
8	0x3dfdb5f5	0.12388221
9	0x3f076bd3	0.528989
10	0x3d19bf6f	0.03753608
11	0xbeb5f9ab	-0.35542044
12	0xbde0c7b0	-0.10975587
13	0xbbcf8cbc	-0.0063339155
14	0xbe727b2b	-0.23679797
15	0xbe03bb39	-0.12864389
16	0xbe3e6ee3	-0.18596987
17	0x3e47b452	0.1950238
18	0xbd49bba8	-0.04925123
19	0xbe3f6225	-0.18689783
20	0xba632e6b	-0.00086662796
21	0x3ed6c884	0.41949856
22	0xbcff5141	-0.031166675
23	0x3d23a0f7	0.03994843
24	0x3e15f90e	0.14645788
25	0x3e21e9fd	0.15811916
26	0x3ed88d98	0.42295527
27	0xbdc06fd2	-0.09396328
28	0xbedec6f4	-0.43511164
29	0xbe9836fb	-0.29729447
30	0x3dc0b039	0.09408612
31	0x3d220c53	0.039562535
32	0x3cf84b34	0.030309297
33	0xbe2438a1	-0.16037227
34	0x3c0a39e1	0.008436651
35	0xbddde061	-0.108338125
36	0xbc712c4d	-0.014720035
37	0x3d846ace	0.06465684
38	0xbe190f4c	-0.14947242
39	0xbed494d9	-0.41519812
40	0x3e9b1ea4	0.30296814
41	0x3ccff69e	0.02538615
42	0xbdf75c6b	-0.12078174
43	0xbe81ebef	-0.25375316
44	0x3c0afa3e	0.008482514
45	0xbe9a5103	-0.30139932
46	0xbe16c56e	-0.14723751
47	0xbe48d668	-0.1961304
48	0x3bf6ced5	0.0075319805
49	0x3e016d8f	0.1263945
50	0x3d8e085c	0.06935188
51	0x3ceddda4	0.02903635
52	0x3eb25aa3	0.34834775
53	0xbec5dc21	-0.38644508
54	0xbe9d71a4	-0.30750763
55	0xbe76b0d2	-0.24090889
56	0x3ec37e69	0.3818238
57	0xbdc3117a	-0.09524818
58	0xbe14952e	-0.14510033
59	0xbe8afb33	-0.27144775
60	0x3dba8db8	0.09109062
61	0x3e171139	0.14752664
62	0xbccede1c	-0.025252394
63	0xbe88a063	-0.26684865
64	0x3e95ebee	0.29281563
65	0x3dc9f67f	0.098614685
66	0x3e64be39	0.22338189
67	0xbda1664a	-0.07880838
68	0x3c8ecbb9	0.017431127
69	0xbd8fd30f	-0.07022678
70	0x3db2edb5	0.08736745
71	0xbeaa7568	-0.332927
72	0xbe8ae1c2	-0.27125365
73	0xbd816ac1	-0.0631919
74	0x3e5b7315	0.21430619
75	0xbdc4ea8f	-0.09615051
76	0x3da83099	0.08212394
77	0xbe4bee5a	-0.19915143
78	0x3d8ed400	0.069740295
79	0x3e1e4928	0.15457594
80	0x3ee61a6d	0.44942036
81	0x3dfa3797	0.12217634
82	0x3cda767c	0.026667826
83	0xbc2598d3	-0.010107237
84	0x3ebe2a1b	0.371415
85	0xbd531986	-0.051538013
86	0xbdecbaa3	-0.11559036
87	0x3e344279	0.17603482
88	0x3e186e6f	0.14885877
89	0x3e07bb94	0.13255149
90	0xbe691d60	-0.22765112
91	0xbe87d2ca	-0.26528007
92	0xbecb13d0	-0.39663553
93	0xbdabce46	-0.08388953
94	0xbdf5c3a1	-0.12000204
95	0xbe523439	-0.20527734
96	0xbe8d4ac1	-0.27596095
97	0xbd9b6160	-0.07586932
98	0xbd25470b	-0.040350955
99	0xbe23231e	-0.15931365
100	0xbe584643	-0.21120553
101	0x3d72b171	0.059251253
102	0x3e77b44c	0.24189872
103	0x3eb592e7	0.3546364
104	0x3dbc5f74	0.09197894
105	0xbeb80634	-0.35942233
106	0xbf1ce8e1	-0.61292845
107	0xbe8fe1ad	-0.28101864
108	0xbe89292f	-0.26789233
109	0xbe3e5f19	-0.18590964
110	0xbe79debc	-0.24401373
111	0xbd831023	-0.06399562
112	0xbe570abf	-0.21000193
113	0x3e19547c	0.14973634
114	0x3e5a37fd	0.2131042
115	0x3ed1b4bd	0.40958205
116	0xbe0c48d3	-0.13699655
117	0x3d8fa84e	0.070145234
118	0xbd000f96	-0.031264864
119	0x3e03f55c	0.12886566
120	0x3e342796	0.17593226
121	0x3e2646d4	0.16237956
122	0x3cf84a29	0.0303088
123	0x3d7ec4e2	0.06219948
124	0x3de54bba	0.11196084
125	0x3c9232ec	0.017846547
126	0x3e17a350	0.14808393
127	0x3b82c61f	0.003990903
128	0xbc246793	-0.01003446
129	0xbede5289	-0.43422344
130	0xbed479ba	-0.4149912
131	0x3e5935ea	0.21211973
132	0x3e29c56c	0.16579217
133	0xbd6d3c5d	-0.057918895
134	0x3e09e864	0.13467556
135	0x3ede6f90	0.4344449
136	0x3e8735f7	0.2640836
137	0xbdfedcc1	-0.12444449
138	0x3de0bc82	0.10973455
139	0x3ee46d19	0.44614485
140	0xbdf64de4	-0.12026575
141	0xbeaddda8	-0.33958173
142	0xbe45b78b	-0.19308297
143	0x3daafdf0	0.08349216
144	0xbece0626	-0.40239066
145	0xbe07fbda	-0.13279667
146	0xbe57ad8a	-0.21062294
147	0xbe90c0a0	-0.2827196
148	0xbda8c0ee	-0.082399234
149	0xbdcdeef3	-0.100553416
150	0x3da0e9a0	0.078570604
151	0x3df84124	0.121217996
152	0xbe9b1a95	-0.30293718
153	0xbdf26e5f	-0.11837458
154	0x3dd34abb	0.10316988
155	0x3e7667c3	0.2406302
156	0x3d9dfe64	0.07714537
157	0x3e4e4d04	0.20146567
158	0xbd17c847	-0.037056234
159	0xbe4920b2	-0.19641379
160	0xbed674a4	-0.41885865
161	0xbdbc2470	-0.091866374
162	0x3dc44d21	0.09585024
163	0x3e4e0553	0.20119219
164	0xbe897f6c	-0.26855028
165	0xbcf7d457	-0.030252619
166	0xbe06df5e	-0.13171145
167	0xbda25b02	-0.079275146
168	0xbec1114f	-0.37708518
169	0xbcd1ad41	-0.02559531
170	0x3dbee2c8	0.09320599
171	0xbdb69607	-0.08915334
172	0xbec5c8d8	-0.38629794
173	0x3ca99960	0.020703018
174	0x3e26b472	0.16279772
175	0x3e2b37e2	0.16720536
176	0xbf3f5244	-0.747349
177	0xbd26e926	-0.04074969
178	0xbeb4fe70	-0.3535037
179	0xbeb16edc	-0.34654891
180	0xbe033ea6	-0.12816867
181	0xbdaaae51	-0.083340295
182	0xbd816df8	-0.06319803
183	0xbdefed71	-0.1171521
184	0xbeb82145	-0.35962883
185	0x3c48a5f1	0.012246595
186	0x3e158a4f	0.14603542
187	0x3dfae3ab	0.122504555
188	0x3d2d0956	0.04224523
189	0x3df49fae	0.11944519
190	0xbe1f1f7c	-0.15539354
191	0xbcd156b4	-0.025554039
192	0xbd06f2f6	-0.03294655
193	0x3d85a036	0.065246984
194	0x3ce3ca57	0.027806444
195	0xbe770fd4	-0.24127132
196	0xbd9770f1	-0.07394589
197	0x3e206d8f	0.15666793
198	0x3ebec36e	0.37258476
199	0xbdbac945	-0.0912042
200	0xbe482dec	-0.19548768
201	0xbe40ca2a	-0.1882712
202	0x3d47c7b1	0.048774425
203	0x3e13b783	0.14425473
204	0xbdbec65f	-0.0931518
205	0x3c7799bc	0.015112337
206	0x3cdf5b56	0.027265232
207	0xbda437a8	-0.08018428
208	0xbe0e3f2e	-0.13891289
209	0xbddd75b6	-0.10813467
210	0xbec41d0f	-0.3830342
211	0xbe93eb64	-0.28890526
212	0xbe664019	-0.22485389
213	0x3cdd4018	0.027008101
214	0xbeaac043	-0.3334981
215	0xbe8c53bd	-0.27407637
216	0x3e38895c	0.18021148
217	0x3e29e55f	0.16591404
218	0x3db12cb7	0.08651107
219	0xbe6e66ec	-0.23281449
220	0x3c6d8e07	0.014499194
221	0xbd1a8ddc	-0.037732944
222	0x3e43f1cd	0.19135208
223	0x3c1d35a4	0.009595308
224	0xbc34f21a	-0.01104405
225	0xbdbf0124	-0.093263894
226	0xbb8b0289	-0.0042422456
227	0xba763b6e	-0.0009393011
228	0xbd9e097f	-0.07716655
229	0xbd0b1985	-0.033959884
230	0x3e20bbac	0.15696591
231	0x3e83f038	0.2576921
232	0x3e5ff5b3	0.2187107
233	0x3d99a62c	0.07502398
234	0x3a1cdf56	0.00059842074
235	0xbcee1ceb	-0.029066524
236	0xbdb8b840	-0.09019518
237	0xbeb32c46	-0.34994715
238	0xbde6263a	-0.1123776
239	0x3d90bdff	0.07067489
240	0x3c4afaa4	0.012388859
241	0x3d09eaad	0.03367107
242	0xbe08e757	-0.13369499
243	0x3e9a8f1b	0.30187306
244	0x3d2af82f	0.041740593
245	0x3e4bbd51	0.19896437
246	0x3e0e8f15	0.13921769
247	0xbd67d321	-0.056597833
248	0x3ddecde6	0.10879116
249	0x3e52713d	0.2055101
250	0x3d859b8b	0.06523808
251	0xbeb06659	-0.34453085
252	0xbd1c6714	-0.03818424
253	0xbe0a9983	-0.13535123
254	0x3e94f373	0.29091987
255	0xbeec4103	-0.4614335

fc1.bias f4 [120]
0	0xbe69caf5	-0.22831328
1	0xbd86edc3	-0.06588318
2	0xbea034ca	-0.31290275
3	0xbd0c28a4	-0.034218445
4	0xbd079e2c	-0.03310983
5	0xbd67d51d	-0.056599725
6	0x3e0701e6	0.13184318
7	0x3e7aead1	0.24503638
8	0xbe18202a	-0.1485602
9	0xbe2081da	-0.15674534
10	0x3ca658e2	0.020306055
11	0xbdd7e9b8	-0.10542625
12	0xbe9044d6	-0.28177518
13	0xbd2abc37	-0.041683402
14	0x3f1e66e4	0.6187575
15	0xbe47b4ca	-0.1950256
16	0x3e04e936	0.12979588
17	0xbea8ad83	-0.3294488
18	0xbe6d6b5a	-0.23185483
19	0xbcf9e8ed	-0.030506575
20	0xbd828adf	-0.06374144
21	0xb7ff34c8	-3.0422947e-05
22	0xbe69b270	-0.22821975
23	0xbde1f40b	-0.110328756
24	0xbc4efb14	-0.012633104
25	0xbe3d5365	-0.18488844
26	0x3e9ec6c9	0.31011036
27	0xbecd2a3e	-0.4007129
28	0xbcc7ecb1	-0.024404855
29	0xbdbe3748	-0.09287888
30	0xbd8d39e4	-0.068958074
31	0xbd734412	-0.05939109
32	0xbea80ab7	-0.32820675
33	0x3b057156	0.0020361743
34	0xbd5c0263	-0.053713214
35	0x3cf1c532	0.029512975
36	0xbc3f2ff5	-0.011669149
37	0x3d3fa7a5	0.046790738
38	0xbde6ff22	-0.112791315
39	0x3c38ab9b	0.011271383
40	0xbc91927e	-0.017770048
41	0xbd2d3cf9	-0.042294476
42	0xbeb21b7c	-0.34786594
43	0xbb3dd4e9	-0.0028966016
44	0xbe81e437	-0.25369427
45	0xbe391835	-0.1807564
46	0xbea28899	-0.3174484
47	0x3cdf809f	0.027283011
48	0x3e703f4d	0.23461647
49	0xbd8b7baa	-0.068106964
50	0xbd9c1e71	-0.07622994
51	0x3db59c8a	0.08867748
52	0x3ddb7c1a	0.1071703
53	0xbc710501	-0.014710666
54	0xbd1cabab	-0.038249653
55	0xbdca7a1a	-0.0988657
56	0xbe68bc68	-0.22728121
57	0xbe28c938	-0.16483009
58	0xbda96a8f	-0.082722776
59	0x3e4afeda	0.1982378
60	0x3d505075	0.05085798
61	0xbee04189	-0.438
62	0xbe7078ba	-0.23483554
63	0xbea0729c	-0.3133744
64	0xbd7e4e04	-0.06208612
65	0x3d2ab108	0.041672736
66	0xbea0dfed	-0.31420842
67	0xbe733344	-0.23750025
68	0x3ec9cf41	0.39415935
69	0x3dc03fa0	0.093871355
70	0xbcb6c316	-0.022309821
71	0xbe1a05da	-0.15041295
72	0x3e1dbbf2	0.15403727
73	0x3f068d2a	0.5255915
74	0xbda19b43	-0.07890942
75	0xbe155908	-0.14584744
76	0xbc5da787	-0.013528711
77	0x3dec4b17	0.1153776
78	0xbdd01682	-0.10160543
79	0xbda14878	-0.078751504
80	0xbea9e875	-0.33185163
81	0xbdc6f3ba	-0.09714456
82	0xbd0cca9a	-0.034372903
83	0xbe7f9909	-0.24960722
84	0xbdf5976b	-0.11991771
85	0x3e070367	0.13184892
86	0x3d83d822	0.064377084
87	0xbe94ac2d	-0.2903761
88	0xbe11dd88	-0.14244664
89	0xbd4dcc94	-0.05024393
90	0xbadc31f6	-0.0016799557
91	0x3d9092da	0.0705926
92	0xbc167bc6	-0.009184783
93	0xbd6bd54c	-0.057576463
94	0xbe32b7e0	-0.17452955
95	0xbe446c24	-0.19181877
96	0xbd8b63c9	-0.06806142
97	0x3edb7e9b	0.4287003
98	0x3c9b9bfb	0.018995276
99	0x3e8e5243	0.27797136
100	0xbda91eae	-0.08257805
101	0xbebea018	-0.37231517
102	0xbd8cd869	-0.068772145
103	0x3e47efde	0.19525096
104	0xbe379a67	-0.17929994
105	0xbe819077	-0.2530553
106	0x3e80d362	0.25161272
107	0x3c8a6df5	0.016898135
108	0xbdc7c10f	-0.0975362
109	0xbe47778e	-0.194792
110	0xbeede7c7	-0.46465895
111	0xbe9cee60	-0.30650616
112	0xbd89ac8e	-0.06722365
113	0xbe2350c7	-0.15948783
114	0x3e56a6a1	0.20962001
115	0xbddc6746	-0.10761885
116	0xbd90306a	-0.07040484
117	0xbd0e55aa	-0.034749664
118	0xbeaa13ef	-0.33218333
119	0xbda12f17	-0.0787031

fc2.weight f4 [84, 120]
0	0x3ea3ce4b	0.31993327
1	0x3da420c8	0.08014065
2	0x3d3a67a9	0.045509014
3	0xbcebab67	-0.028768254
4	0xbd89ac4a	-0.06722315
5	0xbda4209e	-0.08014034
6	0x3d767a5f	0.060175296
7	0xbdb857e0	-0.09001136
8	0xbe0a2529	-0.13490738
9	0x3dae2c53	0.08504548
10	0xbdd40d0b	-0.1035405
11	0xbcf390ce	-0.029732134
12	0xbd5e9dd2	-0.054349728
13	0x3cbfab68	0.023397163
14	0xbd782e71	-0.060591165
15	0x3e50484b	0.20340078
16	0x3e1a2361	0.15052558
17	0x3d3faa7e	0.046793453
18	0x3d751bc3	0.05984093
19	0x3e056d03	0.13029866
20	0xbd1ca4ed	-0.038243223
21	0x3e1e7444	0.1547404
22	0xbe9e2c96	-0.3089339
23	0xbc8b8783	-0.01703239
24	0xbdae3391	-0.08505929
25	0xbde397ee	-0.11112963
26	0xbd11973f	-0.03554463
27	0xbe05ae4a	-0.13054767
28	0xbd5bab14	-0.05362995
29	0x3e5a619f	0.21326302
30	0x3a9cb9ce	0.001195723
31	0x3d37f511	0.044911448
32	0xbd838247	-0.06421333
33	0xbe819409	-0.25308254
34	0x3cdd9f20	0.027053416
35	0xbce4c7e1	-0.027927341
36	0xbe9b9932	-0.30390316
37	0xbbbbd020	-0.0057315975
38	0x3dae3808	0.08506781
39	0xbdd52bf4	-0.10408774
40	0xbea3d730	-0.32000113
41	0xbd1321fd	-0.035921086
42	0xbd40c9a0	-0.047067285
43	0x3d79a4b8	0.060948104
44	0xbe3c35c8	-0.18379891
45	0xbe18104e	-0.1484997
46	0x3e33df53	0.1756566
47	0xbea0d6b8	-0.31413817
48	0x3ec74dc2	0.38926512
49	0xbcf60253	-0.030030405
50	0x3c144582	0.009049775
51	0x3dceb3fb	0.10092922
52	0xbdf98890	-0.1218425
53	0x3d30e4ab	0.043186825
54	0xbdb274fc	-0.08713719
55	0x3db55048	0.08853203
56	0x3de02d41	0.109461315
57	0xbea3a801	-0.31964114
58	0x3e06d1e5	0.13166006
59	0x3d242f12	0.040083952
60	0x3db1b2ad	0.08676658
61	0xbcab13b3	-0.020883417
62	0xbe311975	-0.17294867
63	0xbd809e90	-0.062802434
64	0xbc8e1363	-0.017343229
65	0xbebdf48a	-0.3710063
66	0x3e964846	0.29352015
67	0x3e408ad1	0.18802954
68	0x3bc86985	0.0061160945
69	0x3d9ba401	0.07599641
70	0xbd590208	-0.052980453
71	0x3b852d78	0.004064258
72	0x3d921a2d	0.07133899
73	0x3e16a796	0.14712366
74	0x3dd75cad	0.105157234
75	0x3d5dbadc	0.05413328
76	0x3df010f6	0.11721985
77	0x3d50bd02	0.050961502
78	0xbd004508	-0.031315833
79	0x3eacb899	0.33734587
80	0x3e1646c4	0.14675432
81	0x3c426263	0.0118642775
82	0xbcbff28f	-0.02343109
83	0xbe896157	-0.26832077
84	0xbc8585e4	-0.016299196
85	0x3de1f429	0.11032898
86	0x3d8eb3eb	0.069679104
87	0x3d06d5ea	0.032918848
88	0xbe610ec0	-0.21978283
89	0x3da32644	0.07966283
90	0xbe320eba	-0.1738843
91	0xbe33bdfd	-0.17552944
92	0xb91cdcba	-0.00014959546
93	0xbd47ce05	-0.04878046
94	0xbd913579	-0.07090277
95	0xbe7fd425	-0.2498327
96	0x3d05b441	0.032642607
97	0x3e1d7806	0.15377817
98	0xbe0d748f	-0.13813995
99	0x3eafbf7f	0.34325787
100	0x3d7bdf3c	0.06149219
101	0xbf116391	-0.5679255
102	0xbbf26fd9	-0.007398587
103	0x3e112971	0.14175965
104	0xbde09604	-0.10966113
105	0x3e3d3cb5	0.18480189
106	0x3deb2aff	0.1148281
107	0xbe12eea2	-0.14348844
108	0x3d89e4ed	0.06733117
109	0xbe1048d1	-0.14090277
110	0xbdbf8b6b	-0.09352764
111	0xbda6f8ef	-0.08152949
112	0xbc24d74d	-0.010061097
113	0xbe956449	-0.29178074
114	0xbe89cec3	-0.2691556
115	0x3e2fc295	0.17164071
116	0xbd934134	-0.07190171
117	0xbca86b92	-0.020559106
118	0xbd8eeb4d	-0.06978474
119	0x3d22cf96	0.03974875
120	0x3c5cd9ca	0.013479659
121	0x3d1710f0	0.036881387
122	0x3d386d25	0.045025963
123	0x3e24ad99	0.16081847
124	0xbdd507eb	-0.10401901
125	0x3cd42c58	0.025900051
126	0x3dc91e8e	0.09820281
127	0xbdbcd1bb	-0.092196904
128	0xbe373edf	-0.17895077
129	0xbd955edc	-0.072934836
130	0x3e4dfeed	0.20116778
131	0x3d4fff00	0.050780296
132	0xbe43dc85	-0.1912709
133	0x3ce01939	0.027355777
134	0x3e859441	0.2608967
135	0xbe803e12	-0.25047356
136	0x3bfd4e3e	0.0077302745
137	0x3dfb6a00	0.12276077
138	0xbee51366	-0.44741362
139	0x3e50457a	0.20339003
140	0x3cc5b2e6	0.024133157
141	0xbe9f6306	-0.31130236
142	0xbe232ec4	-0.15935808
143	0xbda907be	-0.0825343
144	0xbd07593f	-0.033044096
145	0xbe66635d	-0.22498842
146	0x3e70c3be	0.2351217
147	0xbe0dbab2	-0.1384075
148	0x3d6489ba	0.05579541
149	0xbe20b1f2	-0.15692881
150	0x3de24d5b	0.11049911
151	0x3d9ac797	0.075576
152	0x3e04e7e4	0.12979084
153	0x3d6c79fa	0.057733513
154	0xbd8295a0	-0.06376195
155	0xbd6af736	-0.057364665
156	0x3ec24bef	0.37948558
157	0xbccb2a04	-0.024800308
158	0x3d89fa2d	0.0673717
159	0xbeaac833	-0.33355865
160	0x3eb3ce4b	0.35118327
161	0x3c8719b8	0.016491756
162	0xbed0ea37	-0.40803692
163	0xbe0ff6f9	-0.14059056
164	0x3deb6586	0.114939734
165	0xbc8e9c51	-0.017408522
166	0x3cd8b2f6	0.026452523
167	0xbca170a7	-0.019707037
168	0xbe9500ce	-0.29102176
169	0x3d894efa	0.06704517
170	0xbd45b0ee	-0.048264436
171	0xbe0089a2	-0.12552503
172	0xbefb87e7	-0.49127123
173	0x3bc820fe	0.0061074486
174	0xbd7dcca2	-0.06196273
175	0x3b8eedfe	0.004361867
176	0xbea392ac	-0.3194784
177	0xbd82ca4c	-0.06386241
178	0xbe8e4788	-0.2778895
179	0xbde7e11a	-0.113222316
180	0xbe2c9102	-0.16852191
181	0x3da3f436	0.08005564
182	0xbd882681	-0.06647969
183	0xbde25856	-0.11052005
184	0xbe435c6f	-0.1907823
185	0xbd87cf54	-0.066313416
186	0xbe040cbe	-0.12895486
187	0x3e4735c9	0.19454111
188	0x3e99abdb	0.30013928
189	0xbed28bb0	-0.41122198
190	0xbd9e8d81	-0.077418335
191	0x3e65a027	0.22424375
192	0xbcba2e2a	-0.02272709
193	0x3deeeafa	0.11665912
194	0xbca606d0	-0.02026692
195	0xbd151b80	-0.03640318
196	0xbe7a7671	-0.24459244
197	0xbe4fdd25	-0.20299204
198	0x3d210532	0.039311595
199	0xbec0733f	-0.37587926
200	0xbd4da4d4	-0.05020602
201	0x3d4d0ef0	0.050063074
202	0xbee67586	-0.45011538
203	0xbeac62cc	-0.33669126
204	0xbdc1d194	-0.09463802
205	0x3de331fd	0.11093519
206	0xbde300b9	-0.11084122
207	0x3d8ff0d5	0.07028357
208	0xbd997614	-0.07493225
209	0xbd07a4b2	-0.03311605
210	0xbd930649	-0.07178933
211	0xbea76c95	-0.3270003
212	0x3c8a3710	0.016871959
213	0xbd3fa94b	-0.04679231
214	0xbdaf4b73	-0.08559313
215	0xbefcc26b	-0.4936708
216	0xbd7e12fe	-0.06202983
217	0xbe971a45	-0.2951223
218	0x3d49bc22	0.049251683
219	0xbe4c6932	-0.19962004
220	0xbd67baff	-0.056574818
221	0x3dbf02e0	0.0932672
222	0x3bb782f5	0.005600328
223	0x3d2c7f9c	0.042113885
224	0x3d8e5862	0.069504514
225	0xbebd147e	-0.36929697
226	0x3e4b2f82	0.19842342
227	0xbea028d2	-0.31281143
228	0x3ca18b50	0.01971975
229	0xbe50e754	-0.20400745
230	0x3e8138ba	0.2523859
231	0xbea6a7b7	-0.3254983
232	0xbda9f8bf	-0.08299398
233	0x3e45573e	0.19271562
234	0x3d902423	0.070381425
235	0x3c6fc8a4	0.014635239
236	0xbd711e95	-0.058867056
237	0x3cc3d9a1	0.023907484
238	0xbe8a5fd2	-0.2702623
239	0xbdafaf4d	-0.08578358
240	0x3da9d585	0.08292679
241	0xbcb539d0	-0.022122294
242	0x3e24f0b6	0.16107449
243	0x3d341f0d	0.043974925
244	0xbed7c058	-0.42138934
245	0xbda62212	-0.08111967
246	0xbea8a90d	-0.32941476
247	0x3e7d9c8d	0.2476675
248	0xbd6c4ce3	-0.057690512
249	0xbcb75cc0	-0.022383094
250	0xbe1caa14	-0.15299255
251	0xbcbec740	-0.02328837
252	0xbddbdb52	-0.107351914
253	0xbdc4b478	-0.09604734
254	0xbe8b41fa	-0.27198774
255	0x3e180d6a	0.14848867

fc2.bias f4 [84]
0	0x3db38444	0.08765462
1	0x3deba2a8	0.115056336
2	0x3d561bdd	0.052272666
3	0xbd55b26b	-0.052172106
4	0xbe38cf8e	-0.18047926
5	0x3e55c9dc	0.20877784
6	0x3cef610d	0.029221082
7	0xbdf41402	-0.11917879
8	0x3d5ce59e	0.053929918
9	0xbb1bda0a	-0.0023781084
10	0x3deb6a98	0.114949405
11	0x3da5d787	0.08097749
12	0xbaaa9176	-0.0013013321
13	0xbe89bd04	-0.2690202
14	0x3de5bba9	0.11217434
15	0xbe437dff	-0.19091032
16	0xbd1abdff	-0.03777885
17	0xbe7b3e4b	-0.24535482
18	0xbd9fca22	-0.07802226
19	0xbe8911ff	-0.26771542
20	0x3e9ebeb8	0.31004882
21	0x3dccf29b	0.10007211
22	0x3d33806d	0.04382365
23	0xbdbb4ff7	-0.091461115
24	0x3cbd7785	0.02312828
25	0x3e29162c	0.16512364
26	0x3dceafc6	0.1009212
27	0x3e9e7d44	0.30954945
28	0x3d595b5b	0.05306564
29	0xbdd89097	-0.10574453
30	0x3cd9b067	0.026573373
31	0xbe70e9d4	-0.23526698
32	0xbe61e1d1	-0.22058798
33	0xbda31ee9	-0.0796488
34	0xbe7d9c1b	-0.24766581
35	0x3e806499	0.2507675
36	0x3dc46279	0.09589095
37	0xbe7b60ff	-0.2454872
38	0x3e6b1920	0.22958803
39	0x3dfea3e1	0.12433601
40	0xbed91d98	-0.4240539
41	0xbe489d12	-0.19591168
42	0x3dd468ff	0.10371589
43	0x3e9da55b	0.3079022
44	0xbdfddb19	-0.12395305
45	0x3b4718f4	0.0030379863
46	0xbebea4e2	-0.3723517
47	0x3e8ef974	0.27924693
48	0x3e8ab7a9	0.27093247
49	0xbe6cdb0e	-0.23130438
50	0xbeb3f768	-0.35149693
51	0xbe1c00e9	-0.15234722
52	0x3c67d0fc	0.014148947
53	0x3e1cea8f	0.15323852
54	0xbebfce8c	-0.3746227
55	0xbd959d55	-0.07305399
56	0xbda3265d	-0.079663016
57	0xbea78654	-0.32719672
58	0x3dfb57f1	0.12272633
59	0xbe3a9973	-0.18222599
60	0x3e121a01	0.14267732
61	0xbb0d5945	-0.0021568101
62	0xbf044e5f	-0.51682085
63	0xbed9fb67	-0.42574617
64	0x3da98205	0.082767524
65	0xbc0224c5	-0.007943337
66	0xbdaf31a3	-0.08554389
67	0xbedd2afe	-0.43196863
68	0xbe6f8853	-0.23391847
69	0xbe4151a0	-0.18878794
70	0xbe3d5a0f	-0.18491386
71	0x3d74257c	0.05960606
72	0xbd9ffc19	-0.07811756
73	0x3d88df28	0.06683189
74	0xbe1e1578	-0.15437877
75	0xbc365df3	-0.011130798
76	0x3ec0bed9	0.37645605
77	0x3ea25b2d	0.31710187
78	0x3e51cd15	0.20488389
79	0xbe24f0b5	-0.16107447
80	0x3d8ce993	0.06880488
81	0x3da976fd	0.08274648
82	0x3df479fe	0.11937331
83	0xbe157141	-0.14593984

fc3.weight f4 [10, 84]
0	0xbe34b728	-0.17647994
1	0xbee91f5e	-0.45531744
2	0xbdaa014a	-0.08301027
3	0xbe8f7fb0	-0.28027105
4	0xbe16cec6	-0.14727315
5	0xbe63a5ca	-0.22231212
6	0xbe0c7792	-0.13717487
7	0xbea3e9e0	-0.3201437
8	0xbe0f5098	-0.13995588
9	0xbe1250d0	-0.1428864
10	0x3cb6c69f	0.022311507
11	0x3cecbc91	0.02889851
12	0x3e3101d6	0.17285857
13	0xbe62660b	-0.22109239
14	0x3e4d5345	0.20051296
15	0xbcf18c6e	-0.029485907
16	0xbede4ea5	-0.43419376
17	0xbf0233c9	-0.5086027
18	0x3cda6c21	0.026662888
19	0xbdfc44df	-0.123178236
20	0xbe7e0b7d	-0.2480907
21	0x3e15455b	0.14577238
22	0xbc36fe46	-0.011169022
23	0xbd4b4c44	-0.04963328
24	0xbe4b9470	-0.19880843
25	0xbe8aa24d	-0.2707695
26	0xbdf8a7b0	-0.12141359
27	0xbcabffdb	-0.020996025
28	0xbebd0758	-0.36919665
29	0x3afb0744	0.0019151946
30	0xbe6d6ac6	-0.23185262
31	0xbe25a002	-0.1617432
32	0xbee36287	-0.44411108
33	0xbeaa687e	-0.33282846
34	0xbf18c361	-0.59673125
35	0xbd1b114c	-0.037858292
36	0x3d7fd0c3	0.06245495
37	0xbe26d01c	-0.16290325
38	0x3d3b9a79	0.045801613
39	0xbea2f77b	-0.31829438
40	0xbec541cf	-0.3852677
41	0xbe466687	-0.19375049
42	0x3d477040	0.048691034
43	0x3d028b64	0.031871215
44	0xbdb928fd	-0.09041021
45	0xbe1f3560	-0.15547705
46	0xbef37f2f	-0.4755797
47	0xbea7fef4	-0.328117
48	0x3e04bbdb	0.12962286
49	0xbdb557d5	-0.08854643
50	0xbddfc972	-0.109270945
51	0xbdbd7162	-0.09250142
52	0xbe9c27fe	-0.30499262
53	0x3c18c265	0.009323691
54	0xbe96ad60	-0.2942915
55	0xbd754bcd	-0.059886742
56	0xbe5ce6ef	-0.21572469
57	0xbee7d1dd	-0.452773
58	0xbd364016	-0.04449471
59	0xbf093ba5	-0.53606635
60	0x3c518d11	0.0127899805
61	0x3d3a0488	0.045414478
62	0xbe0080f7	-0.12549196
63	0xbe879a30	-0.26484823
64	0xbe98e2a5	-0.29860416
65	0xbf14079c	-0.5782411
66	0xbeea77ea	-0.45794612
67	0xbdb710f3	-0.0893878
68	0xbebfc144	-0.37452137
69	0xbe53db48	-0.20689118
70	0xbe2d39af	-0.16916536
71	0x3d07553c	0.03304027
72	0xbe505695	-0.20345528
73	0x3c135c77	0.008994213
74	0xbec3006f	-0.38086268
75	0xbe9ca582	-0.30595022
76	0xbd1a3c03	-0.037654888
77	0x3d9f3656	0.07774036
78	0xbc2ffc5e	-0.010741321
79	0xbea46f42	-0.32116133
80	0xbc8a4b27	-0.016881539
81	0x3dbf9e7d	0.09356401
82	0xbe0c6181	-0.1370907
83	0xbe3d5100	-0.1848793
84	0xbf5b2b08	-0.85612535
85	0xbf19a30a	-0.600144
86	0xbf83556d	-1.0260445
87	0xbef62041	-0.48071483
88	0x3c40d2b3	0.011768985
89	0xbdbd066b	-0.0922974
90	0xbe619153	-0.22028093
91	0xbf171f57	-0.59032196
92	0xbeda8151	-0.42676786
93	0xbe84875e	-0.25884527
94	0x3df733ce	0.12070428
95	0x3e03212a	0.1280562
96	0xbebb6604	-0.3660127
97	0x3db1c39e	0.08679889
98	0xbf281d9a	-0.6567017
99	0x3e92c01d	0.28662196
100	0xbf07edff	-0.5309753
101	0xbf013aae	-0.50480163
102	0xbee103b6	-0.43948144
103	0x3c02e86a	0.007989982
104	0xbec66967	-0.3875229
105	0xbeac9b3b	-0.3371218
106	0xbe96cf68	-0.29455113
107	0xbe2c34d0	-0.16817021
108	0xbeca2a2b	-0.39485297
109	0xbe5c92b4	-0.21540338
110	0x3c278c51	0.010226325
111	0xbdf20d71	-0.1181897
112	0xbf10c736	-0.5655397
113	0x3d8330b6	0.06405775
114	0xbee06046	-0.4382345
115	0x3d6f23b5	0.058383662
116	0xbf169e10	-0.58834934
117	0xbf224d38	-0.63399076
118	0xbf1ca453	-0.6118824
119	0xbf392819	-0.7232681
120	0x3e237382	0.15962031
121	0xbf559a73	-0.83438796
122	0x3da1a085	0.07891945
123	0xbefdff88	-0.49609017
124	0x3dc885db	0.09791156
125	0xbf2beb9a	-0.67156374
126	0xbe0e4a30	-0.13895488
127	0xbeb84068	-0.35986638
128	0x3e1c7d62	0.15282205
129	0xbd8b9010	-0.06814587
130	0x3db6ea37	0.08931392
131	0xbeca29a5	-0.39484897
132	0xbfa2013a	-1.2656624
133	0xbe984aa6	-0.29744452
134	0xbe9dca34	-0.3081833
135	0xbe999b60	-0.30001354
136	0xbef51cc0	-0.47873497
137	0xbe67b912	-0.22629192
138	0xbeb4272e	-0.35186142
139	0x3d1fa033	0.038971137
140	0x3d2e728d	0.042589713
141	0xbd131fe1	-0.035919074
142	0x3e10c47e	0.14137456
143	0xbf22f96e	-0.6366185
144	0xbdfbff9b	-0.12304612
145	0xbeeaeef4	-0.45885432
146	0x3d67d269	0.056597147
147	0xbd852d83	-0.06502821
148	0xba82a7d4	-0.000996823
149	0xbf806834	-1.00318
150	0xbe033e91	-0.12816836
151	0xbb48cfb5	-0.003064138
152	0xbc65d147	-0.014026946
153	0x3d2f915d	0.04286324
154	0xbf28e550	-0.65974903
155	0xbeb23450	-0.34805536
156	0x3c920dd7	0.017828865
157	0xbf7c52bc	-0.9856374
158	0xbf82a9d3	-1.0208076
159	0xbea6ab41	-0.3255253
160	0xbee2a295	-0.44264665
161	0x3da188fc	0.07887456
162	0xbe3243be	-0.17408654
163	0xbbf2bb29	-0.007407565
164	0xbee26f1f	-0.44225404
165	0xbed5f6ae	-0.41789764
166	0xbde4cea9	-0.1117223
167	0xbf902419	-1.1261016
168	0xbeb15934	-0.3463837
169	0xbe0cc069	-0.13745274
170	0xbf278844	-0.654423
171	0xbe548cb0	-0.20756793
172	0xbda8d663	-0.08244016
173	0xbed59885	-0.41717926
174	0xbebc3a86	-0.367634
175	0xbe221928	-0.15829909
176	0xbd89380c	-0.06700143
177	0xbdf9fe64	-0.12206724
178	0x3db79424	0.089638025
179	0xbe4d17c2	-0.20028594
180	0xbee0f2dc	-0.43935287
181	0x3dddb83c	0.108261555
182	0x3dbcd76c	0.09220776
183	0xbd1e8de8	-0.03870955
184	0xbc527b39	-0.012846761
185	0xbe04db5c	-0.12974304
186	0x3d56ae36	0.052412234
187	0xbe2fd2e8	-0.17170298
188	0xbc928037	-0.017883403
189	0x3e0e0bf3	0.13871746
190	0xbea3d45b	-0.31997952
191	0xbdcbd65e	-0.09952997
192	0x3e019b1a	0.12656823
193	0xbedc303c	-0.4300555
194	0xbcf0362e	-0.02932271
195	0x3de9903c	0.11404464
196	0xbe691607	-0.22762309
197	0xbd4ab2dd	-0.049486984
198	0xbe781bba	-0.24229327
199	0xbd848d25	-0.06472234
200	0xbebef224	-0.37294114
201	0xbf113332	-0.5671874
202	0xbdca22bb	-0.098699056
203	0xbe6abb0a	-0.22922912
204	0x3dbfd116	0.09366052
205	0xbbda222a	-0.0066569047
206	0x3d8feb17	0.07027262
207	0x3dcba4a6	0.099435136
208	0xbdb67f98	-0.08911055
209	0xbf2600ab	-0.6484477
210	0xbe9d7a92	-0.30757576
211	0x3db9c193	0.090701245
212	0xbefeda07	-0.49775717
213	0xbeb70386	-0.35744876
214	0xbe01d339	-0.12678231
215	0x3d843bd2	0.06456722
216	0x3deb02df	0.11475157
217	0xbeb9119b	-0.36146244
218	0xbf17d104	-0.5930331
219	0xbe03459b	-0.12819521
220	0x3d102623	0.03519262
221	0xbe6705fa	-0.22560874
222	0xbf05e6a4	-0.52305055
223	0x3bb575e5	0.0055377358
224	0xbe8ffef8	-0.28124213
225	0xbf2babcd	-0.6705902
226	0xbdffde60	-0.124935865
227	0xbe141983	-0.14462857
228	0xbd938eee	-0.07204996
229	0xbecaf70e	-0.39641613
230	0xbf36cb0b	-0.7140357
231	0xbeee795d	-0.46576968
232	0xbf0bf6ca	-0.54673445
233	0xbe41e7a9	-0.18936028
234	0xbed7fec4	-0.42186558
235	0xbe9059e3	-0.28193578
236	0xbebbc116	-0.3667075
237	0xbd887566	-0.06663017
238	0xbd037971	-0.032098237
239	0xbeb4a6cf	-0.35283515
240	0xbe281c8e	-0.16417143
241	0x3dca7d0d	0.09887133
242	0xbe80db76	-0.25167435
243	0xbf10a0ad	-0.5649517
244	0x3bcbabe3	0.006215559
245	0xbdf28a3e	-0.11842774
246	0x3e18bf6a	0.14916769
247	0xbf277114	-0.6540692
248	0x3d0f2475	0.034946878
249	0xbedb85aa	-0.42875415
250	0xbe6a66b3	-0.22890739
251	0xbe8dc20c	-0.2768711
252	0xbf260b99	-0.64861447
253	0xbeb270c2	-0.34851652
254	0xbf1159bc	-0.5677755
255	0xbe4149ae	-0.18875763

fc3.bias f4 [10]
0	0xbd772370	-0.06033653
1	0xbedf93f6	-0.43667573
2	0x3dc3fe6d	0.09570012
3	0x3de1cdfe	0.11025618
4	0xbe48115f	-0.19537877
5	0xbe1c435a	-0.15260068
6	0x3e20476f	0.1565225
7	0x3e31a6ed	0.17348833
8	0x3e1e42c1	0.15455152
9	0xbebf0df0	-0.3731532
