fashionmnist_net_adam.pth (torch, 181075 bytes, 10 tensors)

conv1.weight f4 [6, 1, 5, 5]
00000000: 7105 593e 7e08 c1bd ca30 123e 613d cd3d
00000010: ab8a 65be 2cec 943e 6bbd c33d 0739 303c
00000020: 871a 09be 2665 373e fd8d 793e 62ab 723e
00000030: f1fa 94be 8a2d fd3d f2bb 12be 4203 88be
00000040: d75c 2a3e 3f08 f43d 49c5 c63d f6cd fcbd
00000050: 84f8 a1be afba 87be a11b 783d 4c49 913d
00000060: 95e2 4e3e 42a4 eb3d c3bf 813d d026 003e
00000070: 57ef e2bd 1780 9dbe 1e01 92bd f87e 393c
00000080: 68b7 8d3e 91de 073e b916 83be a24e 4fbd
00000090: 2a0f c23d 070b b1bd 355d 873e 7033 48be
000000a0: 9675 123e b492 433e fa04 e0bd 4917 5a3e
000000b0: d7a6 a0be 8e50 993d 2fc2 1b3b da92 c7bd
000000c0: 0e9f 153e 4190 3abe 981c a1bd 99cb ac3d
000000d0: c0fa fd3c 48a8 4f3d f3af ca3d 53f9 2bbc
000000e0: 9668 51be bc7c 06be 09cc 5abd e7df 113e
000000f0: f531 5a3c 017d 8cbe 12f7 86be 60d5 f9bd
00000100: 10f5 783d 5676 84bd 00a8 49be 0919 3cbe
00000110: 3829 5cbe cb92 2fbd 8e4c a3bc ec5f b7bc
00000120: 2141 9ebd 78e2 fd3b 561f c1bd 5d97 453e
00000130: ed3f 183d bf77 73be dbd7 60bd 061b 82bd
00000140: 3a2c 403e d8b7 573d fef8 b63d f4a1 a2bd
00000150: 8770 37be 2f9f 033e faa8 1c3c 7dd6 0abe
00000160: 6067 823e a9a8 103e 37b6 19be 1eb1 51be
00000170: 5314 5bbe aaa1 e3bc 18f4 ae3e b510 53be
00000180: 73b3 89be 0572 82be e83a 79bd b98e 323e
00000190: 20f3 583e 60bf f43d 153f 303e a081 27be
000001a0: dc58 733e b0ee 343c 6fc2 3dbd 435c b83d
000001b0: 1f2b 34be a60d 093e 28f8 27be 025f 19bd
000001c0: 31dd 66be 1289 f33c 6327 1d3e d7e6 1e3e
000001d0: 5352 153e b9e2 08be 0618 92be cb53 423e
000001e0: 729d 10bd 989a bc3d 810f 543e 29de 94be
000001f0: 71fb f83d 2a32 b43d 8046 003e 5cf1 6fbe
00000200: f515 79be e738 8ebd 47cd 6c3e c41e 4f3e
00000210: 705b b8bd e4e9 b3be cf54 97be 0d96 1a3e
00000220: 1a3b 953e 51b3 8d3e d123 a9bd 4136 51bd
00000230: cdb2 a7bd 97ea 1c3e ef1a 433e 5794 773d
00000240: e809 b7bd 864e abbb e0de 49bd 9efd 0e3e
00000250: 1acd cdbb c885 11bc
0.21193482 -0.09425448 0.14276424 0.10021473 -0.22416179 0.29086435 0.09557613 0.010755784
-0.13389026 0.17909679 0.2437057 0.2369819 -0.29097703 0.123622015 -0.14329508 -0.26564986
0.16636978 0.11915635 0.09705598 -0.123439714 -0.31634915 -0.26509616 0.060573224 0.070940584
0.20203622 0.11505939 0.06335404 0.12514806 -0.11080807 -0.30761787 -0.07129119 0.011321776
0.2767899 0.13268496 -0.25603274 -0.0506121 0.094755486 -0.086446814 0.264383 -0.19550872
0.14302668 0.19098932 -0.10938449 0.21297945 -0.3137729 0.07486068 0.0023766865 -0.097448066
0.14611456 -0.18219091 -0.07866782 0.08437271 0.031003356 0.050697595 0.09896841 -0.010496455
-0.20450053 -0.1313352 -0.05341724 0.14245568 0.013317575 -0.2743912 -0.26360375 -0.12198901
0.060780585 -0.06467883 -0.19692993 -0.18368925 -0.21500099 -0.042864602 -0.019933965 -0.022384606
-0.07727266 0.0077479444 -0.09429805 0.19296022 0.03717034 -0.23776148 -0.054893356 -0.063528106
0.18766871 0.05266556 0.0893421 -0.07941046 -0.1791402 0.12853692 0.0095617715 -0.13558383
0.25469494 0.14126839 -0.15010916 -0.20477721 -0.21394472 -0.027787048 0.34170604 -0.20611842
-0.2689472 -0.25477615 -0.060847193 0.17437257 0.21186495 0.119505644 0.17211564 -0.16358042
0.23764366 0.011043236 -0.046328004 0.090019725 -0.17594574 0.13384113 -0.16403258 -0.037444122
-0.22545315 0.029728446 0.15347056 0.15517746 0.14582185 -0.13367738 -0.28533953 0.18977277
-0.0353064 0.09209174 0.2070904 -0.29075745 0.12157334 0.087986305 0.12526894 -0.23431915
-0.24324782 -0.06944447 0.23125182 0.2022658 -0.09001815 -0.35139382 -0.2955689 0.15096302
0.29146653 0.2767587 -0.082587846 -0.05107713 -0.081884004 0.15323864 0.19053243 0.060444202
-0.08937436 -0.0052278666 -0.049284816 0.13963935 -0.0062805535 -0.008881994

conv1.bias f4 [6]
00000000: 73b5 293d 726c 3cbd c2d2 76bf 1bd6 98be
00000010: 719e 3fbe 6b98 47bd
0.04143281 -0.04600186 -0.9641534 -0.2985085 -0.18712784 -0.04872934

conv2.weight f4 [16, 6, 5, 5]
00000000: 5c64 e03d eeb7 23be fa35 b0be 8473 b5be
00000010: 85bc a9be b111 d6bb dcc6 1cbe 869e 23be
00000020: e4b1 30be e585 3bbe 2d86 2abe 46da 2cbe
00000030: 31d0 b6be 7706 95be 8f5a b5be 20d6 f0be
00000040: c6ff 73be bc60 96be a74c f8be 74f3 8abe
00000050: 7023 05bf e545 27be 276b d739 41a7 30be
00000060: 8792 2cbe 90ec 843b 909b 1f3e 878d 13bd
00000070: d18b 46be 6561 403e 41b6 5fbc 355d 4f3d
00000080: daf3 333d 00bc 17be e226 283d 2e16 9dbd
00000090: 2ad9 cd3a e7fb 52bd 37a9 843c 26ca 38be
000000a0: fc1d 5dbe 3d29 d4bd e37d f43b 4f3d 78bd
000000b0: 8db8 85be 5c48 83be 61a2 90bd b6df 5fbd
000000c0: 2ffc 61bc 4d8c 3ebe 01a4 88be 727f e4bd
000000d0: 0e79 9dbc 329e cd3d 0f37 733d e2da 2cbe
000000e0: b65e 20bc b468 833d bdbf 2c3e 77cc c93d
000000f0: c344 d3bc 394c 683d 9d0d bc3a 9b9b 243e
00000100: f49d b43d 1721 5d3c 6276 7f3d d155 e43c
00000110: 2ef4 493e 24f5 5a3e de34 41bd b168 913c
00000120: ccdc 9a3d 235f 923e 4e69 a93e 0984 c0bd
00000130: bfac 94be 502f 4cbe 88c0 093d b4bf 823d
00000140: 9377 8abd 0f56 03be 26e3 90be 3dfe 533d
00000150: b56e 2fbd 6721 e83d ee92 42bd c1cc 08be
00000160: 521f b63d 8990 1c3e e62c cabd ec71 ecbd
00000170: 6e06 2cbe d946 723d 90f0 8a3e 7f02 96bd
00000180: 9193 88be 0594 b4be 9ab9 adbd 9254 213e
00000190: ef2d f73c ba9e d83c 5cd7 c5be 1868 24be
000001a0: 8a5b 4ebe ff93 20be f2e6 16bc 134d 8ebe
000001b0: f148 36bc 7640 74bc f385 02be cd78 12be
000001c0: 69e7 35bd 6952 4abd 11be 2ebe 9620 a2be
000001d0: cf90 dbbe 9ce6 d3bd e3a6 b8bd a9bb 51be
000001e0: a89d c0be 7583 04bf 8f46 3fbd dc1c c5bd
000001f0: 5767 39be 2805 27bd 8239 9abd 6972 20bd
00000200: bf1d 28be 1637 2f3e 0aab 0fbd 7d7f c9bd
00000210: 4625 4dbb 7fc3 f2bd 1404 1bbe 22c2 22bc
00000220: 4939 21be dee9 bcbc 72c1 90be 0494 84be
00000230: 1366 543c 0485 bbbd 6ec2 8b3d a39d 60be
00000240: 26fc a0be eb5a 56bd 541c c5bd 8605 203e
00000250: 6f9d 1cbe 8bc4 d1bb 57e3 b6bd 10f3 b1be
00000260: 5b82 c6bd 6ef6 033e 2f71 7e3e 55a0 3bbd
00000270: 5e55 ebbd a837 893d 10b3 5c3e ea06 393e
00000280: 3d22 8f3d 34ee 5c3d 673d 583d 6f1c e23b
00000290: f2c4 f43d 4980 9dbc 0c6d 913d d903 4dbc
000002a0: 1e62 08bd b56b f33c 28c2 883b b73e 8f3d
000002b0: 46ab e13d 4362 42bd 528b 83be 9ade 713e
000002c0: da78 e2be a163 25bf 96be 34be 585d 973e
000002d0: 6001 a5be 0a96 ddbe fad2 2d3e a7ca 78bd
000002e0: a6fc ad3c 3cdd 0fbf 7b62 04bf cee1 18be
000002f0: afa0 adbd f70d 0bbd bc52 cabe 692b a4be
00000300: 0b41 24be 7901 dfbd 5aa9 ccbc fb85 433d
00000310: dd9f b53d acf9 57bd e1d1 02bd b31f 153e
00000320: f3c7 4d3e 32cc 583e 21d8 03be 0941 9cbe
00000330: 33a1 fcbe 471a b1bd c99e 443d 660e a8be
00000340: a251 49be a69f a0be 4a98 59be a094 17be
00000350: 9d5f 3fbe e86e 163c e944 8cbe 7727 59be
00000360: cc5d bfbe ec8d c8bd 28a6 8c3d 5a00 c9be
00000370: 459d 91be 25e2 a4be 7c44 b63b 811c 643e
00000380: 26e6 adbd e818 553e d8e0 853e 5339 023d
00000390: 9ea1 84bd 07be b33e f4e7 2a3e 4dc1 1a3e
000003a0: faab 26bd 73d9 92bc db24 103d f312 563d
000003b0: ea9a 7bbd 1598 413b 6065 57be 8142 84be
000003c0: 5ab5 1a3c b926 9fbe 5f24 cabc 5b5b acbd
000003d0: a544 d5bd 59aa 5cbe 6c7d 79be cf72 04be
000003e0: 5715 93be 9d65 f5bd e268 efbd c1e3 babe
000003f0: 78c5 c0be 0bd2 cc3e b0a3 9c3e a9aa 36be
0.10956642 -0.15988132 -0.3441618 -0.35439694 -0.3315164 -0.0065328707 -0.15310234 -0.1597844
-0.1725536 -0.18312795 -0.16652746 -0.1688014 -0.35705712 -0.29106495 -0.35420653 -0.47038364
-0.23828039 -0.29370677 -0.4849598 -0.27138865 -0.520072 -0.16335256 0.0004108783 -0.17251302
-0.16852771 0.0040565208 0.15586686 -0.036023643 -0.19389273 0.18787153 -0.013654293 0.050626
0.043933727 -0.1481781 0.041052707 -0.07670246 0.0015704979 -0.051509764 0.01619397 -0.18045864
-0.2159347 -0.10359428 0.007461296 -0.060605343 -0.26117364 -0.25641143 -0.07062221 -0.054656707
-0.013793035 -0.18608208 -0.26687625 -0.11157121 -0.019222762 0.10039939 0.05937868 -0.16880372
-0.009788206 0.06416455 0.16870017 0.09853452 -0.025789624 0.056713317 0.0014347319 0.16074984
0.0881919 0.013496659 0.062368758 0.027872952 0.19722053 0.21382576 -0.04716956 0.017750116
0.07561645 0.2858821 0.33088154 -0.09400184 -0.29038045 -0.19939923 0.033630878 0.06384221
-0.06761088 -0.12825797 -0.282983 0.051756132 -0.042830188 0.11334496 -0.047503404 -0.13359357
0.088926926 0.15289511 -0.09871845 -0.115451664 -0.16799328 0.059149597 0.2713666 -0.07324695
-0.26675084 -0.3526918 -0.08482666 0.15754917 0.03017327 0.026442874 -0.3864087 -0.16055334
-0.20152107 -0.15681456 -0.009210335 -0.27793178 -0.011125789 -0.014907947 -0.1274641 -0.14303894
-0.044410143 -0.049395 -0.17064692 -0.31665486 -0.42883918 -0.103467196 -0.09016206 -0.20481743
-0.37620282 -0.5176309 -0.04669815 -0.09624645 -0.18105827 -0.0407764 -0.075305 -0.03917161
-0.16417597 0.17110857 -0.035075225 -0.098387696 -0.0031302734 -0.11853694 -0.15138274 -0.00993398
-0.15744509 -0.023060735 -0.28272587 -0.25894177 0.0129637895 -0.0915623 0.06824194 -0.21935134
-0.31442374 -0.0523328 -0.09624544 0.15627107 -0.15294431 -0.0064016036 -0.089300804 -0.34755754
-0.09692832 0.12886974 0.24847864 -0.0458072 -0.11490892 0.06700069 0.21552682 0.18069044
0.06988952 0.053938106 0.052792933 0.006900362 0.11951627 -0.01922621 0.07100877 -0.012513124
-0.033296697 0.029714445 0.004173536 0.06994384 0.11018996 -0.04745699 -0.2569223 0.23620072
-0.44232827 -0.64605147 -0.17650828 0.29563403 -0.32227612 -0.43278533 0.16975012 -0.06074014
0.021238636 -0.5619695 -0.5171277 -0.14929888 -0.084779136 -0.033948865 -0.39516246 -0.3206437
-0.16040437 -0.10888953 -0.024983097 0.047735196 0.08868382 -0.05272834 -0.031938437 0.14562874
0.20095806 0.21171644 -0.12875415 -0.30518368 -0.49341735 -0.0864759 0.04800299 -0.32823485
-0.19660047 -0.31371802 -0.212495 -0.1480279 -0.18688817 0.009181716 -0.27396324 -0.21206461
-0.3737625 -0.097926944 0.06867629 -0.3925808 -0.284403 -0.32203785 0.005562363 0.22276498
-0.08491163 0.20810282 0.26148105 0.03179295 -0.064761385 0.35105917 0.16690046 0.15112801
-0.040691353 -0.017925953 0.035191398 0.052264165 -0.061427034 0.002954011 -0.21034765 -0.25831988
0.009442652 -0.3108423 -0.024675546 -0.08415862 -0.104134835 -0.21549357 -0.24364251 -0.12934421
-0.28727219 -0.11982272 -0.11689927 -0.36501887 -0.37650657 0.40004 0.30593634 -0.17838539

conv2.bias f4 [16]
00000000: 2039 9abd d40f 3a3e 8392 67bc d308 36bd
00000010: db36 c53e 1e44 05bd b447 2dbe ea3a c1ba
00000020: 8662 b2be ca61 cabd 8d2a 02be 2558 1fbe
00000030: 0dee f5bd acb6 b73c 23aa 5abd 3276 0bbe
-0.07530427 0.181701 -0.014134052 -0.04444201 0.38518414 -0.032535665 -0.16921884 -0.0014742289
-0.34840792 -0.09881933 -0.12711544 -0.15560968 -0.12008295 0.022425972 -0.05338491 -0.13619307

fc1.weight f4 [120, 256]
00000000: cd09 19be 9fe2 50bd fdd7 733e 8511 c43d
00000010: 5ca8 ee3c 7ce3 c63c 5a29 823e 6ec4 b63d
00000020: 0445 1c3c 367d 88bd 0de1 853e 7430 20bd
00000030: 8f4d 003d 0451 4eb9 ac6a a83e 0b9c d9bd
00000040: 269f 96bd e38f cfbe 6f2a 803e 2bb6 da3c
00000050: 8f49 9f3d 9552 bebd ffff 35bd 3a3e ce3d
00000060: e5eb 563e 61a7 5abe 194e 7abe efa3 06bc
00000070: d73d 9c3d 2497 25be b1b3 a5be ed08 66be
00000080: aff0 25be a3c2 213e 277d 7bbd 00c6 d63c
00000090: ab02 0fbd 04d8 103d d264 593e 2ad2 d7bd
000000a0: 52dd 233c 4da1 293e bcb1 31bd 94ad 883c
000000b0: c734 85be 905f 163b c4c7 a2bd 788c ddbd
000000c0: e13d 353d 5705 07bb e5ce e13c e74a 0d3c
000000d0: 3c6a c5bc 8f63 4bbd f936 4a3c 2e21 6d3d
000000e0: 40e0 d5bb 991d b63b 7780 17bd 8df5 5c3c
000000f0: f50b 54bd 04fd b5bc 57bd 143c 0528 fbbc
00000100: e55d 7a3e d3a0 773d 960b 313e de68 8dbe
00000110: a202 763d 26d8 b7bd bc3a 813d 98da aabe
00000120: 307a 983d af95 40be 4dab 88bd bbae 0ebd
00000130: dfa6 ce3e 7fd3 34be 78de 31bc 8143 0a3e
00000140: 24e0 2f3d b031 76bd 30bc b03c 6c55 9dbc
00000150: 4e22 7c3d d53b 09bd ac96 2bbd f833 53bc
00000160: 9d59 3cbd c091 d9bc 50a7 353c a0aa 823c
00000170: 1f25 bfbc d046 36bd 0ea6 28bd f0d2 0b3d
00000180: 4acb 0fbe e5f7 663e 74c3 a23d 4300 ddbd
00000190: 65ec debd b72c 1ebe 2d52 9dbd 43ec c4bd
000001a0: 2210 323e c2c8 32be eb38 ddbc b05f 1abd
000001b0: 5f75 9c3e d939 c7bc c28f 653d f208 20be
000001c0: 7c14 223e ab76 733c 80e0 9d3c 4737 d83d
000001d0: f366 603d 5147 debd 2348 14be fb7d 4dbd
000001e0: a79a 14be 7a23 243d 2be2 60be b2e4 fdbd
000001f0: d0cc 89bd a3e3 bd3d ebba 9bbd f97f c63d
00000200: c068 93bb fb42 03be 0cfb 22be 3b0d d53d
00000210: 1b39 873d 6c0e 00be cfc8 82bd 2816 913d
00000220: a9d1 cbbc 115b 9a3d 4376 fe3d b913 733d
00000230: bc28 b2bc 388e 68bd 92f8 823e 37d6 40bd
00000240: 10a9 67bd f082 00bd 0e97 3e3d 58ce bc3c
00000250: 103d 783d f6e3 38bd b0a4 87bb 03a0 743b
00000260: 1250 1fbd d06e e6bb 50d1 58bd e847 3c3c
00000270: 6e87 7fbd 4e50 29bd 6cb6 6f3d 40a3 323c
00000280: a0ab ea3d 837d f2be 1cc9 3abe d06e 913e
00000290: 3110 853e a3e7 65be b8f6 2bbc f1b9 a33d
000002a0: 1489 f03d 7007 4cbe 7411 b9bc 6cba d9bd
000002b0: d4b9 0ebe 66fc 68be 41ac 2d3e a5a8 6cbc
000002c0: 9856 0e3e 1ea8 07be 6431 263e ef13 9abd
000002d0: ac2e eb3d 056a 87bc 25c9 903d 2226 b9bd
000002e0: db95 903c ad8b 383d 51df a53d 52fb bbbe
000002f0: 6a64 473e 43fd 89bd a76b cc3d c684 cdbe
00000300: a179 0fbe 3e15 9d3c 1b96 61be 09d3 e43d
00000310: e040 463d e871 943d 3b35 a4bd 3731 403d
00000320: 5d87 943d ab8f 153d 6501 dc3d 1717 17be
00000330: 9ad2 c03d 9cda a53d 4767 243e 7510 e2bd
00000340: d413 babe 9702 be3c 0854 ab3c 51da 633b
00000350: ca3c 53be 284e fe3c 8294 43be 1494 43be
00000360: 4310 85be 3c70 86bb 47dd b6bc 0737 913d
00000370: 5258 88bd cd6e 0a3e 132c 32bd 76be ae3d
00000380: c81c 8fbd 7475 dbbd 3ed7 9abd 5935 e3be
00000390: aa64 83be 0c78 13be e0d7 73bd 0b99 c9be
000003a0: de3f 37be 7c4f 94be 7d39 a3bd d27f a83d
000003b0: d1d6 1cbe 8ab2 1bbe 2e64 5d3d 30d6 dfbd
000003c0: 88a0 053e fa72 3ebc 3a86 943e 9872 d3be
000003d0: 16dc b5bd 7f72 1fbd 9e5c 993d 5d64 1cbe
000003e0: 210d 50be 440f 9fbc ee5a 8e3d fed4 c9bd
000003f0: 8251 89bc 99bd 2cbe 668c 5f3e 8567 b5bd
-0.14945145 -0.050997373 0.23812862 0.09573654 0.029133014 0.024278395 0.25422174 0.08924185
0.009537939 -0.06664507 0.26148263 -0.03910871 0.031323966 -0.00019675872 0.32893884 -0.10625466
-0.07354574 -0.40539464 0.25032374 0.026698193 0.07777702 -0.09293095 -0.04443359 0.100704625
0.20988424 -0.21352912 -0.24443854 -0.008217796 0.076289825 -0.16170937 -0.32363656 -0.22464342
-0.16205095 0.15796904 -0.06139865 0.02621746 -0.034914654 0.03536226 0.21229866 -0.105381325
0.010001497 0.16565438 -0.04338239 0.016684331 -0.26016828 0.0022945143 -0.079482585 -0.10817808
0.044248465 -0.0020602548 0.027564475 0.008623815 -0.024098508 -0.049655493 0.012342208 0.05789297
-0.006526977 0.0055577275 -0.036987748 0.013486278 -0.051769216 -0.022215374 0.009078345 -0.030658731
0.2444988 0.06045611 0.17289576 -0.2761907 0.060061105 -0.08976774 0.06310031 -0.333699
0.074451804 -0.188071 -0.06673298 -0.034834605 0.40361688 -0.17658804 -0.010856263 0.13502313
0.042938367 -0.06010598 0.02157411 -0.019205771 0.061556153 -0.033504326 -0.04189174 -0.012890808
-0.0459839 -0.026558757 0.011087254 0.015950501 -0.02333313 -0.044501126 -0.041173987 0.034136713
-0.14042392 0.22555502 0.07947436 -0.107910655 -0.108849324 -0.15446745 -0.076816894 -0.09615376
0.17388967 -0.17459396 -0.02700468 -0.03768891 0.30558297 -0.024319576 0.0560453 -0.15628412
0.15828127 0.014859836 0.019272089 0.10557418 0.05478568 -0.10853446 -0.14480643 -0.050168972
-0.1451212 0.040072896 -0.21961276 -0.12397136 -0.06728518 0.09271934 -0.07604011 0.096923776
-0.004498571 -0.1281852 -0.1591608 0.10402914 0.06602689 -0.12505502 -0.063859574 0.07084304
-0.024880247 0.07536901 0.124249004 0.05934498 -0.02174794 -0.056776255 0.2558027 -0.04707929
-0.056557715 -0.03137487 0.046530776 0.023047611 0.06060511 -0.045139275 -0.0041395053 0.003732682
-0.03889472 -0.007032253 -0.05293399 0.011491753 -0.062385015 -0.04133635 0.05852358 0.01090318
0.11458516 -0.47361383 -0.1824078 0.28404856 0.25988916 -0.22451644 -0.010495834 0.0799445
0.117448956 -0.19924712 -0.02259133 -0.1063126 -0.13938075 -0.22752532 0.16960241 -0.014444505
0.1390022 -0.13247725 0.16229779 -0.07523333 0.11483511 -0.016530046 0.07069615 -0.090404764
0.017649582 0.04505508 0.08099235 -0.3671518 0.19471899 -0.06737759 0.099814706 -0.4014036
-0.14011241 0.019175168 -0.22029917 0.11173064 0.048401713 0.072482884 -0.080179654 0.046921935
0.07252381 0.036513966 0.107424535 -0.14754902 0.09415169 0.08098337 0.16055022 -0.11038295
-0.36343253 0.023194594 0.020914093 0.0034767578 -0.20628658 0.031043127 -0.1909962 -0.19099456
-0.2598897 -0.004102735 -0.02232231 0.07090574 -0.06657471 0.1351883 -0.043499064 0.08532421
-0.069879115 -0.10715762 -0.075605854 -0.4437664 -0.25662738 -0.14401263 -0.059532046 -0.39374575
-0.17895457 -0.28966892 -0.079699494 0.08227505 -0.15316321 -0.15204826 0.054050617 -0.10929525
0.13049519 -0.011624092 0.29008657 -0.41298366 -0.08879869 -0.03892755 0.074883685 -0.1527266
-0.20317508 -0.019416459 0.06950937 -0.09855078 -0.016762499 -0.16869201 0.21830902 -0.088576354

fc1.bias f4 [120]
00000000: c4d4 0e3e f84f c8bd 85f7 c53d 8f99 44bc
00000010: f3e2 a8bd d927 94bd 3647 29be 2376 a93c
00000020: eb73 7c3d 5a37 0cbe 2af1 1dbd 38ec c13c
00000030: b8b7 18bd 4d4c b23e 1142 82bd b7ae 39bd
00000040: c14d 32bd bdc8 143d 8ba6 cfbd 428d 183d
00000050: d65b c63d 8168 68be 32cf e93d 91f7 81bc
00000060: 24d6 99bc 025a ad3d 3d7d a53d 48bf cf3c
00000070: 2eca dc3d be51 17be 55b0 67bd b7a8 82bd
00000080: 2da7 98bd f8a9 5fbd c663 513a e4b2 92bd
00000090: 3f08 aabd 8ee5 c23d 361c 4d3e 1272 4bbd
000000a0: a6d1 3fbc 8c13 923c 8c6b 353e e56e 3ebe
000000b0: 1ba6 823d eb6e 10be b4e3 ae3e 5ef2 89bd
000000c0: a37a 593c fa53 77bc c7fd 883d 3381 053b
000000d0: e58c d73d 59c8 463e 5c7e a03d 29a9 883d
000000e0: 76da 153d bddf a63d 19fe e9bd 0a6c 74bd
000000f0: 0f34 19bd a53c a43e 8993 6f3d 6a26 6e3e
00000100: 11d6 a2bd 5cbd 07ba 35df 27be fa1a 8abd
00000110: e039 b8bd 713e d6bd ba7d d1bd 2191 68bd
00000120: 2bfc e53c 84a1 b5bd 3e6b 39bd e735 5a3e
00000130: e0b6 b6bc 4a2c c7bd 878a ab3d 3f7a 7b3d
00000140: 88e6 bc3d 6ce3 5cbd 8518 b8bb 6335 233e
00000150: 5321 b23b 4132 e7bd 9ee2 2c3c f294 cc3d
00000160: a5af 27bd afba 03be 9016 2ebe 5369 28bd
00000170: f1ed 353c 5293 48bd a350 e23c 6570 4b3e
00000180: 7c2c 043d 234b 35bd 4532 93bd 6492 e0bb
00000190: 31d2 8c3d 688f 9a3d 80d9 03bd 839b 3bbe
000001a0: af0a aabd 6ae2 453e 9ef7 d33c 9428 c13c
000001b0: 3eef 7f3e 9c3c ab3e ae79 a93d b57a 693d
000001c0: aaf3 bc3b 9ff0 4ebd 07e6 39bd bc3b d53d
000001d0: 4f9c 20bd bd29 0bbd 4282 42be 0c12 01be
0.13948351 -0.09780878 0.09666351 -0.011999502 -0.08246412 -0.07234163 -0.16531071 0.020686215
0.061633985 -0.1369299 -0.03856007 0.023672208 -0.037284583 0.34823838 -0.063602574 -0.045332637
-0.043531183 0.03632425 -0.101391874 0.03724409 0.09685485 -0.22696115 0.114164725 -0.01586512
-0.018778868 0.08464433 0.08080528 0.025359765 0.1078075 -0.14777276 -0.056564648 -0.06379836
-0.07453761 -0.054605454 0.00079875847 -0.07163027 -0.08302354 0.0951644 0.20030293 -0.049669333
-0.011707699 0.017831586 0.17716807 -0.1859699 0.06379338 -0.14104812 0.341581 -0.06735681
0.013273868 -0.015095705 0.06689029 0.0020371198 0.105249204 0.19412364 0.07836601 0.0667289
0.036585294 0.081481434 -0.114254184 -0.059673347 -0.037403163 0.32077518 0.05849031 0.23256841
-0.07950986 -0.0005178058 -0.1639374 -0.067434266 -0.08995414 -0.104611285 -0.102290586 -0.05677903
0.028074345 -0.08868697 -0.04526829 0.21309625 -0.022303998 -0.09725244 0.08376031 0.06139588
0.09223658 -0.053927824 -0.0056181573 0.15938334 0.0054361015 -0.11288882 0.010552077 0.099893466
-0.040938992 -0.12864183 -0.17000794 -0.04111607 0.011104093 -0.04896862 0.027626341 0.19867094
0.032268986 -0.04426111 -0.071873225 -0.0068533886 0.06876028 0.07546884 -0.032189846 -0.18321042
-0.08302819 0.19324651 0.025874909 0.02357892 0.24993607 0.3344468 0.08275162 0.05700179
0.0057663517 -0.050522443 -0.045385387 0.10411784 -0.039211567 -0.03397535 -0.18995002 -0.1260454

fc2.weight f4 [84, 120]
00000000: f25c 6fbd 9e68 8f3d 69bf 673d 0a85 a23c
00000010: f23b 283d 2ea1 88be fdfa 2dbe 2425 36be
00000020: d0b9 693d 65c7 513d 2a75 9ebe 00a0 243d
00000030: 5839 fc3c 3c2d 343c 5fa4 25bd 773d 823d
00000040: 2c89 c53c fadd c6bd 816d d2bd e499 f33c
00000050: 9895 373e bd0e 423d 911c 04be a991 95bd
00000060: c060 7bbc 58f0 933d 8d57 83be 27b1 19be
00000070: eb76 6abc 39b5 813d 582f 943d dd85 54be
00000080: 8b3b b83c a775 fd3c 6e41 053d a0ec 3c3d
00000090: 990b 55bd dc51 63bd 149a 173c c9df e6bc
000000a0: ce86 cd3c 9c3a 1a3d 1c4d 61bd a225 c4bd
000000b0: 3169 863d 3b7d 2d3e a938 e83d 502c 2c3d
000000c0: c00c 22bc 855c c5bd a5a7 43be b708 95bd
000000d0: 08f9 17be 4035 bcbd 3a22 f4bd 0a71 1e3d
000000e0: f43f ef3c 4df0 e53d cde3 a8bd 902f 94bd
000000f0: d44e 0ebe b91a aabd 83a2 02be 7cce 22be
00000100: 500c 363e fce3 a23d 7453 1c3e a101 1abd
00000110: 245b 273d 1cc7 193d b822 a43d 6bdb 943b
00000120: 50fe 383d e19c e2bd f631 2f3e 5e2e 06be
00000130: 189c 89be db1e f93c f834 08bd 8ef0 21be
00000140: f785 6e3e 6564 c3bd 65b1 c43e bb93 0abe
00000150: e03d 113d 8c14 743d 4122 093e 93a0 2fbd
00000160: f7a5 37be f0cc 3abd d6bb ea3d 2e9b 183e
00000170: 8621 6c3d b87c 103e 1d08 6cbd b554 23bc
00000180: 34ba c03c 681b 72bc 4c8a d2bc 9ae1 b3bd
00000190: b529 8abd 5410 e23d 2084 433c 0297 3d3e
000001a0: 33e8 c63d bf56 bebd ce46 7bbd 3f8f 223e
000001b0: c93c 6bbe d86a 16be 2306 89bc 073e c13d
000001c0: 6cec a8bd 2334 85bd 8e8c c33d 0eee 3f3d
000001d0: 0e82 ee3d 5e28 74be 0d22 be3c 5197 70bd
000001e0: 8d82 af3a 2491 e7bd 8262 3dbc 57a8 a83c
000001f0: e891 993d 9a37 333e 73b4 213e 53f8 253d
00000200: 1f3b a4be 88aa 0dbd 4796 02bd 3d00 5e3d
00000210: 9acb 9ebd 3267 133c f6c9 87bc 1fbd 28be
00000220: bfb8 6e3b 259b f73d a272 b3bc 3359 773d
00000230: 977c 203d 3857 843d 5940 1bbe da2c cc3b
00000240: 7c9d 58bd 8215 093e f2c7 1c3d 37e4 27be
00000250: cc46 1ebe e95c f2bc 3cab bfbc 28bb 123e
00000260: 6a25 063e b970 e63c 041c babd 3ce1 793d
00000270: a82b 14bd d40f 443e 37a5 84be 4ecd b33d
00000280: 7f7a e93d 1557 b13d 7070 143e d26c d83c
00000290: 2719 dbbd 9094 193e 51b2 a3bc f550 8a3d
000002a0: 8359 c33c ffb1 a93e c4e0 8d3e 39e7 203e
000002b0: 8323 003e 92d5 5ebd 0745 013e c4e4 12be
000002c0: de63 59bd f707 1d3e 5deb 18be 4597 9c3d
000002d0: 19f6 093d 7b51 7dbd 602c 883c 5925 32be
000002e0: e932 623e def2 3cbd 9768 b63d ee30 b4bd
000002f0: e2f8 09bd 0aa7 3abd 7b06 f1bc 379d 0c3c
00000300: 3462 22be dd57 073c a3e5 2c3e 872f 683c
00000310: 153f 78be ee46 9c3d fee2 2abd b2bf 05be
00000320: 6ba2 83be 82cb debd f19e 99be 8b91 b0bd
00000330: a647 ea3d 3745 0b3d 375e 123e 6343 88bc
00000340: be1c 0f3e 206a 45be 03dc 2fbe bef5 d2bd
00000350: 22c4 f63d 81fe 05bd 5337 ab3d 5084 d63c
00000360: 4da7 f13c a832 873d c4ba 1c3d e0ba 1ebd
00000370: 35e3 b33b 1bad 14be abf9 c13d f761 393e
00000380: ac4d 0a3d 4cc3 80bd 4c7f 7abd 6aee 413e
00000390: 0aeb b7bd b6ea 99bc 42e7 adbd 7c8d 7b3d
000003a0: 17fb ac3d 51eb 1fbe ed98 b73e f844 d5bb
000003b0: 3997 283d 9402 43be 575c 373e 2ec9 c2bb
000003c0: 6491 0cbe 6a3a 283d 1bde 7cbd 67c1 3cbe
000003d0: eeb5 08be 5d22 51bd 8d2e 32be ef46 91bc
000003e0: a940 a03c dda7 963b 3805 a4bd 22b9 9a3c
000003f0: 71a7 4cbd 5f00 8e3b 8e75 a53d 0422 aebd
-0.05843825 0.07002376 0.056579027 0.019838829 0.041072793 -0.2668547 -0.16990276 -0.17787606
0.05706197 0.051215548 -0.30948764 0.04019165 0.030789062 0.010997113 -0.04043996 0.0635938
0.02411326 -0.097103074 -0.102747925 0.029736467 0.17928159 0.047377337 -0.12901522 -0.07303173
-0.015342891 0.07223576 -0.25652733 -0.15008985 -0.014310579 0.063333936 0.072355926 -0.2075419
0.02248933 0.03093989 0.0325331 0.0461241 -0.052013014 -0.05549799 0.009253044 -0.028182881
0.025088694 0.03765355 -0.055005178 -0.095774904 0.065630324 0.16942303 0.11338932 0.042034447
-0.009890735 -0.09636787 -0.1910692 -0.07277053 -0.14841092 -0.09189844 -0.11920591 0.03868202
0.0292053 0.11227474 -0.082465746 -0.07235634 -0.13897258 -0.08305878 -0.12757306 -0.1589908
0.17778134 0.07953641 0.1526621 -0.03759921 0.040858403 0.0375434 0.080144346 0.004542758
0.045164406 -0.110650785 0.17108902 -0.13103625 -0.26876903 0.03041022 -0.03325364 -0.1581442
0.23293291 -0.09540633 0.3841659 -0.13532917 0.0354594 0.059589908 0.13391973 -0.042877745
-0.17934404 -0.0456056 0.11461608 0.14902946 0.057649158 0.14110076 -0.057624925 -0.009968926
0.023526289 -0.014777042 -0.02570071 -0.087832645 -0.06746236 0.110382706 0.0119333565 0.18514636
0.09712257 -0.09293889 -0.06134682 0.15874957 -0.22972406 -0.14689195 -0.016726559 0.09435659
-0.08248219 -0.06504085 0.09548293 0.046857886 0.116459 -0.23843524 0.023209596 -0.058738057
0.0013390348 -0.1130698 -0.011559131 0.020588083 0.074985325 0.17501679 0.15791492 0.040520024
-0.32076356 -0.03458646 -0.031881597 0.054199446 -0.07753678 0.008996772 -0.016575795 -0.16478394
0.0036426035 0.12090138 -0.021905247 0.0603878 0.039181318 0.06461948 -0.15161265 0.0062309327
-0.052884564 0.13387111 0.03827662 -0.16395651 -0.15456694 -0.029585319 -0.02339708 0.14329207
0.1310021 0.028129922 -0.09087375 0.061005816 -0.036174446 0.19146663 -0.259073 0.08779393
0.114003174 0.08659188 0.14496017 0.026419077 -0.10698157 0.14998078 -0.019982489 0.067537226
0.023846393 0.33143613 0.27710545 0.15713204 0.12513547 -0.054402895 0.12623988 -0.1434508
-0.053073756 0.1533507 -0.14933534 0.0764604 0.033681963 -0.061845284 0.016622722 -0.1739706
0.22089733 -0.046130054 0.08906668 -0.08798395 -0.03368462 -0.045569457 -0.029422035 0.008582405
-0.15857774 0.008260694 0.16884474 0.014171488 -0.24242814 0.07630716 -0.041720383 -0.13061407
-0.25709853 -0.1087866 -0.30004075 -0.0862151 0.11439447 0.034001555 0.14293753 -0.016633695
0.13975808 -0.19278765 -0.17173772 -0.10300778 0.12049128 -0.032713417 0.08360162 0.026186138
0.02949872 0.06601459 0.03826405 -0.038752437 0.0054897317 -0.1451916 0.094714485 0.18103777
0.03376548 -0.0628725 -0.061156556 0.18938604 -0.08980377 -0.018788677 -0.084913746 0.061414227
0.08446329 -0.1561711 0.3585886 -0.006508466 0.041159842 -0.19043952 0.17906319 -0.0059443926
-0.13727337 0.041071333 -0.061735254 -0.18433152 -0.1335065 -0.051058162 -0.1740057 -0.01773402
0.019562082 0.0045976476 -0.08008808 0.018887106 -0.049964372 0.0043335403 0.080790624 -0.08502582

fc2.bias f4 [84]
00000000: 5470 8fbe c6fa b4bc 904d 58be 3ab9 353e
00000010: 2417 5b3e 75d9 d5bd 944c 313e bcf6 273c
00000020: f136 45be f7bf 4cbe 28e9 01be 4482 02be
00000030: 5dd0 4b3e 617c 27be be36 1dbd 4c7b dc3d
00000040: 6f7c ddbd 072b 38be 79b6 f33c 9a18 783e
00000050: ed5f 41bd bfc4 df3c d6a2 e0bd 9772 15be
00000060: 6d0d 123e 38ba 35be 5e06 febd 2bbe c0bd
00000070: da5d 1bbe 4d17 8bbd fd5f e43d 7d9f 913e
00000080: 143b bdbd e01d 07be effe 1dbe a251 a3bd
00000090: f49d 9e3d 024a 863e 52b9 5a3e 9592 903e
000000a0: fdbd 91bd 88e4 84bd d525 723e 0be5 24be
000000b0: 86bc e6bd f0ce 173c 8f77 643e cdf6 51be
000000c0: 6c91 2b3e c990 dcbd a0da 263d c7db 36be
000000d0: a246 2b3e 1328 9b3e 0fc0 3a3e f96a f4bd
000000e0: 2fde 8bbd 0924 4d3e c327 da3d b7a8 063e
000000f0: 965c 2e3d 963d 943e 8dd3 293e bcfb e43d
00000100: 4dfb 50bd 7a51 bcbe 0151 813d df0c 0e3e
00000110: 0d6e c5bd 37e7 3d3e 3dfe febd ac13 443e
00000120: 84ea b6bc a22d 833d fe9d 9cbd aa14 7cbd
00000130: 98c8 213e b10c 8a3e c6bc 943e f908 743d
00000140: d3b2 1ebe 19d8 033e 2eb1 4ebc 5f83 31bd
-0.28015387 -0.022092234 -0.21123338 0.1774644 0.21395546 -0.10441867 0.17314368 0.010251697
-0.1925924 -0.19995104 -0.12686598 -0.12745005 0.19903703 -0.1635604 -0.038382284 0.107657045
-0.108147494 -0.17985164 0.029750096 0.24228135 -0.047210623 0.027315496 -0.109685585 -0.14594494
0.14262934 -0.17746818 -0.12403558 -0.09411272 -0.1517252 -0.06791554 0.11151121 0.28441992
-0.09239784 -0.1319499 -0.1542928 -0.079745546 0.07744971 0.26228338 0.21359757 0.28236833
-0.071163155 -0.064889014 0.23647244 -0.16102998 -0.11266427 0.009265646 0.22311233 -0.20504303
0.16754693 -0.10769803 0.04073584 -0.17857276 0.16726163 0.30304012 0.18237327 -0.11934466
-0.068294875 0.20033278 0.10652115 0.13150297 0.042568766 0.28953236 0.16584606 0.11180827
-0.05102091 -0.36780912 0.063142784 0.13872097 -0.09640131 0.18545233 -0.12450836 0.19148129
-0.022328623 0.06405188 -0.07647322 -0.061543144 0.15799177 0.26962808 0.29050273 0.05957887
-0.15497904 0.12875403 -0.012615485 -0.043338176

fc3.weight f4 [10, 84]
00000000: d19d 72be 172f 8e3d 361e 5fbe 81ab 41bd
00000010: 7a7c aa3d 8f91 6bbe 2a2e 0cbf 166e a5be
00000020: 1900 813d 81e4 60be c7c2 8bbc f100 b5be
00000030: 25b0 1dbe b393 69bd 2d6f f1bd 79dc 9ebe
00000040: b267 29bf 3f6b 69be 3902 c03c 6e93 16bc
00000050: af90 33bd 0ded 4abe 5cfe 183d b274 36be
00000060: df0d c2be fe5e c7bd 77c8 52be 72e2 aebd
00000070: 1fb9 77bf 206e 9a3d 3748 a7bd 2fea e53c
00000080: 2f32 df3c e80e 57be 0a56 42be 8ec2 f4bc
00000090: 7408 49be 5099 a2be 4fc9 93bd a0c7 d7bc
000000a0: c9a2 593d 9d48 3fbe e08a 33be d750 97bd
000000b0: aee5 b0be eb82 e2be d3d9 dabd e59a 47be
000000c0: 4635 9bbe ff97 16be d8b1 37be 501b 36bb
000000d0: 286f 133e ba33 42be 8b7f 7cbc fba3 eebd
000000e0: 968e 86bd acaa 193e 3a2b 0d3e 51ff 1a3e
000000f0: 544e 113e 61bd f43d 85f6 c33d 6525 b4bf
00000100: acc9 07be 2c92 4c3d d4c0 02bf fa7a 5fbe
00000110: c4d1 cebd d090 d73d f869 b9bd 6b43 fa3d
00000120: 1e9e 82be d0c6 c2be 4bc2 493d 9b5e 44be
00000130: 01a8 f33d 548f 2fbe edc8 943d d0ef 19be
00000140: d125 98be 89eb d0be cc7f 39be 6b73 74be
00000150: 5d70 62bd 0d3d b53d 301f aabe 1a91 1cbf
00000160: 86df 06bf cd6f 1fbe 6548 e7be 036d e23d
00000170: c0fc 03be 5544 04be 8b11 dabd 6d59 f8be
00000180: 8bf3 21bf 0259 f4be e9d4 98bf c82c c3be
00000190: 78ae 5abe 93d7 17be 19ec 28be 9d52 93be
000001a0: 935b 48bf b35e 6c3d 79da 6fbe 4ac4 40bf
000001b0: 88d8 1abf 6a6f 8fbe f855 11bd 5bde dc3d
000001c0: 2884 30be 8980 d3bd b967 cabd a365 d0bd
000001d0: c5b5 283d 4859 953d eeec 2f3e 7d56 fdbd
000001e0: 385a 81bd aea9 6ebe 1c2e 19bf dad2 203e
000001f0: f88e 0fbe 68d6 69bd ad24 df3c 4243 13bf
00000200: 3f60 bdbe 7c15 0d3e 469f 6bbe 6e19 a73d
00000210: 97e3 0fbf 2e09 9c3d 377a 9e3d 82e0 d5bb
00000220: 4af9 afbe 4a3b c83d 63c4 fb3d 46ff 87be
00000230: 110f 88be 494f d5be 3226 043d 11e8 0bbe
00000240: 1d50 a7be c22a 2a3e a5be 65be e836 bcbf
00000250: b224 0c3d 5087 87be 48d3 33bf 6117 aabe
00000260: 39a8 36be 4130 26bd 3814 513e 2c43 b9be
00000270: 1c4b e8be 3212 cebd f178 10be 7950 c8be
00000280: 8466 b53a 4876 0cbf ad89 05bf 5188 923d
00000290: fc83 bbbd 4ff1 24bf 6a6d 473d 1162 d7be
000002a0: 375e 8cbe 2ae3 91bd 0eb4 c4bd 6ce4 163d
000002b0: d171 e33d 95a3 d3bd 4ee2 863d 4f8d 1ebe
000002c0: d05b b7bd 9b8f f7be 02eb 23be d4f9 9fbe
000002d0: 3245 9ebb 8c25 4fbd 7fe0 6dbe 8519 15be
000002e0: a437 26bf 7b30 01be 349e 28be 804b 07bf
000002f0: 4cef e9bc 0fc3 1b3e 4294 a4bd 5ac3 3dbd
00000300: 4b27 9fbe 1ed9 0ebd 3e3e 16be 8964 8c3d
00000310: 6e3f 3bbf 3f9e 18be 19ec 36b9 bcc0 2e3e
00000320: 3171 e0be 8086 a4bd 3241 1cbe ae8f 30bd
00000330: 7c94 9e3d 86bf 71bd 751c 333e 2bda 13bd
00000340: 0ec9 0fbd fba5 53bd c495 abbe c9b8 cabd
00000350: 7e2a 53be 245a d93a 7e90 95be a50d f5bd
00000360: d659 b33d 3a9b 89be a62a 9bbe 149b f9bc
00000370: 296e adbe 9eaa 5dbe b879 ddbc ffc9 e8be
00000380: 6f46 6bbd e162 683e 9796 10bf c3d9 40bc
00000390: 6944 803d 984a f13d 7d8a fdbd 65a2 9dbf
000003a0: eff7 8c3c cb20 0f3d 4e71 f3bd 5770 f7bc
000003b0: d3b4 bbbd 0ff9 79be 5ba2 82be e7dd a53d
000003c0: d6fc 0bbe a1a0 f03d f2b1 4b3d 77ab 96be
000003d0: d37f 8bbe f6d5 9b3d 60d3 b73d 3eac 90be
000003e0: 359c a4bd 8afc f1be 6446 83be 2ba7 8ebe
000003f0: 2784 21be 0c89 b63d 5b9d babd 6bc5 6abe
-0.23693015 0.069425754 -0.21788868 -0.0472827 0.08324523 -0.23004745 -0.5475794 -0.3231055
0.06298847 -0.21962167 -0.01706065 -0.3535228 -0.15399225 -0.057025623 -0.11788783 -0.31027582
-0.6617385 -0.22794817 0.02343856 -0.009190423 -0.043839153 -0.1981699 0.03735195 -0.17817953
-0.37901208 -0.09734915 -0.20584284 -0.08539285 -0.9676685 0.07540536 -0.08168071 0.028065769
0.02724561 -0.2100178 -0.18978134 -0.029877927 -0.19632131 -0.31757593 -0.07216131 -0.026340306
0.05313376 -0.18680044 -0.17533445 -0.07388466 -0.34550232 -0.44240507 -0.10686078 -0.19492681
-0.30314082 -0.1470642 -0.17938936 -0.0027787276 0.14397871 -0.18965045 -0.015411268 -0.116523705
-0.06570165 0.15006512 0.13786021 0.15136458 0.14190036 0.11950184 0.09568504 -1.4073912
-0.13260525 0.049944088 -0.5107548 -0.21824256 -0.10098603 0.10525668 -0.09053415 0.1221989
-0.2551126 -0.38042307 0.049257558 -0.19176714 0.118972786 -0.17144519 0.07264886 -0.15032887
-0.29716352 -0.408047 -0.18115157 -0.23872153 -0.05528294 0.08849535 -0.3322692 -0.6115891
-0.5268482 -0.15569992 -0.4517242 0.110559486 -0.12889385 -0.12916692 -0.10647877 -0.48505726
-0.6326224 -0.47724158 -1.1939975 -0.38120103 -0.21355617 -0.14828329 -0.16496314 -0.28773966
-0.7826473 0.0577075 -0.23423184 -0.75299513 -0.6048665 -0.2801469 -0.035482377 0.107845984
-0.17237914 -0.103272505 -0.09883065 -0.10175636 0.041188974 0.0729242 0.17180225 -0.12370012
-0.06316036 -0.23306915 -0.5983598 0.15705433 -0.14019382 -0.05708924 0.027239168 -0.575245
-0.36987492 0.13777727 -0.23009977 0.08159147 -0.5620665 0.076189384 0.077381544 -0.0065270076
-0.3436988 0.097769335 0.12293317 -0.26561946 -0.26573995 -0.41662052 0.03226299 -0.13662745
-0.3267831 0.16617873 -0.22436006 -1.4704256 0.034214683 -0.26470423 -0.70244265 -0.33220962
-0.1783761 -0.040573362 0.20417869 -0.3618406 -0.45369804 -0.10062064 -0.14108635 -0.39123896
0.0013839756 -0.5486798 -0.521632 0.071549065 -0.091560334 -0.6443071 0.04868833 -0.42067006
-0.2741563 -0.07123406 -0.09604655 0.036838934 0.11105693 -0.10333935 0.06586133 -0.15483592
-0.08953059 -0.4835175 -0.16007617 -0.3124529 -0.004830026 -0.050572917 -0.2323017 -0.14560516
-0.6492865 -0.1261615 -0.164666 -0.5284958 -0.028556488 0.15211128 -0.080360904 -0.04632888
-0.31084666 -0.034875028 -0.14672181 0.06855113 -0.7314366 -0.14904116 -0.00017444826 0.1706571
-0.43836358 -0.08033466 -0.15259245 -0.043105774 0.07743165 -0.05902054 0.17491324 -0.036096733
-0.03510385 -0.051671963 -0.335127 -0.09898526 -0.20621678 0.001658265 -0.292118 -0.11965493
0.08757369 -0.2687624 -0.30305976 -0.030469455 -0.33873108 -0.21647117 -0.02703558 -0.4546661
-0.057440218 0.2269397 -0.5647978 -0.011770668 0.06263048 0.11781806 -0.1237993 -1.2315184
0.017208068 0.034943383 -0.118868455 -0.030204935 -0.09165349 -0.24411415 -0.25514492 0.08098965
-0.13670668 0.117493875 0.04973025 -0.29427692 -0.2724596 0.07609169 0.089758635 -0.2825641
-0.080376066 -0.47262985 -0.2563964 -0.27861914 -0.15773068 0.08912858 -0.091120444 -0.22926871

fc3.bias f4 [10]
00000000: 6c6f 403d 781c c9be b53b 063e c843 073e
00000010: df7c 33be af1a 91bd 95a9 703e 5fdc 033e
00000020: 2dda f03d 4a35 22be
0.04698126 -0.39279532 0.13108714 0.1320945 -0.17528103 -0.070851676 0.2350219 0.12877034
0.11760364 -0.1584064
